…
    batch_sampler {
      sampler {
        min_scale: 0.3
        max_scale: 1
        min_aspect_ratio: 0.5
        max_aspect_ratio: 2
      }
      sample_constraint {
        min_jaccard_overlap: 0.9
      }
      max_sample: 1
      max_trials: 50
    }
    batch_sampler {
      sampler {
        min_scale: 0.3
        max_scale: 1
        min_aspect_ratio: 0.5
        max_aspect_ratio: 2
      }
      sample_constraint {
        max_jaccard_overlap: 1
      }
      max_sample: 1
      max_trials: 50
    }
    label_map_file: "labelmap.prototxt"
  }
}
layer {
  name: "conv0"
  type: "Convolution"
  bottom: "data"
  top: "conv0"
  param {
    lr_mult: 0.1
    decay_mult: 0.1
  }
  convolution_param {
    num_output: 32
    bias_term: false
    pad: 1
    kernel_size: 3
    stride: 2
    weight_filler {
      type: "msra"
    }
  }
}
layer {
  name: "conv0/bn"
  type: "BatchNorm"
  bottom: "conv0"
  top: "conv0"
}
layer {
  name: "conv0/scale"
  type: "Scale"
  bottom: "conv0"
  top: "conv0"
  param {
    lr_mult: 0.1
    decay_mult: 0
  }
  param {
    lr_mult: 0.2
    decay_mult: 0
  }
  scale_param {
    filler {
      value: 1
    }
    bias_term: true
    bias_filler {
      value: 0
    }
  }
}
layer {
  name: "conv0/relu"
  type: "ReLU"
  bottom: "conv0"
  top: "conv0"
}
layer {
  name: "conv1/dw"
  type: "Convolution"
  bottom: "conv0"
  top: "conv1/dw"
  param {
    lr_mult: 0.1
    decay_mult: 0.1
  }
  convolution_param {
    num_output: 32
    bias_term: false
    pad: 1
    kernel_size: 3
    group: 32
    weight_filler {
      type: "msra"
    }
    engine: CAFFE
  }
}
layer {
  name: "conv1/dw/bn"
  type: "BatchNorm"
  bottom: "conv1/dw"
  top: "conv1/dw"
}
layer {
  name: "conv1/dw/scale"
  type: "Scale"
  bottom: "conv1/dw"
  top: "conv1/dw"
  param {
    lr_mult: 0.1
    decay_mult: 0
  }
  param {
    lr_mult: 0.2
    decay_mult: 0
  }
  scale_param {
    filler {
      value: 1
    }
    bias_term: true
    bias_filler {
      value: 0
    }
  }
}
layer {
  name: "conv1/dw/relu"
  type: "ReLU"
  bottom: "conv1/dw"
  top: "conv1/dw"
}
layer {
  name: "conv1"
  type: "Convolution"
  bottom: "conv1/dw"
  top: "conv1"
  param {
    lr_mult: 0.1
    decay_mult: 0.1
  }
  convolution_param {
    num_output: 64
    bias_term: false
    kernel_size: 1
    weight_filler {
      type: "msra"
    }
  }
}
layer {
  name: "conv1/bn"
  type: "BatchNorm"
  bottom: "conv1"
  top: "conv1"
}
layer {
  name: "conv1/scale"
  type: "Scale"
  bottom: "conv1"
  top: "conv1"
  param {
    lr_mult: 0.1
    decay_mult: 0
  }
  param {
    lr_mult: 0.2
    decay_mult: 0
  }
  scale_param {
    filler {
      value: 1
    }
    bias_term: true
    bias_filler {
      value: 0
    }
  }
}
layer {
  name: "conv1/relu"
  type: "ReLU"
  bottom: "conv1"
  top: "conv1"
}
layer {
  name: "conv2/dw"
  type: "Convolution"
  bottom: "conv1"
  top: "conv2/dw"
  param {
    lr_mult: 0.1
    decay_mult: 0.1
  }
  convolution_param {
    num_output: 64
    bias_term: false
    pad: 1
    kernel_size: 3
    group: 64
    stride: 2
    weight_filler {
      type: "msra"
    }
    engine: CAFFE
  }
}
layer {
  name: "conv2/dw/bn"
  type: "BatchNorm"
  bottom: "conv2/dw"
  top: "conv2/dw"
}
layer {
  name: "conv2/dw/scale"
  type: "Scale"
  bottom: "conv2/dw"
  top: "conv2/dw"
  param {
    lr_mult: 0.1
    decay_mult: 0
  }
  param {
    lr_mult: 0.2
    decay_mult: 0
  }
  scale_param {
    filler {
      value: 1
    }
    bias_term: true
    bias_filler {
      value: 0
    }
  }
}
layer {
  name: "conv2/dw/relu"
  type: "ReLU"
  bottom: "conv2/dw"
  top: "conv2/dw"
}
layer {
  name: "conv2"
  type: "Convolution"
  bottom: "conv2/dw"
  top: "conv2"
  param {
    lr_mult: 0.1
    decay_mult: 0.1
  }
  convolution_param {
    num_output: 128
    bias_term: false
    kernel_size: 1
    weight_filler {
      type: "msra"
    }
  }
}
layer {
  name: "conv2/bn"
  type: "BatchNorm"
  bottom: "conv2"
  top: "conv2"
}
layer {
  name: "conv2/scale"
  type: "Scale"
  bottom: "conv2"
  top: "conv2"
  param {
    lr_mult: 0.1
    decay_mult: 0
  }
  param {
    lr_mult: 0.2
    decay_mult: 0
  }
  scale_param {
    filler {
      value: 1
    }
    bias_term: true
    bias_filler {
      value: 0
    }
  }
}
layer {
  name: "conv2/relu"
  type: "ReLU"
  bottom: "conv2"
  top: "conv2"
}
layer {
  name: "conv3/dw"
  type: "Convolution"
  bottom: "conv2"
  top: "conv3/dw"
  param {
    lr_mult: 0.1
    decay_mult: 0.1
  }
  convolution_param {
    num_output: 128
    bias_term: false
    pad: 1
    kernel_size: 3
    group: 128
    weight_filler {
      type: "msra"
    }
    engine: CAFFE
  }
}
layer {
  name: "conv3/dw/bn"
  type: "BatchNorm"
  bottom: "conv3/dw"
  top: "conv3/dw"
}
layer {
  name: "conv3/dw/scale"
  type: "Scale"
  bottom: "conv3/dw"
  top: "conv3/dw"
  param {
    lr_mult: 0.1
    decay_mult: 0
  }
  param {
    lr_mult: 0.2
    decay_mult: 0
  }
  scale_param {
    filler {
      value: 1
    }
    bias_term: true
    bias_filler {
      value: 0
    }
  }
}
layer {
  name: "conv3/dw/relu"
  type: "ReLU"
  bottom: "conv3/dw"
  top: "conv3/dw"
}
layer {
  name: "conv3"
  type: "Convolution"
  bottom: "conv3/dw"
  top: "conv3"
  param {
    lr_mult: 0.1
    decay_mult: 0.1
  }
  convolution_param {
    num_output: 128
    bias_term: false
    kernel_size: 1
    weight_filler {
      type: "msra"
    }
  }
}
layer {
  name: "conv3/bn"
  type: "BatchNorm"
  bottom: "conv3"
  top: "conv3"
}
layer {
  name: "conv3/scale"
  type: "Scale"
  bottom: "conv3"
  top: "conv3"
  param {
    lr_mult: 0.1
    decay_mult: 0
  }
  param {
    lr_mult: 0.2
    decay_mult: 0
  }
  scale_param {
    filler {
      value: 1
    }
    bias_term: true
    bias_filler {
      value: 0
    }
  }
}
layer {
  name: "conv3/relu"
  type: "ReLU"
  bottom: "conv3"
  top: "conv3"
}
layer {
  name: "conv4/dw"
  type: "Convolution"
  bottom: "conv3"
  top: "conv4/dw"
  param {
    lr_mult: 0.1
    decay_mult: 0.1
  }
  convolution_param {
    num_output: 128
    bias_term: false
    pad: 1
    kernel_size: 3
    group: 128
    stride: 2
    weight_filler {
      type: "msra"
    }
    engine: CAFFE
  }
}
layer {
  name: "conv4/dw/bn"
  type: "BatchNorm"
  bottom: "conv4/dw"
  top: "conv4/dw"
}
layer {
  name: "conv4/dw/scale"
  type: "Scale"
  bottom: "conv4/dw"
  top: "conv4/dw"
  param {
    lr_mult: 0.1
    decay_mult: 0
  }
  param {
    lr_mult: 0.2
    decay_mult: 0
  }
  scale_param {
    filler {
      value: 1
    }
    bias_term: true
    bias_filler {
      value: 0
    }
  }
}
layer {
  name: "conv4/dw/relu"
  type: "ReLU"
  bottom: "conv4/dw"
  top: "conv4/dw"
}
layer {
  name: "conv4"
  type: "Convolution"
  bottom: "conv4/dw"
  top: "conv4"
  param {
    lr_mult: 0.1
    decay_mult: 0.1
  }
  convolution_param {
    num_output: 256
    bias_term: false
    kernel_size: 1
    weight_filler {
      type: "msra"
    }
  }
}
layer {
  name: "conv4/bn"
  type: "BatchNorm"
  bottom: "conv4"
  top: "conv4"
}
layer {
  name: "conv4/scale"
  type: "Scale"
  bottom: "conv4"
  top: "conv4"
  param {
    lr_mult: 0.1
    decay_mult: 0
  }
  param {
    lr_mult: 0.2
    decay_mult: 0
  }
  scale_param {
    filler {
      value: 1
    }
    bias_term: true
    bias_filler {
      value: 0
    }
  }
}
layer {
  name: "conv4/relu"
  type: "ReLU"
  bottom: "conv4"
  top: "conv4"
}
layer {
  name: "conv5/dw"
  type: "Convolution"
  bottom: "conv4"
  top: "conv5/dw"
  param {
    lr_mult: 0.1
    decay_mult: 0.1
  }
  convolution_param {
    num_output: 256
    bias_term: false
    pad: 1
    kernel_size: 3
    group: 256
    weight_filler {
      type: "msra"
    }
    engine: CAFFE
  }
}
layer {
  name: "conv5/dw/bn"
  type: "BatchNorm"
  bottom: "conv5/dw"
  top: "conv5/dw"
}
layer {
  name: "conv5/dw/scale"
  type: "Scale"
  bottom: "conv5/dw"
  top: "conv5/dw"
  param {
    lr_mult: 0.1
    decay_mult: 0
  }
  param {
    lr_mult: 0.2
    decay_mult: 0
  }
  scale_param {
    filler {
      value: 1
    }
    bias_term: true
    bias_filler {
      value: 0
    }
  }
}
layer {
  name: "conv5/dw/relu"
  type: "ReLU"
  bottom: "conv5/dw"
  top: "conv5/dw"
}
layer {
  name: "conv5"
  type: "Convolution"
  bottom: "conv5/dw"
  top: "conv5"
  param {
    lr_mult: 0.1
    decay_mult: 0.1
  }
  convolution_param {
    num_output: 256
    bias_term: false
    kernel_size: 1
    weight_filler {
      type: "msra"
    }
  }
}
layer {
  name: "conv5/bn"
  type: "BatchNorm"
  bottom: "conv5"
  top: "conv5"
}
layer {
  name: "conv5/scale"
  type: "Scale"
  bottom: "conv5"
  top: "conv5"
  param {
    lr_mult: 0.1
    decay_mult: 0
  }
  param {
    lr_mult: 0.2
    decay_mult: 0
  }
  scale_param {
    filler {
      value: 1
    }
    bias_term: true
    bias_filler {
      value: 0
    }
  }
}
layer {
  name: "conv5/relu"
  type: "ReLU"
  bottom: "conv5"
  top: "conv5"
}
layer {
  name: "conv6/dw"
  type: "Convolution"
  bottom: "conv5"
  top: "conv6/dw"
  param {
    lr_mult: 0.1
    decay_mult: 0.1
  }
  convolution_param {
    num_output: 256
    bias_term: false
    pad: 1
    kernel_size: 3
    group: 256
    stride: 2
    weight_filler {
      type: "msra"
    }
    engine: CAFFE
  }
}
layer {
  name: "conv6/dw/bn"
  type: "BatchNorm"
  bottom: "conv6/dw"
  top: "conv6/dw"
}
layer {
  name: "conv6/dw/scale"
  type: "Scale"
  bottom: "conv6/dw"
  top: "conv6/dw"
  param {
    lr_mult: 0.1
    decay_mult: 0
  }
  param {
    lr_mult: 0.2
    decay_mult: 0
  }
  scale_param {
    filler {
      value: 1
    }
    bias_term: true
    bias_filler {
      value: 0
    }
  }
}
layer {
  name: "conv6/dw/relu"
  type: "ReLU"
  bottom: "conv6/dw"
  top: "conv6/dw"
}
layer {
  name: "conv6"
  type: "Convolution"
  bottom: "conv6/dw"
  top: "conv6"
  param {
    lr_mult: 0.1
    decay_mult: 0.1
  }
  convolution_param {
    num_output: 512
    bias_term: false
    kernel_size: 1
    weight_filler {
      type: "msra"
    }
  }
}
layer {
  name: "conv6/bn"
  type: "BatchNorm"
  bottom: "conv6"
  top: "conv6"
}
layer {
  name: "conv6/scale"
  type: "Scale"
  bottom: "conv6"
  top: "conv6"
  param {
    lr_mult: 0.1
    decay_mult: 0
  }
  param {
    lr_mult: 0.2
    decay_mult: 0
  }
  scale_param {
    filler {
      value: 1
    }
    bias_term: true
    bias_filler {
      value: 0
    }
  }
}
layer {
  name: "conv6/relu"
  type: "ReLU"
  bottom: "conv6"
  top: "conv6"
}
layer {
  name: "conv7/dw"
  type: "Convolution"
  bottom: "conv6"
  top: "conv7/dw"
  param {
    lr_mult: 0.1
    decay_mult: 0.1
  }
  convolution_param {
    num_output: 512
    bias_term: false
    pad: 1
    kernel_size: 3
    group: 512
    weight_filler {
      type: "msra"
    }
    engine: CAFFE
  }
}
layer {
  name: "conv7/dw/bn"
  type: "BatchNorm"
  bottom: "conv7/dw"
  top: "conv7/dw"
}
layer {
  name: "conv7/dw/scale"
  type: "Scale"
  bottom: "conv7/dw"
  top: "conv7/dw"
  param {
    lr_mult: 0.1
    decay_mult: 0
  }
  param {
    lr_mult: 0.2
    decay_mult: 0
  }
  scale_param {
    filler {
      value: 1
    }
    bias_term: true
    bias_filler {
      value: 0
    }
  }
}
layer {
  name: "conv7/dw/relu"
  type: "ReLU"
  bottom: "conv7/dw"
  top: "conv7/dw"
}
layer {
  name: "conv7"
  type: "Convolution"
  bottom: "conv7/dw"
  top: "conv7"
  param {
    lr_mult: 0.1
    decay_mult: 0.1
  }
  convolution_param {
    num_output: 512
    bias_term: false
    kernel_size: 1
    weight_filler {
      type: "msra"
    }
  }
}
layer {
  name: "conv7/bn"
  type: "BatchNorm"
  bottom: "conv7"
  top: "conv7"
}
layer {
  name: "conv7/scale"
  type: "Scale"
  bottom: "conv7"
  top: "conv7"
  param {
    lr_mult: 0.1
    decay_mult: 0
  }
  param {
    lr_mult: 0.2
    decay_mult: 0
  }
  scale_param {
    filler {
      value: 1
    }
    bias_term: true
    bias_filler {
      value: 0
    }
  }
}
layer {
  name: "conv7/relu"
  type: "ReLU"
  bottom: "conv7"
  top: "conv7"
}
layer {
  name: "conv8/dw"
  type: "Convolution"
  bottom: "conv7"
  top: "conv8/dw"
  param {
    lr_mult: 0.1
    decay_mult: 0.1
  }
  convolution_param {
    num_output: 512
    bias_term: false
    pad: 1
    kernel_size: 3
    group: 512
    weight_filler {
      type: "msra"
    }
    engine: CAFFE
  }
}
layer {
  name: "conv8/dw/bn"
  type: "BatchNorm"
  bottom: "conv8/dw"
  top: "conv8/dw"
}
layer {
  name: "conv8/dw/scale"
  type: "Scale"
  bottom: "conv8/dw"
  top: "conv8/dw"
  param {
    lr_mult: 0.1
    decay_mult: 0
  }
  param {
    lr_mult: 0.2
    decay_mult: 0
  }
  scale_param {
    filler {
      value: 1
    }
    bias_term: true
    bias_filler {
      value: 0
    }
  }
}
layer {
  name: "conv8/dw/relu"
  type: "ReLU"
  bottom: "conv8/dw"
  top: "conv8/dw"
}
layer {
  name: "conv8"
  type: "Convolution"
  bottom: "conv8/dw"
  top: "conv8"
  param {
    lr_mult: 0.1
    decay_mult: 0.1
  }
  convolution_param {
    num_output: 512
    bias_term: false
    kernel_size: 1
    weight_filler {
      type: "msra"
    }
  }
}
layer {
  name: "conv8/bn"
  type: "BatchNorm"
  bottom: "conv8"
  top: "conv8"
}
layer {
  name: "conv8/scale"
  type: "Scale"
  bottom: "conv8"
  top: "conv8"
  param {
    lr_mult: 0.1
    decay_mult: 0
  }
  param {
    lr_mult: 0.2
    decay_mult: 0
  }
  scale_param {
    filler {
      value: 1
    }
    bias_term: true
    bias_filler {
      value: 0
    }
  }
}
layer {
  name: "conv8/relu"
  type: "ReLU"
  bottom: "conv8"
  top: "conv8"
}
layer {
  name: "conv9/dw"
  type: "Convolution"
  bottom: "conv8"
  top: "conv9/dw"
  param {
    lr_mult: 0.1
    decay_mult: 0.1
  }
  convolution_param {
    num_output: 512
    bias_term: false
    pad: 1
    kernel_size: 3
    group: 512
    weight_filler {
      type: "msra"
    }
    engine: CAFFE
  }
}
layer {
  name: "conv9/dw/bn"
  type: "BatchNorm"
  bottom: "conv9/dw"
  top: "conv9/dw"
}
layer {
  name: "conv9/dw/scale"
  type: "Scale"
  bottom: "conv9/dw"
  top: "conv9/dw"
  param {
    lr_mult: 0.1
    decay_mult: 0
  }
  param {
    lr_mult: 0.2
    decay_mult: 0
  }
  scale_param {
    filler {
      value: 1
    }
    bias_term: true
    bias_filler {
      value: 0
    }
  }
}
layer {
  name: "conv9/dw/relu"
  type: "ReLU"
  bottom: "conv9/dw"
  top: "conv9/dw"
}
layer {
  name: "conv9"
  type: "Convolution"
  bottom: "conv9/dw"
  top: "conv9"
  param {
    lr_mult: 0.1
    decay_mult: 0.1
  }
  convolution_param {
    num_output: 512
    bias_term: false
    kernel_size: 1
    weight_filler {
      type: "msra"
    }
  }
}
layer {
  name: "conv9/bn"
  type: "BatchNorm"
  bottom: "conv9"
  top: "conv9"
}
layer {
  name: "conv9/scale"
  type: "Scale"
  bottom: "conv9"
  top: "conv9"
  param {
    lr_mult: 0.1
    decay_mult: 0
  }
  param {
    lr_mult: 0.2
    decay_mult: 0
  }
  scale_param {
    filler {
      value: 1
    }
    bias_term: true
    bias_filler {
      value: 0
    }
  }
}
layer {
  name: "conv9/relu"
  type: "ReLU"
  bottom: "conv9"
  top: "conv9"
}
layer {
  name: "conv10/dw"
  type: "Convolution"
  bottom: "conv9"
  top: "conv10/dw"
  param {
    lr_mult: 0.1
    decay_mult: 0.1
  }
  convolution_param {
    num_output: 512
    bias_term: false
    pad: 1
    kernel_size: 3
    group: 512
    weight_filler {
      type: "msra"
    }
    engine: CAFFE
  }
}
layer {
  name: "conv10/dw/bn"
  type: "BatchNorm"
  bottom: "conv10/dw"
  top: "conv10/dw"
}
layer {
  name: "conv10/dw/scale"
  type: "Scale"
  bottom: "conv10/dw"
  top: "conv10/dw"
  param {
    lr_mult: 0.1
    decay_mult: 0
  }
  param {
    lr_mult: 0.2
    decay_mult: 0
  }
  scale_param {
    filler {
      value: 1
    }
    bias_term: true
    bias_filler {
      value: 0
    }
  }
}
layer {
  name: "conv10/dw/relu"
  type: "ReLU"
  bottom: "conv10/dw"
  top: "conv10/dw"
}
layer {
  name: "conv10"
  type: "Convolution"
  bottom: "conv10/dw"
  top: "conv10"
  param {
    lr_mult: 0.1
    decay_mult: 0.1
  }
  convolution_param {
    num_output: 512
    bias_term: false
    kernel_size: 1
    weight_filler {
      type: "msra"
    }
  }
}
layer {
  name: "conv10/bn"
  type: "BatchNorm"
  bottom: "conv10"
  top: "conv10"
}
layer {
  name: "conv10/scale"
  type: "Scale"
  bottom: "conv10"
  top: "conv10"
  param {
    lr_mult: 0.1
    decay_mult: 0
  }
  param {
    lr_mult: 0.2
    decay_mult: 0
  }
  scale_param {
    filler {
      value: 1
    }
    bias_term: true
    bias_filler {
      value: 0
    }
  }
}
layer {
  name: "conv10/relu"
  type: "ReLU"
  bottom: "conv10"
  top: "conv10"
}
layer {
  name: "conv11/dw"
  type: "Convolution"
  bottom: "conv10"
  top: "conv11/dw"
  param {
    lr_mult: 0.1
    decay_mult: 0.1
  }
  convolution_param {
    num_output: 512
    bias_term: false
    pad: 1
    kernel_size: 3
    group: 512
    weight_filler {
      type: "msra"
    }
    engine: CAFFE
  }
}
layer {
  name: "conv11/dw/bn"
  type: "BatchNorm"
  bottom: "conv11/dw"
  top: "conv11/dw"
}
layer {
  name: "conv11/dw/scale"
  type: "Scale"
  bottom: "conv11/dw"
  top: "conv11/dw"
  param {
    lr_mult: 0.1
    decay_mult: 0
  }
  param {
    lr_mult: 0.2
    decay_mult: 0
  }
  scale_param {
    filler {
      value: 1
    }
    bias_term: true
    bias_filler {
      value: 0
    }
  }
}
layer {
  name: "conv11/dw/relu"
  type: "ReLU"
  bottom: "conv11/dw"
  top: "conv11/dw"
}
layer {
  name: "conv11"
  type: "Convolution"
  bottom: "conv11/dw"
  top: "conv11"
  param {
    lr_mult: 0.1
    decay_mult: 0.1
  }
  convolution_param {
    num_output: 512
    bias_term: false
    kernel_size: 1
    weight_filler {
      type: "msra"
    }
  }
}
layer {
  name: "conv11/bn"
  type: "BatchNorm"
  bottom: "conv11"
  top: "conv11"
}
layer {
  name: "conv11/scale"
  type: "Scale"
  bottom: "conv11"
  top: "conv11"
  param {
    lr_mult: 0.1
    decay_mult: 0
  }
  param {
    lr_mult: 0.2
    decay_mult: 0
  }
  scale_param {
    filler {
      value: 1
    }
    bias_term: true
    bias_filler {
      value: 0
    }
  }
}
layer {
  name: "conv11/relu"
  type: "ReLU"
  bottom: "conv11"
  top: "conv11"
}
layer {
  name: "conv12/dw"
  type: "Convolution"
  bottom: "conv11"
  top: "conv12/dw"
  param {
    lr_mult: 0.1
    decay_mult: 0.1
  }
  convolution_param {
    num_output: 512
    bias_term: false
    pad: 1
    kernel_size: 3
    group: 512
    stride: 2
    weight_filler {
      type: "msra"
    }
    engine: CAFFE
  }
}
layer {
  name: "conv12/dw/bn"
  type: "BatchNorm"
  bottom: "conv12/dw"
  top: "conv12/dw"
}
layer {
  name: "conv12/dw/scale"
  type: "Scale"
  bottom: "conv12/dw"
  top: "conv12/dw"
  param {
    lr_mult: 0.1
    decay_mult: 0
  }
  param {
    lr_mult: 0.2
    decay_mult: 0
  }
  scale_param {
    filler {
      value: 1
    }
    bias_term: true
    bias_filler {
      value: 0
    }
  }
}
layer {
  name: "conv12/dw/relu"
  type: "ReLU"
  bottom: "conv12/dw"
  top: "conv12/dw"
}
layer {
  name: "conv12"
  type: "Convolution"
  bottom: "conv12/dw"
  top: "conv12"
  param {
    lr_mult: 0.1
    decay_mult: 0.1
  }
  convolution_param {
    num_output: 1024
    bias_term: false
    kernel_size: 1
    weight_filler {
      type: "msra"
    }
  }
}
layer {
  name: "conv12/bn"
  type: "BatchNorm"
  bottom: "conv12"
  top: "conv12"
}
layer {
  name: "conv12/scale"
  type: "Scale"
  bottom: "conv12"
  top: "conv12"
  param {
    lr_mult: 0.1
    decay_mult: 0
  }
  param {
    lr_mult: 0.2
    decay_mult: 0
  }
  scale_param {
    filler {
      value: 1
    }
    bias_term: true
    bias_filler {
      value: 0
    }
  }
}
layer {
  name: "conv12/relu"
  type: "ReLU"
  bottom: "conv12"
  top: "conv12"
}
layer {
  name: "conv13/dw"
  type: "Convolution"
  bottom: "conv12"
  top: "conv13/dw"
  param {
    lr_mult: 0.1
    decay_mult: 0.1
  }
  convolution_param {
    num_output: 1024
    bias_term: false
    pad: 1
    kernel_size: 3
    group: 1024
    weight_filler {
      type: "msra"
    }
    engine: CAFFE
  }
}
layer {
  name: "conv13/dw/bn"
  type: "BatchNorm"
  bottom: "conv13/dw"
  top: "conv13/dw"
}
layer {
  name: "conv13/dw/scale"
  type: "Scale"
  bottom: "conv13/dw"
  top: "conv13/dw"
  param {
    lr_mult: 0.1
    decay_mult: 0
  }
  param {
    lr_mult: 0.2
    decay_mult: 0
  }
  scale_param {
    filler {
      value: 1
    }
    bias_term: true
    bias_filler {
      value: 0
    }
  }
}
layer {
  name: "conv13/dw/relu"
  type: "ReLU"
  bottom: "conv13/dw"
  top: "conv13/dw"
}
layer {
  name: "conv13"
  type: "Convolution"
  bottom: "conv13/dw"
  top: "conv13"
  param {
    lr_mult: 0.1
    decay_mult: 0.1
  }
  convolution_param {
    num_output: 1024
    bias_term: false
    kernel_size: 1
    weight_filler {
      type: "msra"
    }
  }
}
layer {
  name: "conv13/bn"
  type: "BatchNorm"
  bottom: "conv13"
  top: "conv13"
}
layer {
  name: "conv13/scale"
  type: "Scale"
  bottom: "conv13"
  top: "conv13"
  param {
    lr_mult: 0.1
    decay_mult: 0
  }
  param {
    lr_mult: 0.2
    decay_mult: 0
  }
  scale_param {
    filler {
      value: 1
    }
    bias_term: true
    bias_filler {
      value: 0
    }
  }
}
layer {
  name: "conv13/relu"
  type: "ReLU"
  bottom: "conv13"
  top: "conv13"
}
layer {
  name: "conv14_1"
  type: "Convolution"
  bottom: "conv13"
  top: "conv14_1"
  param {
    lr_mult: 0.1
    decay_mult: 0.1
  }
  convolution_param {
    num_output: 256
    bias_term: false
    kernel_size: 1
    weight_filler {
      type: "msra"
    }
  }
}
layer {
  name: "conv14_1/bn"
  type: "BatchNorm"
  bottom: "conv14_1"
  top: "conv14_1"
}
layer {
  name: "conv14_1/scale"
  type: "Scale"
  bottom: "conv14_1"
  top: "conv14_1"
  param {
    lr_mult: 0.1
    decay_mult: 0
  }
  param {
    lr_mult: 0.2
    decay_mult: 0
  }
  scale_param {
    filler {
      value: 1
    }
    bias_term: true
    bias_filler {
      value: 0
    }
  }
}
layer {
  name: "conv14_1/relu"
  type: "ReLU"
  bottom: "conv14_1"
  top: "conv14_1"
}
layer {
  name: "conv14_2"
  type: "Convolution"
  bottom: "conv14_1"
  top: "conv14_2"
  param {
    lr_mult: 0.1
    decay_mult: 0.1
  }
  convolution_param {
    num_output: 512
    bias_term: false
    pad: 1
    kernel_size: 3
    stride: 2
    weight_filler {
      type: "msra"
    }
  }
}
layer {
  name: "conv14_2/bn"
  type: "BatchNorm"
  bottom: "conv14_2"
  top: "conv14_2"
}
layer {
  name: "conv14_2/scale"
  type: "Scale"
  bottom: "conv14_2"
  top: "conv14_2"
  param {
    lr_mult: 0.1
    decay_mult: 0
  }
  param {
    lr_mult: 0.2
    decay_mult: 0
  }
  scale_param {
    filler {
      value: 1
    }
    bias_term: true
    bias_filler {
      value: 0
    }
  }
}
layer {
  name: "conv14_2/relu"
  type: "ReLU"
  bottom: "conv14_2"
  top: "conv14_2"
}
layer {
  name: "conv15_1"
  type: "Convolution"
  bottom: "conv14_2"
  top: "conv15_1"
  param {
    lr_mult: 0.1
    decay_mult: 0.1
  }
  convolution_param {
    num_output: 128
    bias_term: false
    kernel_size: 1
    weight_filler {
      type: "msra"
    }
  }
}
layer {
  name: "conv15_1/bn"
  type: "BatchNorm"
  bottom: "conv15_1"
  top: "conv15_1"
}
layer {
  name: "conv15_1/scale"
  type: "Scale"
  bottom: "conv15_1"
  top: "conv15_1"
  param {
    lr_mult: 0.1
    decay_mult: 0
  }
  param {
    lr_mult: 0.2
    decay_mult: 0
  }
  scale_param {
    filler {
      value: 1
    }
    bias_term: true
    bias_filler {
      value: 0
    }
  }
}
layer {
  name: "conv15_1/relu"
  type: "ReLU"
  bottom: "conv15_1"
  top: "conv15_1"
}
layer {
  name: "conv15_2"
  type: "Convolution"
  bottom: "conv15_1"
  top: "conv15_2"
  param {
    lr_mult: 0.1
    decay_mult: 0.1
  }
  convolution_param {
    num_output: 256
    bias_term: false
    pad: 1
    kernel_size: 3
    stride: 2
    weight_filler {
      type: "msra"
    }
  }
}
layer {
  name: "conv15_2/bn"
  type: "BatchNorm"
  bottom: "conv15_2"
  top: "conv15_2"
}
layer {
  name: "conv15_2/scale"
  type: "Scale"
  bottom: "conv15_2"
  top: "conv15_2"
  param {
    lr_mult: 0.1
    decay_mult: 0
  }
  param {
    lr_mult: 0.2
    decay_mult: 0
  }
  scale_param {
    filler {
      value: 1
    }
    bias_term: true
    bias_filler {
      value: 0
    }
  }
}
layer {
  name: "conv15_2/relu"
  type: "ReLU"
  bottom: "conv15_2"
  top: "conv15_2"
}
layer {
  name: "conv16_1"
  type: "Convolution"
  bottom: "conv15_2"
  top: "conv16_1"
  param {
    lr_mult: 0.1
    decay_mult: 0.1
  }
  convolution_param {
    num_output: 128
    bias_term: false
    kernel_size: 1
    weight_filler {
      type: "msra"
    }
  }
}
layer {
  name: "conv16_1/bn"
  type: "BatchNorm"
  bottom: "conv16_1"
  top: "conv16_1"
}
layer {
  name: "conv16_1/scale"
  type: "Scale"
  bottom: "conv16_1"
  top: "conv16_1"
  param {
    lr_mult: 0.1
    decay_mult: 0
  }
  param {
    lr_mult: 0.2
    decay_mult: 0
  }
  scale_param {
    filler {
      value: 1
    }
    bias_term: true
    bias_filler {
      value: 0
    }
  }
}
layer {
  name: "conv16_1/relu"
  type: "ReLU"
  bottom: "conv16_1"
  top: "conv16_1"
}
layer {
  name: "conv16_2"
  type: "Convolution"
  bottom: "conv16_1"
  top: "conv16_2"
  param {
    lr_mult: 0.1
    decay_mult: 0.1
  }
  convolution_param {
    num_output: 256
    bias_term: false
    pad: 1
    kernel_size: 3
    stride: 2
    weight_filler {
      type: "msra"
    }
  }
}
layer {
  name: "conv16_2/bn"
  type: "BatchNorm"
  bottom: "conv16_2"
  top: "conv16_2"
}
layer {
  name: "conv16_2/scale"
  type: "Scale"
  bottom: "conv16_2"
  top: "conv16_2"
  param {
    lr_mult: 0.1
    decay_mult: 0
  }
  param {
    lr_mult: 0.2
    decay_mult: 0
  }
  scale_param {
    filler {
      value: 1
    }
    bias_term: true
    bias_filler {
      value: 0
    }
  }
}
layer {
  name: "conv16_2/relu"
  type: "ReLU"
  bottom: "conv16_2"
  top: "conv16_2"
}
layer {
  name: "conv17_1"
  type: "Convolution"
  bottom: "conv16_2"
  top: "conv17_1"
  param {
    lr_mult: 0.1
    decay_mult: 0.1
  }
  convolution_param {
    num_output: 64
    bias_term: false
    kernel_size: 1
    weight_filler {
      type: "msra"
    }
  }
}
layer {
  name: "conv17_1/bn"
  type: "BatchNorm"
  bottom: "conv17_1"
  top: "conv17_1"
}
layer {
  name: "conv17_1/scale"
  type: "Scale"
  bottom: "conv17_1"
  top: "conv17_1"
  param {
    lr_mult: 0.1
    decay_mult: 0
  }
  param {
    lr_mult: 0.2
    decay_mult: 0
  }
  scale_param {
    filler {
      value: 1
    }
    bias_term: true
    bias_filler {
      value: 0
    }
  }
}
layer {
  name: "conv17_1/relu"
  type: "ReLU"
  bottom: "conv17_1"
  top: "conv17_1"
}
layer {
  name: "conv17_2"
  type: "Convolution"
  bottom: "conv17_1"
  top: "conv17_2"
  param {
    lr_mult: 0.1
    decay_mult: 0.1
  }
  convolution_param {
    num_output: 128
    bias_term: false
    pad: 1
    kernel_size: 3
    stride: 2
    weight_filler {
      type: "msra"
    }
  }
}
layer {
  name: "conv17_2/bn"
  type: "BatchNorm"
  bottom: "conv17_2"
  top: "conv17_2"
}
layer {
  name: "conv17_2/scale"
  type: "Scale"
  bottom: "conv17_2"
  top: "conv17_2"
  param {
    lr_mult: 0.1
    decay_mult: 0
  }
  param {
    lr_mult: 0.2
    decay_mult: 0
  }
  scale_param {
    filler {
      value: 1
    }
    bias_term: true
    bias_filler {
      value: 0
    }
  }
}
layer {
  name: "conv17_2/relu"
  type: "ReLU"
  bottom: "conv17_2"
  top: "conv17_2"
}
layer {
  name: "conv11_mbox_loc"
  type: "Convolution"
  bottom: "conv11"
  top: "conv11_mbox_loc"
  param {
    lr_mult: 0.1
    decay_mult: 0.1
  }
  param {
    lr_mult: 0.2
    decay_mult: 0
  }
  convolution_param {
    num_output: 12
    kernel_size: 1
    weight_filler {
      type: "msra"
    }
    bias_filler {
      type: "constant"
      value: 0
    }
  }
}
layer {
  name: "conv11_mbox_loc_perm"
  type: "Permute"
  bottom: "conv11_mbox_loc"
  top: "conv11_mbox_loc_perm"
  permute_param {
    order: 0
    or
I0620 16:21:29.786996 12198 layer_factory.hpp:77] Creating layer data
I0620 16:21:29.787418 12198 net.cpp:100] Creating Layer data
I0620 16:21:29.787438 12198 net.cpp:408] data -> data
I0620 16:21:29.787472 12198 net.cpp:408] data -> label
I0620 16:21:29.788766 12212 db_lmdb.cpp:35] Opened lmdb trainval_lmdb/
I0620 16:21:29.799330 12198 annotated_data_layer.cpp:62] output data size: 24,3,300,300
I0620 16:21:29.830229 12198 net.cpp:150] Setting up data
I0620 16:21:29.830265 12198 net.cpp:157] Top shape: 24 3 300 300 (6480000)
I0620 16:21:29.830276 12198 net.cpp:157] Top shape: 1 1 3 8 (24)
I0620 16:21:29.830286 12198 net.cpp:165] Memory required for data: 25920096
I0620 16:21:29.830303 12198 layer_factory.hpp:77] Creating layer data_data_0_split
I0620 16:21:29.830322 12198 net.cpp:100] Creating Layer data_data_0_split
I0620 16:21:29.830333 12198 net.cpp:434] data_data_0_split <- data
I0620 16:21:29.830351 12198 net.cpp:408] data_data_0_split -> data_data_0_split_0
I0620 16:21:29.830368 12198 net.cpp:408] data_data_0_split -> data_data_0_split_1
I0620 16:21:29.830384 12198 net.cpp:408] data_data_0_split -> data_data_0_split_2
I0620 16:21:29.830399 12198 net.cpp:408] data_data_0_split -> data_data_0_split_3
I0620 16:21:29.830413 12198 net.cpp:408] data_data_0_split -> data_data_0_split_4
I0620 16:21:29.830428 12198 net.cpp:408] data_data_0_split -> data_data_0_split_5
I0620 16:21:29.830441 12198 net.cpp:408] data_data_0_split -> data_data_0_split_6
I0620 16:21:29.830530 12198 net.cpp:150] Setting up data_data_0_split
I0620 16:21:29.830549 12198 net.cpp:157] Top shape: 24 3 300 300 (6480000)
I0620 16:21:29.830560 12198 net.cpp:157] Top shape: 24 3 300 300 (6480000)
I0620 16:21:29.830596 12198 net.cpp:157] Top shape: 24 3 300 300 (6480000)
I0620 16:21:29.830628 12198 net.cpp:157] Top shape: 24 3 300 300 (6480000)
I0620 16:21:29.830646 12198 net.cpp:157] Top shape: 24 3 300 300 (6480000)
I0620 16:21:29.830664 12198 net.cpp:157] Top shape: 24 3 300 300 (6480000)
I0620 16:21:29.830675 12198 net.cpp:157] Top shape: 24 3 300 300 (6480000)
I0620 16:21:29.830687 12198 net.cpp:165] Memory required for data: 207360096
I0620 16:21:29.830696 12198 layer_factory.hpp:77] Creating layer conv0
I0620 16:21:29.830723 12198 net.cpp:100] Creating Layer conv0
I0620 16:21:29.830740 12198 net.cpp:434] conv0 <- data_data_0_split_0
I0620 16:21:29.830759 12198 net.cpp:408] conv0 -> conv0
I0620 16:21:29.831583 12198 net.cpp:150] Setting up conv0
I0620 16:21:29.831601 12198 net.cpp:157] Top shape: 24 32 150 150 (17280000)
I0620 16:21:29.831611 12198 net.cpp:165] Memory required for data: 276480096
I0620 16:21:29.831629 12198 layer_factory.hpp:77] Creating layer conv0/bn
I0620 16:21:29.831643 12198 net.cpp:100] Creating Layer conv0/bn
I0620 16:21:29.831655 12198 net.cpp:434] conv0/bn <- conv0
I0620 16:21:29.831667 12198 net.cpp:395] conv0/bn -> conv0 (in-place)
I0620 16:21:29.832481 12198 net.cpp:150] Setting up conv0/bn
I0620 16:21:29.832499 12198 net.cpp:157] Top shape: 24 32 150 150 (17280000)
I0620 16:21:29.832510 12198 net.cpp:165] Memory required for data: 345600096
I0620 16:21:29.832527 12198 layer_factory.hpp:77] Creating layer conv0/scale
I0620 16:21:29.832543 12198 net.cpp:100] Creating Layer conv0/scale
I0620 16:21:29.832554 12198 net.cpp:434] conv0/scale <- conv0
I0620 16:21:29.832566 12198 net.cpp:395] conv0/scale -> conv0 (in-place)
I0620 16:21:29.832609 12198 layer_factory.hpp:77] Creating layer conv0/scale
I0620 16:21:29.832725 12198 net.cpp:150] Setting up conv0/scale
I0620 16:21:29.832737 12198 net.cpp:157] Top shape: 24 32 150 150 (17280000)
I0620 16:21:29.832747 12198 net.cpp:165] Memory required for data: 414720096
I0620 16:21:29.832784 12198 layer_factory.hpp:77] Creating layer conv0/relu
I0620 16:21:29.832805 12198 net.cpp:100] Creating Layer conv0/relu
I0620 16:21:29.832828 12198 net.cpp:434] conv0/relu <- conv0
I0620 16:21:29.832846 12198 net.cpp:395] conv0/relu -> conv0 (in-place)
I0620 16:21:29.832859 12198 net.cpp:150] Setting up conv0/relu
I0620 16:21:29.832886 12198 net.cpp:157] Top shape: 24 32 150 150 (17280000)
I0620 16:21:29.832914 12198 net.cpp:165] Memory required for data: 483840096
I0620 16:21:29.832945 12198 layer_factory.hpp:77] Creating layer conv1/dw
I0620 16:21:29.832973 12198 net.cpp:100] Creating Layer conv1/dw
I0620 16:21:29.832988 12198 net.cpp:434] conv1/dw <- conv0
I0620 16:21:29.833003 12198 net.cpp:408] conv1/dw -> conv1/dw
I0620 16:21:29.833137 12198 net.cpp:150] Setting up conv1/dw
I0620 16:21:29.833149 12198 net.cpp:157] Top shape: 24 32 150 150 (17280000)
I0620 16:21:29.833159 12198 net.cpp:165] Memory required for data: 552960096
I0620 16:21:29.833170 12198 layer_factory.hpp:77] Creating layer conv1/dw/bn
I0620 16:21:29.833181 12198 net.cpp:100] Creating Layer conv1/dw/bn
I0620 16:21:29.833191 12198 net.cpp:434] conv1/dw/bn <- conv1/dw
I0620 16:21:29.833202 12198 net.cpp:395] conv1/dw/bn -> conv1/dw (in-place)
I0620 16:21:29.833359 12198 net.cpp:150] Setting up conv1/dw/bn
I0620 16:21:29.833376 12198 net.cpp:157] Top shape: 24 32 150 150 (17280000)
I0620 16:21:29.833386 12198 net.cpp:165] Memory required for data: 622080096
I0620 16:21:29.833400 12198 layer_factory.hpp:77] Creating layer conv1/dw/scale
I0620 16:21:29.833415 12198 net.cpp:100] Creating Layer conv1/dw/scale
I0620 16:21:29.833425 12198 net.cpp:434] conv1/dw/scale <- conv1/dw
I0620 16:21:29.833437 12198 net.cpp:395] conv1/dw/scale -> conv1/dw (in-place)
I0620 16:21:29.833472 12198 layer_factory.hpp:77] Creating layer conv1/dw/scale
I0620 16:21:29.837642 12198 net.cpp:150] Setting up conv1/dw/scale
I0620 16:21:29.837663 12198 net.cpp:157] Top shape: 24 32 150 150 (17280000)
I0620 16:21:29.837678 12198 net.cpp:165] Memory required for data: 691200096
I0620 16:21:29.837692 12198 layer_factory.hpp:77] Creating layer conv1/dw/relu
I0620 16:21:29.837712 12198 net.cpp:100] Creating Layer conv1/dw/relu
I0620 16:21:29.837723 12198 net.cpp:434] conv1/dw/relu <- conv1/dw
I0620 16:21:29.837733 12198 net.cpp:395] conv1/dw/relu -> conv1/dw (in-place)
I0620 16:21:29.837747 12198 net.cpp:150] Setting up conv1/dw/relu
I0620 16:21:29.837759 12198 net.cpp:157] Top shape: 24 32 150 150 (17280000)
I0620 16:21:29.837769 12198 net.cpp:165] Memory required for data: 760320096
I0620 16:21:29.837779 12198 layer_factory.hpp:77] Creating layer conv1
I0620 16:21:29.837791 12198 net.cpp:100] Creating Layer conv1
I0620 16:21:29.837801 12198 net.cpp:434] conv1 <- conv1/dw
I0620 16:21:29.837815 12198 net.cpp:408] conv1 -> conv1
I0620 16:21:29.838595 12198 net.cpp:150] Setting up conv1
I0620 16:21:29.838613 12198 net.cpp:157] Top shape: 24 64 150 150 (34560000)
I0620 16:21:29.838624 12198 net.cpp:165] Memory required for data: 898560096
I0620 16:21:29.838635 12198 layer_factory.hpp:77] Creating layer conv1/bn
I0620 16:21:29.838647 12198 net.cpp:100] Creating Layer conv1/bn
I0620 16:21:29.838659 12198 net.cpp:434] conv1/bn <- conv1
I0620 16:21:29.838670 12198 net.cpp:395] conv1/bn -> conv1 (in-place)
I0620 16:21:29.838819 12198 net.cpp:150] Setting up conv1/bn
I0620 16:21:29.838831 12198 net.cpp:157] Top shape: 24 64 150 150 (34560000)
I0620 16:21:29.838841 12198 net.cpp:165] Memory required for data: 1036800096
I0620 16:21:29.838853 12198 layer_factory.hpp:77] Creating layer conv1/scale
I0620 16:21:29.838867 12198 net.cpp:100] Creating Layer conv1/scale
I0620 16:21:29.838877 12198 net.cpp:434] conv1/scale <- conv1
I0620 16:21:29.838889 12198 net.cpp:395] conv1/scale -> conv1 (in-place)
I0620 16:21:29.838924 12198 layer_factory.hpp:77] Creating layer conv1/scale
I0620 16:21:29.839032 12198 net.cpp:150] Setting up conv1/scale
I0620 16:21:29.839046 12198 net.cpp:157] Top shape: 24 64 150 150 (34560000)
I0620 16:21:29.839056 12198 net.cpp:165] Memory required for data: 1175040096
I0620 16:21:29.839071 12198 layer_factory.hpp:77] Creating layer conv1/relu
I0620 16:21:29.839082 12198 net.cpp:100] Creating Layer conv1/relu
I0620 16:21:29.839092 12198 net.cpp:434] conv1/relu <- conv1
I0620 16:21:29.839104 12198 net.cpp:395] conv1/relu -> conv1 (in-place)
I0620 16:21:29.839115 12198 net.cpp:150] Setting up conv1/relu
I0620 16:21:29.839126 12198 net.cpp:157] Top shape: 24 64 150 150 (34560000)
I0620 16:21:29.839136 12198 net.cpp:165] Memory required for data: 1313280096
I0620 16:21:29.839146 12198 layer_factory.hpp:77] Creating layer conv2/dw
I0620 16:21:29.839160 12198 net.cpp:100] Creating Layer conv2/dw
I0620 16:21:29.839170 12198 net.cpp:434] conv2/dw <- conv1
I0620 16:21:29.839182 12198 net.cpp:408] conv2/dw -> conv2/dw
I0620 16:21:29.839321 12198 net.cpp:150] Setting up conv2/dw
I0620 16:21:29.839335 12198 net.cpp:157] Top shape: 24 64 75 75 (8640000)
I0620 16:21:29.839345 12198 net.cpp:165] Memory required for data: 1347840096
I0620 16:21:29.839356 12198 layer_factory.hpp:77] Creating layer conv2/dw/bn
I0620 16:21:29.839367 12198 net.cpp:100] Creating Layer conv2/dw/bn
I0620 16:21:29.839377 12198 net.cpp:434] conv2/dw/bn <- conv2/dw
I0620 16:21:29.839390 12198 net.cpp:395] conv2/dw/bn -> conv2/dw (in-place)
I0620 16:21:29.840279 12198 net.cpp:150] Setting up conv2/dw/bn
I0620 16:21:29.840327 12198 net.cpp:157] Top shape: 24 64 75 75 (8640000)
I0620 16:21:29.840342 12198 net.cpp:165] Memory required for data: 1382400096
I0620 16:21:29.840356 12198 layer_factory.hpp:77] Creating layer conv2/dw/scale
I0620 16:21:29.840370 12198 net.cpp:100] Creating Layer conv2/dw/scale
I0620 16:21:29.840380 12198 net.cpp:434] conv2/dw/scale <- conv2/dw
I0620 16:21:29.840394 12198 net.cpp:395] conv2/dw/scale -> conv2/dw (in-place)
I0620 16:21:29.840432 12198 layer_factory.hpp:77] Creating layer conv2/dw/scale
I0620 16:21:29.840528 12198 net.cpp:150] Setting up conv2/dw/scale
I0620 16:21:29.840540 12198 net.cpp:157] Top shape: 24 64 75 75 (8640000)
I0620 16:21:29.840554 12198 net.cpp:165] Memory required for data: 1416960096
I0620 16:21:29.840566 12198 layer_factory.hpp:77] Creating layer conv2/dw/relu
I0620 16:21:29.840584 12198 net.cpp:100] Creating Layer conv2/dw/relu
I0620 16:21:29.840595 12198 net.cpp:434] conv2/dw/relu <- conv2/dw
I0620 16:21:29.840607 12198 net.cpp:395] conv2/dw/relu -> conv2/dw (in-place)
I0620 16:21:29.840618 12198 net.cpp:150] Setting up conv2/dw/relu
I0620 16:21:29.840629 12198 net.cpp:157] Top shape: 24 64 75 75 (8640000)
I0620 16:21:29.840639 12198 net.cpp:165] Memory required for data: 1451520096
I0620 16:21:29.840649 12198 layer_factory.hpp:77] Creating layer conv2
I0620 16:21:29.840662 12198 net.cpp:100] Creating Layer conv2
I0620 16:21:29.840672 12198 net.cpp:434] conv2 <- conv2/dw
I0620 16:21:29.840683 12198 net.cpp:408] conv2 -> conv2
I0620 16:21:29.840935 12198 net.cpp:150] Setting up conv2
I0620 16:21:29.840948 12198 net.cpp:157] Top shape: 24 128 75 75 (17280000)
I0620 16:21:29.840958 12198 net.cpp:165] Memory required for data: 1520640096
I0620 16:21:29.840970 12198 layer_factory.hpp:77] Creating layer conv2/bn
I0620 16:21:29.840981 12198 net.cpp:100] Creating Layer conv2/bn
I0620 16:21:29.840992 12198 net.cpp:434] conv2/bn <- conv2
I0620 16:21:29.841003 12198 net.cpp:395] conv2/bn -> conv2 (in-place)
I0620 16:21:29.841135 12198 net.cpp:150] Setting up conv2/bn
I0620 16:21:29.841147 12198 net.cpp:157] Top shape: 24 128 75 75 (17280000)
I0620 16:21:29.841157 12198 net.cpp:165] Memory required for data: 1589760096
I0620 16:21:29.841169 12198 layer_factory.hpp:77] Creating layer conv2/scale
I0620 16:21:29.841181 12198 net.cpp:100] Creating Layer conv2/scale
I0620 16:21:29.841192 12198 net.cpp:434] conv2/scale <- conv2
I0620 16:21:29.841203 12198 net.cpp:395] conv2/scale -> conv2 (in-place)
I0620 16:21:29.841238 12198 layer_factory.hpp:77] Creating layer conv2/scale
I0620 16:21:29.841331 12198 net.cpp:150] Setting up conv2/scale
I0620 16:21:29.841346 12198 net.cpp:157] Top shape: 24 128 75 75 (17280000)
I0620 16:21:29.841354 12198 net.cpp:165] Memory required for data: 1658880096
I0620 16:21:29.841367 12198 layer_factory.hpp:77] Creating layer conv2/relu
I0620 16:21:29.841377 12198 net.cpp:100] Creating Layer conv2/relu
I0620 16:21:29.841387 12198 net.cpp:434] conv2/relu <- conv2
I0620 16:21:29.841401 12198 net.cpp:395] conv2/relu -> conv2 (in-place)
I0620 16:21:29.841413 12198 net.cpp:150] Setting up conv2/relu
I0620 16:21:29.841424 12198 net.cpp:157] Top shape: 24 128 75 75 (17280000)
I0620 16:21:29.841434 12198 net.cpp:165] Memory required for data: 1728000096
I0620 16:21:29.841444 12198 layer_factory.hpp:77] Creating layer conv3/dw
I0620 16:21:29.841459 12198 net.cpp:100] Creating Layer conv3/dw
I0620 16:21:29.841469 12198 net.cpp:434] conv3/dw <- conv2
I0620 16:21:29.841480 12198 net.cpp:408] conv3/dw -> conv3/dw
I0620 16:21:29.841617 12198 net.cpp:150] Setting up conv3/dw
I0620 16:21:29.841630 12198 net.cpp:157] Top shape: 24 128 75 75 (17280000)
I0620 16:21:29.841640 12198 net.cpp:165] Memory required for data: 1797120096
I0620 16:21:29.841651 12198 layer_factory.hpp:77] Creating layer conv3/dw/bn
I0620 16:21:29.841662 12198 net.cpp:100] Creating Layer conv3/dw/bn
I0620 16:21:29.841672 12198 net.cpp:434] conv3/dw/bn <- conv3/dw
I0620 16:21:29.841684 12198 net.cpp:395] conv3/dw/bn -> conv3/dw (in-place)
I0620 16:21:29.841819 12198 net.cpp:150] Setting up conv3/dw/bn
I0620 16:21:29.841831 12198 net.cpp:157] Top shape: 24 128 75 75 (17280000)
I0620 16:21:29.841840 12198 net.cpp:165] Memory required for data: 1866240096
I0620 16:21:29.841857 12198 layer_factory.hpp:77] Creating layer conv3/dw/scale
I0620 16:21:29.841869 12198 net.cpp:100] Creating Layer conv3/dw/scale
I0620 16:21:29.841879 12198 net.cpp:434] conv3/dw/scale <- conv3/dw
I0620 16:21:29.841892 12198 net.cpp:395] conv3/dw/scale -> conv3/dw (in-place)
I0620 16:21:29.841926 12198 layer_factory.hpp:77] Creating layer conv3/dw/scale
I0620 16:21:29.842013 12198 net.cpp:150] Setting up conv3/dw/scale
I0620 16:21:29.842026 12198 net.cpp:157] Top shape: 24 128 75 75 (17280000)
I0620 16:21:29.842038 12198 net.cpp:165] Memory required for data: 1935360096
I0620 16:21:29.842051 12198 layer_factory.hpp:77] Creating layer conv3/dw/relu
I0620 16:21:29.842067 12198 net.cpp:100] Creating Layer conv3/dw/relu
I0620 16:21:29.842077 12198 net.cpp:434] conv3/dw/relu <- conv3/dw
I0620 16:21:29.842088 12198 net.cpp:395] conv3/dw/relu -> conv3/dw (in-place)
I0620 16:21:29.842099 12198 net.cpp:150] Setting up conv3/dw/relu
I0620 16:21:29.842110 12198 net.cpp:157] Top shape: 24 128 75 75 (17280000)
I0620 16:21:29.842120 12198 net.cpp:165] Memory required for data: 2004480096
I0620 16:21:29.842130 12198 layer_factory.hpp:77] Creating layer conv3
I0620 16:21:29.842144 12198 net.cpp:100] Creating Layer conv3
I0620 16:21:29.842154 12198 net.cpp:434] conv3 <- conv3/dw
I0620 16:21:29.842165 12198 net.cpp:408] conv3 -> conv3
I0620 16:21:29.842445 12198 net.cpp:150] Setting up conv3
I0620 16:21:29.842463 12198 net.cpp:157] Top shape: 24 128 75 75 (17280000)
I0620 16:21:29.842473 12198 net.cpp:165] Memory required for data: 2073600096
I0620 16:21:29.842485 12198 layer_factory.hpp:77] Creating layer conv3/bn
I0620 16:21:29.842496 12198 net.cpp:100] Creating Layer conv3/bn
I0620 16:21:29.842506 12198 net.cpp:434] conv3/bn <- conv3
I0620 16:21:29.842517 12198 net.cpp:395] conv3/bn -> conv3 (in-place)
I0620 16:21:29.842649 12198 net.cpp:150] Setting up conv3/bn
I0620 16:21:29.842664 12198 net.cpp:157] Top shape: 24 128 75 75 (17280000)
I0620 16:21:29.842674 12198 net.cpp:165] Memory required for data: 2142720096
I0620 16:21:29.842686 12198 layer_factory.hpp:77] Creating layer conv3/scale
I0620 16:21:29.842698 12198 net.cpp:100] Creating Layer conv3/scale
I0620 16:21:29.842708 12198 net.cpp:434] conv3/scale <- conv3
I0620 16:21:29.842720 12198 net.cpp:395] conv3/scale -> conv3 (in-place)
I0620 16:21:29.842754 12198 layer_factory.hpp:77] Creating layer conv3/scale
I0620 16:21:29.842841 12198 net.cpp:150] Setting up conv3/scale
I0620 16:21:29.842854 12198 net.cpp:157] Top shape: 24 128 75 75 (17280000)
I0620 16:21:29.842864 12198 net.cpp:165] Memory required for data: 2211840096
I0620 16:21:29.842875 12198 layer_factory.hpp:77] Creating layer conv3/relu
I0620 16:21:29.842886 12198 net.cpp:100] Creating Layer conv3/relu
I0620 16:21:29.842896 12198 net.cpp:434] conv3/relu <- conv3
I0620 16:21:29.842908 12198 net.cpp:395] conv3/relu -> conv3 (in-place)
I0620 16:21:29.842919 12198 net.cpp:150] Setting up conv3/relu
I0620 16:21:29.842931 12198 net.cpp:157] Top shape: 24 128 75 75 (17280000)
I0620 16:21:29.842941 12198 net.cpp:165] Memory required for data: 2280960096
I0620 16:21:29.842950 12198 layer_factory.hpp:77] Creating layer conv4/dw
I0620 16:21:29.842964 12198 net.cpp:100] Creating Layer conv4/dw
I0620 16:21:29.842974 12198 net.cpp:434] conv4/dw <- conv3
I0620 16:21:29.842985 12198 net.cpp:408] conv4/dw -> conv4/dw
I0620 16:21:29.843148 12198 net.cpp:150] Setting up conv4/dw
I0620 16:21:29.843171 12198 net.cpp:157] Top shape: 24 128 38 38 (4435968)
I0620 16:21:29.843194 12198 net.cpp:165] Memory required for data: 2298703968
I0620 16:21:29.843211 12198 layer_factory.hpp:77] Creating layer conv4/dw/bn
I0620 16:21:29.843230 12198 net.cpp:100] Creating Layer conv4/dw/bn
I0620 16:21:29.843256 12198 net.cpp:434] conv4/dw/bn <- conv4/dw
I0620 16:21:29.843274 12198 net.cpp:395] conv4/dw/bn -> conv4/dw (in-place)
I0620 16:21:29.843422 12198 net.cpp:150] Setting up conv4/dw/bn
I0620 16:21:29.843436 12198 net.cpp:157] Top shape: 24 128 38 38 (4435968)
I0620 16:21:29.843446 12198 net.cpp:165] Memory required for data: 2316447840
I0620 16:21:29.843458 12198 layer_factory.hpp:77] Creating layer conv4/dw/scale
I0620 16:21:29.843473 12198 net.cpp:100] Creating Layer conv4/dw/scale
I0620 16:21:29.843483 12198 net.cpp:434] conv4/dw/scale <- conv4/dw
I0620 16:21:29.843494 12198 net.cpp:395] conv4/dw/scale -> conv4/dw (in-place)
I0620 16:21:29.843528 12198 layer_factory.hpp:77] Creating layer conv4/dw/scale
I0620 16:21:29.843616 12198 net.cpp:150] Setting up conv4/dw/scale
I0620 16:21:29.843627 12198 net.cpp:157] Top shape: 24 128 38 38 (4435968)
I0620 16:21:29.843641 12198 net.cpp:165] Memory required for data: 2334191712
I0620 16:21:29.843652 12198 layer_factory.hpp:77] Creating layer conv4/dw/relu
I0620 16:21:29.843668 12198 net.cpp:100] Creating Layer conv4/dw/relu
I0620 16:21:29.843678 12198 net.cpp:434] conv4/dw/relu <- conv4/dw
I0620 16:21:29.843691 12198 net.cpp:395] conv4/dw/relu -> conv4/dw (in-place)
I0620 16:21:29.843703 12198 net.cpp:150] Setting up conv4/dw/relu
I0620 16:21:29.843714 12198 net.cpp:157] Top shape: 24 128 38 38 (4435968)
I0620 16:21:29.843724 12198 net.cpp:165] Memory required for data: 2351935584
I0620 16:21:29.843734 12198 layer_factory.hpp:77] Creating layer conv4
I0620 16:21:29.843746 12198 net.cpp:100] Creating Layer conv4
I0620 16:21:29.843756 12198 net.cpp:434] conv4 <- conv4/dw
I0620 16:21:29.843767 12198 net.cpp:408] conv4 -> conv4
I0620 16:21:29.844199 12198 net.cpp:150] Setting up conv4
I0620 16:21:29.844218 12198 net.cpp:157] Top shape: 24 256 38 38 (8871936)
I0620 16:21:29.844233 12198 net.cpp:165] Memory required for data: 2387423328
I0620 16:21:29.844244 12198 layer_factory.hpp:77] Creating layer conv4/bn
I0620 16:21:29.844255 12198 net.cpp:100] Creating Layer conv4/bn
I0620 16:21:29.844265 12198 net.cpp:434] conv4/bn <- conv4
I0620 16:21:29.844277 12198 net.cpp:395] conv4/bn -> conv4 (in-place)
I0620 16:21:29.844421 12198 net.cpp:150] Setting up conv4/bn
I0620 16:21:29.844439 12198 net.cpp:157] Top shape: 24 256 38 38 (8871936)
I0620 16:21:29.844449 12198 net.cpp:165] Memory required for data: 2422911072
I0620 16:21:29.844460 12198 layer_factory.hpp:77] Creating layer conv4/scale
I0620 16:21:29.844472 12198 net.cpp:100] Creating Layer conv4/scale
I0620 16:21:29.844482 12198 net.cpp:434] conv4/scale <- conv4
I0620 16:21:29.844494 12198 net.cpp:395] conv4/scale -> conv4 (in-place)
I0620 16:21:29.844530 12198 layer_factory.hpp:77] Creating layer conv4/scale
I0620 16:21:29.844617 12198 net.cpp:150] Setting up conv4/scale
I0620 16:21:29.844630 12198 net.cpp:157] Top shape: 24 256 38 38 (8871936)
I0620 16:21:29.844640 12198 net.cpp:165] Memory required for data: 2458398816
I0620 16:21:29.844651 12198 layer_factory.hpp:77] Creating layer conv4/relu
I0620 16:21:29.844663 12198 net.cpp:100] Creating Layer conv4/relu
I0620 16:21:29.844673 12198 net.cpp:434] conv4/relu <- conv4
I0620 16:21:29.844686 12198 net.cpp:395] conv4/relu -> conv4 (in-place)
I0620 16:21:29.844696 12198 net.cpp:150] Setting up conv4/relu
I0620 16:21:29.844707 12198 net.cpp:157] Top shape: 24 256 38 38 (8871936)
I0620 16:21:29.844717 12198 net.cpp:165] Memory required for data: 2493886560
I0620 16:21:29.844727 12198 layer_factory.hpp:77] Creating layer conv5/dw
I0620 16:21:29.844741 12198 net.cpp:100] Creating Layer conv5/dw
I0620 16:21:29.844751 12198 net.cpp:434] conv5/dw <- conv4
I0620 16:21:29.844763 12198 net.cpp:408] conv5/dw -> conv5/dw
I0620 16:21:29.844916 12198 net.cpp:150] Setting up conv5/dw
I0620 16:21:29.844929 12198 net.cpp:157] Top shape: 24 256 38 38 (8871936)
I0620 16:21:29.844939 12198 net.cpp:165] Memory required for data: 2529374304
I0620 16:21:29.844950 12198 layer_factory.hpp:77] Creating layer conv5/dw/bn
I0620 16:21:29.844962 12198 net.cpp:100] Creating Layer conv5/dw/bn
I0620 16:21:29.844972 12198 net.cpp:434] conv5/dw/bn <- conv5/dw
I0620 16:21:29.844983 12198 net.cpp:395] conv5/dw/bn -> conv5/dw (in-place)
I0620 16:21:29.845114 12198 net.cpp:150] Setting up conv5/dw/bn
I0620 16:21:29.845127 12198 net.cpp:157] Top shape: 24 256 38 38 (8871936)
I0620 16:21:29.845144 12198 net.cpp:165] Memory required for data: 2564862048
I0620 16:21:29.845158 12198 layer_factory.hpp:77] Creating layer conv5/dw/scale
I0620 16:21:29.845170 12198 net.cpp:100] Creating Layer conv5/dw/scale
I0620 16:21:29.845186 12198 net.cpp:434] conv5/dw/scale <- conv5/dw
I0620 16:21:29.845198 12198 net.cpp:395] conv5/dw/scale -> conv5/dw (in-place)
I0620 16:21:29.845234 12198 layer_factory.hpp:77] Creating layer conv5/dw/scale
I0620 16:21:29.845320 12198 net.cpp:150] Setting up conv5/dw/scale
I0620 16:21:29.845333 12198 net.cpp:157] Top shape: 24 256 38 38 (8871936)
I0620 16:21:29.845347 12198 net.cpp:165] Memory required for data: 2600349792
I0620 16:21:29.845360 12198 layer_factory.hpp:77] Creating layer conv5/dw/relu
I0620 16:21:29.845378 12198 net.cpp:100] Creating Layer conv5/dw/relu
I0620 16:21:29.845389 12198 net.cpp:434] conv5/dw/relu <- conv5/dw
I0620 16:21:29.845402 12198 net.cpp:395] conv5/dw/relu -> conv5/dw (in-place)
I0620 16:21:29.845414 12198 net.cpp:150] Setting up conv5/dw/relu
I0620 16:21:29.845425 12198 net.cpp:157] Top shape: 24 256 38 38 (8871936)
I0620 16:21:29.845435 12198 net.cpp:165] Memory required for data: 2635837536
I0620 16:21:29.845448 12198 layer_factory.hpp:77] Creating layer conv5
I0620 16:21:29.845461 12198 net.cpp:100] Creating Layer conv5
I0620 16:21:29.845472 12198 net.cpp:434] conv5 <- conv5/dw
I0620 16:21:29.845490 12198 net.cpp:408] conv5 -> conv5
I0620 16:21:29.847092 12198 net.cpp:150] Setting up conv5
I0620 16:21:29.847189 12198 net.cpp:157] Top shape: 24 256 38 38 (8871936)
I0620 16:21:29.847288 12198 net.cpp:165] Memory required for data: 2671325280
I0620 16:21:29.847384 12198 layer_factory.hpp:77] Creating layer conv5/bn
I0620 16:21:29.847442 12198 net.cpp:100] Creating Layer conv5/bn
I0620 16:21:29.847474 12198 net.cpp:434] conv5/bn <- conv5
I0620 16:21:29.847546 12198 net.cpp:395] conv5/bn -> conv5 (in-place)
I0620 16:21:29.848076 12198 net.cpp:150] Setting up conv5/bn
I0620 16:21:29.848095 12198 net.cpp:157] Top shape: 24 256 38 38 (8871936)
I0620 16:21:29.848106 12198 net.cpp:165] Memory required for data: 2706813024
I0620 16:21:29.848120 12198 layer_factory.hpp:77] Creating layer conv5/scale
I0620 16:21:29.848201 12198 net.cpp:100] Creating Layer conv5/scale
I0620 16:21:29.848227 12198 net.cpp:434] conv5/scale <- conv5
I0620 16:21:29.848254 12198 net.cpp:395] conv5/scale -> conv5 (in-place)
I0620 16:21:29.848297 12198 layer_factory.hpp:77] Creating layer conv5/scale
I0620 16:21:29.848400 12198 net.cpp:150] Setting up conv5/scale
I0620 16:21:29.848413 12198 net.cpp:157] Top shape: 24 256 38 38 (8871936)
I0620 16:21:29.848423 12198 net.cpp:165] Memory required for data: 2742300768
I0620 16:21:29.848443 12198 layer_factory.hpp:77] Creating layer conv5/relu
I0620 16:21:29.848455 12198 net.cpp:100] Creating Layer conv5/relu
I0620 16:21:29.848466 12198 net.cpp:434] conv5/relu <- conv5
I0620 16:21:29.848477 12198 net.cpp:395] conv5/relu -> conv5 (in-place)
I0620 16:21:29.848489 12198 net.cpp:150] Setting up conv5/relu
I0620 16:21:29.848500 12198 net.cpp:157] Top shape: 24 256 38 38 (8871936)
I0620 16:21:29.848510 12198 net.cpp:165] Memory required for data: 2777788512
I0620 16:21:29.848520 12198 layer_factory.hpp:77] Creating layer conv6/dw
I0620 16:21:29.848533 12198 net.cpp:100] Creating Layer conv6/dw
I0620 16:21:29.848543 12198 net.cpp:434] conv6/dw <- conv5
I0620 16:21:29.848556 12198 net.cpp:408] conv6/dw -> conv6/dw
I0620 16:21:29.848711 12198 net.cpp:150] Setting up conv6/dw
I0620 16:21:29.848726 12198 net.cpp:157] Top shape: 24 256 19 19 (2217984)
I0620 16:21:29.848736 12198 net.cpp:165] Memory required for data: 2786660448
I0620 16:21:29.848745 12198 layer_factory.hpp:77] Creating layer conv6/dw/bn
I0620 16:21:29.848758 12198 net.cpp:100] Creating Layer conv6/dw/bn
I0620 16:21:29.848768 12198 net.cpp:434] conv6/dw/bn <- conv6/dw
I0620 16:21:29.848779 12198 net.cpp:395] conv6/dw/bn -> conv6/dw (in-place)
I0620 16:21:29.848934 12198 net.cpp:150] Setting up conv6/dw/bn
I0620 16:21:29.848951 12198 net.cpp:157] Top shape: 24 256 19 19 (2217984)
I0620 16:21:29.848961 12198 net.cpp:165] Memory required for data: 2795532384
I0620 16:21:29.848973 12198 layer_factory.hpp:77] Creating layer conv6/dw/scale
I0620 16:21:29.848986 12198 net.cpp:100] Creating Layer conv6/dw/scale
I0620 16:21:29.848997 12198 net.cpp:434] conv6/dw/scale <- conv6/dw
I0620 16:21:29.849009 12198 net.cpp:395] conv6/dw/scale -> conv6/dw (in-place)
I0620 16:21:29.849042 12198 layer_factory.hpp:77] Creating layer conv6/dw/scale
I0620 16:21:29.849128 12198 net.cpp:150] Setting up conv6/dw/scale
I0620 16:21:29.849139 12198 net.cpp:157] Top shape: 24 256 19 19 (2217984)
I0620 16:21:29.849153 12198 net.cpp:165] Memory required for data: 2804404320
I0620 16:21:29.849165 12198 layer_factory.hpp:77] Creating layer conv6/dw/relu
I0620 16:21:29.849184 12198 net.cpp:100] Creating Layer conv6/dw/relu
I0620 16:21:29.849195 12198 net.cpp:434] conv6/dw/relu <- conv6/dw
I0620 16:21:29.849205 12198 net.cpp:395] conv6/dw/relu -> conv6/dw (in-place)
I0620 16:21:29.849217 12198 net.cpp:150] Setting up conv6/dw/relu
I0620 16:21:29.849228 12198 net.cpp:157] Top shape: 24 256 19 19 (2217984)
I0620 16:21:29.849237 12198 net.cpp:165] Memory required for data: 2813276256
I0620 16:21:29.849247 12198 layer_factory.hpp:77] Creating layer conv6
I0620 16:21:29.849262 12198 net.cpp:100] Creating Layer conv6
I0620 16:21:29.849272 12198 net.cpp:434] conv6 <- conv6/dw
I0620 16:21:29.849284 12198 net.cpp:408] conv6 -> conv6
I0620 16:21:29.851430 12198 net.cpp:150] Setting up conv6
I0620 16:21:29.851451 12198 net.cpp:157] Top shape: 24 512 19 19 (4435968)
I0620 16:21:29.851462 12198 net.cpp:165] Memory required for data: 2831020128
I0620 16:21:29.851475 12198 layer_factory.hpp:77] Creating layer conv6/bn
I0620 16:21:29.851486 12198 net.cpp:100] Creating Layer conv6/bn
I0620 16:21:29.851497 12198 net.cpp:434] conv6/bn <- conv6
I0620 16:21:29.851510 12198 net.cpp:395] conv6/bn -> conv6 (in-place)
I0620 16:21:29.851656 12198 net.cpp:150] Setting up conv6/bn
I0620 16:21:29.851670 12198 net.cpp:157] Top shape: 24 512 19 19 (4435968)
I0620 16:21:29.851678 12198 net.cpp:165] Memory required for data: 2848764000
I0620 16:21:29.851691 12198 layer_factory.hpp:77] Creating layer conv6/scale
I0620 16:21:29.851703 12198 net.cpp:100] Creating Layer conv6/scale
I0620 16:21:29.851714 12198 net.cpp:434] conv6/scale <- conv6
I0620 16:21:29.851727 12198 net.cpp:395] conv6/scale -> conv6 (in-place)
I0620 16:21:29.851763 12198 layer_factory.hpp:77] Creating layer conv6/scale
I0620 16:21:29.851847 12198 net.cpp:150] Setting up conv6/scale
I0620 16:21:29.851861 12198 net.cpp:157] Top shape: 24 512 19 19 (4435968)
I0620 16:21:29.851871 12198 net.cpp:165] Memory required for data: 2866507872
I0620 16:21:29.851881 12198 layer_factory.hpp:77] Creating layer conv6/relu
I0620 16:21:29.851893 12198 net.cpp:100] Creating Layer conv6/relu
I0620 16:21:29.851903 12198 net.cpp:434] conv6/relu <- conv6
I0620 16:21:29.851914 12198 net.cpp:395] conv6/relu -> conv6 (in-place)
I0620 16:21:29.851927 12198 net.cpp:150] Setting up conv6/relu
I0620 16:21:29.851938 12198 net.cpp:157] Top shape: 24 512 19 19 (4435968)
I0620 16:21:29.851946 12198 net.cpp:165] Memory required for data: 2884251744
I0620 16:21:29.851956 12198 layer_factory.hpp:77] Creating layer conv7/dw
I0620 16:21:29.851970 12198 net.cpp:100] Creating Layer conv7/dw
I0620 16:21:29.851980 12198 net.cpp:434] conv7/dw <- conv6
I0620 16:21:29.851994 12198 net.cpp:408] conv7/dw -> conv7/dw
I0620 16:21:29.852250 12198 net.cpp:150] Setting up conv7/dw
I0620 16:21:29.852277 12198 net.cpp:157] Top shape: 24 512 19 19 (4435968)
I0620 16:21:29.852313 12198 net.cpp:165] Memory required for data: 2901995616
I0620 16:21:29.852324 12198 layer_factory.hpp:77] Creating layer conv7/dw/bn
I0620 16:21:29.852334 12198 net.cpp:100] Creating Layer conv7/dw/bn
I0620 16:21:29.852344 12198 net.cpp:434] conv7/dw/bn <- conv7/dw
I0620 16:21:29.852356 12198 net.cpp:395] conv7/dw/bn -> conv7/dw (in-place)
I0620 16:21:29.852490 12198 net.cpp:150] Setting up conv7/dw/bn
I0620 16:21:29.852504 12198 net.cpp:157] Top shape: 24 512 19 19 (4435968)
I0620 16:21:29.852514 12198 net.cpp:165] Memory required for data: 2919739488
I0620 16:21:29.852525 12198 layer_factory.hpp:77] Creating layer conv7/dw/scale
I0620 16:21:29.852537 12198 net.cpp:100] Creating Layer conv7/dw/scale
I0620 16:21:29.852547 12198 net.cpp:434] conv7/dw/scale <- conv7/dw
I0620 16:21:29.852560 12198 net.cpp:395] conv7/dw/scale -> conv7/dw (in-place)
I0620 16:21:29.852593 12198 layer_factory.hpp:77] Creating layer conv7/dw/scale
I0620 16:21:29.852676 12198 net.cpp:150] Setting up conv7/dw/scale
I0620 16:21:29.852689 12198 net.cpp:157] Top shape: 24 512 19 19 (4435968)
I0620 16:21:29.852704 12198 net.cpp:165] Memory required for data: 2937483360
I0620 16:21:29.852715 12198 layer_factory.hpp:77] Creating layer conv7/dw/relu
I0620 16:21:29.852732 12198 net.cpp:100] Creating Layer conv7/dw/relu
I0620 16:21:29.852742 12198 net.cpp:434] conv7/dw/relu <- conv7/dw
I0620 16:21:29.852753 12198 net.cpp:395] conv7/dw/relu -> conv7/dw (in-place)
I0620 16:21:29.852766 12198 net.cpp:150] Setting up conv7/dw/relu
I0620 16:21:29.852777 12198 net.cpp:157] Top shape: 24 512 19 19 (4435968)
I0620 16:21:29.852787 12198 net.cpp:165] Memory required for data: 2955227232
I0620 16:21:29.852797 12198 layer_factory.hpp:77] Creating layer conv7
I0620 16:21:29.852810 12198 net.cpp:100] Creating Layer conv7
I0620 16:21:29.852819 12198 net.cpp:434] conv7 <- conv7/dw
I0620 16:21:29.852833 12198 net.cpp:408] conv7 -> conv7
I0620 16:21:29.854879 12198 net.cpp:150] Setting up conv7
I0620 16:21:29.854893 12198 net.cpp:157] Top shape: 24 512 19 19 (4435968)
I0620 16:21:29.854903 12198 net.cpp:165] Memory required for data: 2972971104
I0620 16:21:29.854914 12198 layer_factory.hpp:77] Creating layer conv7/bn
I0620 16:21:29.854925 12198 net.cpp:100] Creating Layer conv7/bn
I0620 16:21:29.854935 12198 net.cpp:434] conv7/bn <- conv7
I0620 16:21:29.854948 12198 net.cpp:395] conv7/bn -> conv7 (in-place)
I0620 16:21:29.855087 12198 net.cpp:150] Setting up conv7/bn
I0620 16:21:29.855099 12198 net.cpp:157] Top shape: 24 512 19 19 (4435968)
I0620 16:21:29.855109 12198 net.cpp:165] Memory required for data: 2990714976
I0620 16:21:29.855123 12198 layer_factory.hpp:77] Creating layer conv7/scale
I0620 16:21:29.855135 12198 net.cpp:100] Creating Layer conv7/scale
I0620 16:21:29.855145 12198 net.cpp:434] conv7/scale <- conv7
I0620 16:21:29.855157 12198 net.cpp:395] conv7/scale -> conv7 (in-place)
I0620 16:21:29.855196 12198 layer_factory.hpp:77] Creating layer conv7/scale
I0620 16:21:29.855283 12198 net.cpp:150] Setting up conv7/scale
I0620 16:21:29.855296 12198 net.cpp:157] Top shape: 24 512 19 19 (4435968)
I0620 16:21:29.855306 12198 net.cpp:165] Memory required for data: 3008458848
I0620 16:21:29.855319 12198 layer_factory.hpp:77] Creating layer conv7/relu
I0620 16:21:29.855329 12198 net.cpp:100] Creating Layer conv7/relu
I0620 16:21:29.855340 12198 net.cpp:434] conv7/relu <- conv7
I0620 16:21:29.855350 12198 net.cpp:395] conv7/relu -> conv7 (in-place)
I0620 16:21:29.855362 12198 net.cpp:150] Setting up conv7/relu
I0620 16:21:29.855373 12198 net.cpp:157] Top shape: 24 512 19 19 (4435968)
I0620 16:21:29.855384 12198 net.cpp:165] Memory required for data: 3026202720
I0620 16:21:29.855396 12198 layer_factory.hpp:77] Creating layer conv8/dw
I0620 16:21:29.855409 12198 net.cpp:100] Creating Layer conv8/dw
I0620 16:21:29.855419 12198 net.cpp:434] conv8/dw <- conv7
I0620 16:21:29.855432 12198 net.cpp:408] conv8/dw -> conv8/dw
I0620 16:21:29.855598 12198 net.cpp:150] Setting up conv8/dw
I0620 16:21:29.855612 12198 net.cpp:157] Top shape: 24 512 19 19 (4435968)
I0620 16:21:29.855621 12198 net.cpp:165] Memory required for data: 3043946592
I0620 16:21:29.855633 12198 layer_factory.hpp:77] Creating layer conv8/dw/bn
I0620 16:21:29.855643 12198 net.cpp:100] Creating Layer conv8/dw/bn
I0620 16:21:29.855654 12198 net.cpp:434] conv8/dw/bn <- conv8/dw
I0620 16:21:29.855665 12198 net.cpp:395] conv8/dw/bn -> conv8/dw (in-place)
I0620 16:21:29.855803 12198 net.cpp:150] Setting up conv8/dw/bn
I0620 16:21:29.855815 12198 net.cpp:157] Top shape: 24 512 19 19 (4435968)
I0620 16:21:29.855824 12198 net.cpp:165] Memory required for data: 3061690464
I0620 16:21:29.855837 12198 layer_factory.hpp:77] Creating layer conv8/dw/scale
I0620 16:21:29.855855 12198 net.cpp:100] Creating Layer conv8/dw/scale
I0620 16:21:29.855865 12198 net.cpp:434] conv8/dw/scale <- conv8/dw
I0620 16:21:29.855877 12198 net.cpp:395] conv8/dw/scale -> conv8/dw (in-place)
I0620 16:21:29.855916 12198 layer_factory.hpp:77] Creating layer conv8/dw/scale
I0620 16:21:29.856000 12198 net.cpp:150] Setting up conv8/dw/scale
I0620 16:21:29.856014 12198 net.cpp:157] Top shape: 24 512 19 19 (4435968)
I0620 16:21:29.856027 12198 net.cpp:165] Memory required for data: 3079434336
I0620 16:21:29.856040 12198 layer_factory.hpp:77] Creating layer conv8/dw/relu
I0620 16:21:29.856057 12198 net.cpp:100] Creating Layer conv8/dw/relu
I0620 16:21:29.856067 12198 net.cpp:434] conv8/dw/relu <- conv8/dw
I0620 16:21:29.856081 12198 net.cpp:395] conv8/dw/relu -> conv8/dw (in-place)
I0620 16:21:29.856092 12198 net.cpp:150] Setting up conv8/dw/relu
I0620 16:21:29.856103 12198 net.cpp:157] Top shape: 24 512 19 19 (4435968)
I0620 16:21:29.856113 12198 net.cpp:165] Memory required for data: 3097178208
I0620 16:21:29.856168 12198 layer_factory.hpp:77] Creating layer conv8
I0620 16:21:29.856195 12198 net.cpp:100] Creating Layer conv8
I0620 16:21:29.856214 12198 net.cpp:434] conv8 <- conv8/dw
I0620 16:21:29.856233 12198 net.cpp:408] conv8 -> conv8
I0620 16:21:29.859144 12198 net.cpp:150] Setting up conv8
I0620 16:21:29.859169 12198 net.cpp:157] Top shape: 24 512 19 19 (4435968)
I0620 16:21:29.859179 12198 net.cpp:165] Memory required for data: 3114922080
I0620 16:21:29.859191 12198 layer_factory.hpp:77] Creating layer conv8/bn
I0620 16:21:29.859207 12198 net.cpp:100] Creating Layer conv8/bn
I0620 16:21:29.859218 12198 net.cpp:434] conv8/bn <- conv8
I0620 16:21:29.859230 12198 net.cpp:395] conv8/bn -> conv8 (in-place)
I0620 16:21:29.859380 12198 net.cpp:150] Setting up conv8/bn
I0620 16:21:29.859395 12198 net.cpp:157] Top shape: 24 512 19 19 (4435968)
I0620 16:21:29.859405 12198 net.cpp:165] Memory required for data: 3132665952
I0620 16:21:29.859417 12198 layer_factory.hpp:77] Creating layer conv8/scale
I0620 16:21:29.859429 12198 net.cpp:100] Creating Layer conv8/scale
I0620 16:21:29.859439 12198 net.cpp:434] conv8/scale <- conv8
I0620 16:21:29.859452 12198 net.cpp:395] conv8/scale -> conv8 (in-place)
I0620 16:21:29.859500 12198 layer_factory.hpp:77] Creating layer conv8/scale
I0620 16:21:29.859587 12198 net.cpp:150] Setting up conv8/scale
I0620 16:21:29.859601 12198 net.cpp:157] Top shape: 24 512 19 19 (4435968)
I0620 16:21:29.859611 12198 net.cpp:165] Memory required for data: 3150409824
I0620 16:21:29.859622 12198 layer_factory.hpp:77] Creating layer conv8/relu
I0620 16:21:29.859633 12198 net.cpp:100] Creating Layer conv8/relu
I0620 16:21:29.859643 12198 net.cpp:434] conv8/relu <- conv8
I0620 16:21:29.859655 12198 net.cpp:395] conv8/relu -> conv8 (in-place)
I0620 16:21:29.859668 12198 net.cpp:150] Setting up conv8/relu
I0620 16:21:29.859678 12198 net.cpp:157] Top shape: 24 512 19 19 (4435968)
I0620 16:21:29.859688 12198 net.cpp:165] Memory required for data: 3168153696
I0620 16:21:29.859699 12198 layer_factory.hpp:77] Creating layer conv9/dw
I0620 16:21:29.859712 12198 net.cpp:100] Creating Layer conv9/dw
I0620 16:21:29.859722 12198 net.cpp:434] conv9/dw <- conv8
I0620 16:21:29.859735 12198 net.cpp:408] conv9/dw -> conv9/dw
I0620 16:21:29.859906 12198 net.cpp:150] Setting up conv9/dw
I0620 16:21:29.859920 12198 net.cpp:157] Top shape: 24 512 19 19 (4435968)
I0620 16:21:29.859930 12198 net.cpp:165] Memory required for data: 3185897568
I0620 16:21:29.859941 12198 layer_factory.hpp:77] Creating layer conv9/dw/bn
I0620 16:21:29.859951 12198 net.cpp:100] Creating Layer conv9/dw/bn
I0620 16:21:29.859961 12198 net.cpp:434] conv9/dw/bn <- conv9/dw
I0620 16:21:29.859974 12198 net.cpp:395] conv9/dw/bn -> conv9/dw (in-place)
I0620 16:21:29.860110 12198 net.cpp:150] Setting up conv9/dw/bn
I0620 16:21:29.860186 12198 net.cpp:157] Top shape: 24 512 19 19 (4435968)
I0620 16:21:29.860204 12198 net.cpp:165] Memory required for data: 3203641440
I0620 16:21:29.860222 12198 layer_factory.hpp:77] Creating layer conv9/dw/scale
I0620 16:21:29.860239 12198 net.cpp:100] Creating Layer conv9/dw/scale
I0620 16:21:29.860249 12198 net.cpp:434] conv9/dw/scale <- conv9/dw
I0620 16:21:29.860265 12198 net.cpp:395] conv9/dw/scale -> conv9/dw (in-place)
I0620 16:21:29.860304 12198 layer_factory.hpp:77] Creating layer conv9/dw/scale
I0620 16:21:29.860390 12198 net.cpp:150] Setting up conv9/dw/scale
I0620 16:21:29.860402 12198 net.cpp:157] Top shape: 24 512 19 19 (4435968)
I0620 16:21:29.860416 12198 net.cpp:165] Memory required for data: 3221385312
I0620 16:21:29.860429 12198 layer_factory.hpp:77] Creating layer conv9/dw/relu
I0620 16:21:29.860447 12198 net.cpp:100] Creating Layer conv9/dw/relu
I0620 16:21:29.860457 12198 net.cpp:434] conv9/dw/relu <- conv9/dw
I0620 16:21:29.860471 12198 net.cpp:395] conv9/dw/relu -> conv9/dw (in-place)
I0620 16:21:29.860481 12198 net.cpp:150] Setting up conv9/dw/relu
I0620 16:21:29.860492 12198 net.cpp:157] Top shape: 24 512 19 19 (4435968)
I0620 16:21:29.860502 12198 net.cpp:165] Memory required for data: 3239129184
I0620 16:21:29.860512 12198 layer_factory.hpp:77] Creating layer conv9
I0620 16:21:29.860527 12198 net.cpp:100] Creating Layer conv9
I0620 16:21:29.860536 12198 net.cpp:434] conv9 <- conv9/dw
I0620 16:21:29.860548 12198 net.cpp:408] conv9 -> conv9
I0620 16:21:29.862568 12198 net.cpp:150] Setting up conv9
I0620 16:21:29.862582 12198 net.cpp:157] Top shape: 24 512 19 19 (4435968)
I0620 16:21:29.862592 12198 net.cpp:165] Memory required for data: 3256873056
I0620 16:21:29.862603 12198 layer_factory.hpp:77] Creating layer conv9/bn
I0620 16:21:29.862615 12198 net.cpp:100] Creating Layer conv9/bn
I0620 16:21:29.862625 12198 net.cpp:434] conv9/bn <- conv9
I0620 16:21:29.862637 12198 net.cpp:395] conv9/bn -> conv9 (in-place)
I0620 16:21:29.862776 12198 net.cpp:150] Setting up conv9/bn
I0620 16:21:29.862787 12198 net.cpp:157] Top shape: 24 512 19 19 (4435968)
I0620 16:21:29.862797 12198 net.cpp:165] Memory required for data: 3274616928
I0620 16:21:29.862810 12198 layer_factory.hpp:77] Creating layer conv9/scale
I0620 16:21:29.862821 12198 net.cpp:100] Creating Layer conv9/scale
I0620 16:21:29.862833 12198 net.cpp:434] conv9/scale <- conv9
I0620 16:21:29.862844 12198 net.cpp:395] conv9/scale -> conv9 (in-place)
I0620 16:21:29.862879 12198 layer_factory.hpp:77] Creating layer conv9/scale
I0620 16:21:29.862964 12198 net.cpp:150] Setting up conv9/scale
I0620 16:21:29.862977 12198 net.cpp:157] Top shape: 24 512 19 19 (4435968)
I0620 16:21:29.862987 12198 net.cpp:165] Memory required for data: 3292360800
I0620 16:21:29.862998 12198 layer_factory.hpp:77] Creating layer conv9/relu
I0620 16:21:29.863009 12198 net.cpp:100] Creating Layer conv9/relu
I0620 16:21:29.863019 12198 net.cpp:434] conv9/relu <- conv9
I0620 16:21:29.863030 12198 net.cpp:395] conv9/relu -> conv9 (in-place)
I0620 16:21:29.863041 12198 net.cpp:150] Setting up conv9/relu
I0620 16:21:29.863052 12198 net.cpp:157] Top shape: 24 512 19 19 (4435968)
I0620 16:21:29.863062 12198 net.cpp:165] Memory required for data: 3310104672
I0620 16:21:29.863071 12198 layer_factory.hpp:77] Creating layer conv10/dw
I0620 16:21:29.863085 12198 net.cpp:100] Creating Layer conv10/dw
I0620 16:21:29.863095 12198 net.cpp:434] conv10/dw <- conv9
I0620 16:21:29.863108 12198 net.cpp:408] conv10/dw -> conv10/dw
I0620 16:21:29.863281 12198 net.cpp:150] Setting up conv10/dw
I0620 16:21:29.863317 12198 net.cpp:157] Top shape: 24 512 19 19 (4435968)
I0620 16:21:29.863334 12198 net.cpp:165] Memory required for data: 3327848544
I0620 16:21:29.863358 12198 layer_factory.hpp:77] Creating layer conv10/dw/bn
I0620 16:21:29.863375 12198 net.cpp:100] Creating Layer conv10/dw/bn
I0620 16:21:29.863397 12198 net.cpp:434] conv10/dw/bn <- conv10/dw
I0620 16:21:29.863415 12198 net.cpp:395] conv10/dw/bn -> conv10/dw (in-place)
I0620 16:21:29.863575 12198 net.cpp:150] Setting up conv10/dw/bn
I0620 16:21:29.863589 12198 net.cpp:157] Top shape: 24 512 19 19 (4435968)
I0620 16:21:29.863598 12198 net.cpp:165] Memory required for data: 3345592416
I0620 16:21:29.863611 12198 layer_factory.hpp:77] Creating layer conv10/dw/scale
I0620 16:21:29.863622 12198 net.cpp:100] Creating Layer conv10/dw/scale
I0620 16:21:29.863632 12198 net.cpp:434] conv10/dw/scale <- conv10/dw
I0620 16:21:29.863643 12198 net.cpp:395] conv10/dw/scale -> conv10/dw (in-place)
I0620 16:21:29.863682 12198 layer_factory.hpp:77] Creating layer conv10/dw/scale
I0620 16:21:29.863765 12198 net.cpp:150] Setting up conv10/dw/scale
I0620 16:21:29.863778 12198 net.cpp:157] Top shape: 24 512 19 19 (4435968)
I0620 16:21:29.863792 12198 net.cpp:165] Memory required for data: 3363336288
I0620 16:21:29.863803 12198 layer_factory.hpp:77] Creating layer conv10/dw/relu
I0620 16:21:29.863819 12198 net.cpp:100] Creating Layer conv10/dw/relu
I0620 16:21:29.863831 12198 net.cpp:434] conv10/dw/relu <- conv10/dw
I0620 16:21:29.863842 12198 net.cpp:395] conv10/dw/relu -> conv10/dw (in-place)
I0620 16:21:29.863853 12198 net.cpp:150] Setting up conv10/dw/relu
I0620 16:21:29.863863 12198 net.cpp:157] Top shape: 24 512 19 19 (4435968)
I0620 16:21:29.863873 12198 net.cpp:165] Memory required for data: 3381080160
I0620 16:21:29.863883 12198 layer_factory.hpp:77] Creating layer conv10
I0620 16:21:29.863898 12198 net.cpp:100] Creating Layer conv10
I0620 16:21:29.863907 12198 net.cpp:434] conv10 <- conv10/dw
I0620 16:21:29.863920 12198 net.cpp:408] conv10 -> conv10
I0620 16:21:29.866729 12198 net.cpp:150] Setting up conv10
I0620 16:21:29.866760 12198 net.cpp:157] Top shape: 24 512 19 19 (4435968)
I0620 16:21:29.866778 12198 net.cpp:165] Memory required for data: 3398824032
I0620 16:21:29.866796 12198 layer_factory.hpp:77] Creating layer conv10/bn
I0620 16:21:29.866819 12198 net.cpp:100] Creating Layer conv10/bn
I0620 16:21:29.866837 12198 net.cpp:434] conv10/bn <- conv10
I0620 16:21:29.866855 12198 net.cpp:395] conv10/bn -> conv10 (in-place)
I0620 16:21:29.867009 12198 net.cpp:150] Setting up conv10/bn
I0620 16:21:29.867022 12198 net.cpp:157] Top shape: 24 512 19 19 (4435968)
I0620 16:21:29.867033 12198 net.cpp:165] Memory required for data: 3416567904
I0620 16:21:29.867045 12198 layer_factory.hpp:77] Creating layer conv10/scale
I0620 16:21:29.867058 12198 net.cpp:100] Creating Layer conv10/scale
I0620 16:21:29.867069 12198 net.cpp:434] conv10/scale <- conv10
I0620 16:21:29.867080 12198 net.cpp:395] conv10/scale -> conv10 (in-place)
I0620 16:21:29.867120 12198 layer_factory.hpp:77] Creating layer conv10/scale
I0620 16:21:29.867205 12198 net.cpp:150] Setting up conv10/scale
I0620 16:21:29.867218 12198 net.cpp:157] Top shape: 24 512 19 19 (4435968)
I0620 16:21:29.867228 12198 net.cpp:165] Memory required for data: 3434311776
I0620 16:21:29.867239 12198 layer_factory.hpp:77] Creating layer conv10/relu
I0620 16:21:29.867251 12198 net.cpp:100] Creating Layer conv10/relu
I0620 16:21:29.867262 12198 net.cpp:434] conv10/relu <- conv10
I0620 16:21:29.867272 12198 net.cpp:395] conv10/relu -> conv10 (in-place)
I0620 16:21:29.867285 12198 net.cpp:150] Setting up conv10/relu
I0620 16:21:29.867295 12198 net.cpp:157] Top shape: 24 512 19 19 (4435968)
I0620 16:21:29.867305 12198 net.cpp:165] Memory required for data: 3452055648
I0620 16:21:29.867314 12198 layer_factory.hpp:77] Creating layer conv11/dw
I0620 16:21:29.867329 12198 net.cpp:100] Creating Layer conv11/dw
I0620 16:21:29.867339 12198 net.cpp:434] conv11/dw <- conv10
I0620 16:21:29.867352 12198 net.cpp:408] conv11/dw -> conv11/dw
I0620 16:21:29.867522 12198 net.cpp:150] Setting up conv11/dw
I0620 16:21:29.867535 12198 net.cpp:157] Top shape: 24 512 19 19 (4435968)
I0620 16:21:29.867545 12198 net.cpp:165] Memory required for data: 3469799520
I0620 16:21:29.867557 12198 layer_factory.hpp:77] Creating layer conv11/dw/bn
I0620 16:21:29.867568 12198 net.cpp:100] Creating Layer conv11/dw/bn
I0620 16:21:29.867578 12198 net.cpp:434] conv11/dw/bn <- conv11/dw
I0620 16:21:29.867589 12198 net.cpp:395] conv11/dw/bn -> conv11/dw (in-place)
I0620 16:21:29.867729 12198 net.cpp:150] Setting up conv11/dw/bn
I0620 16:21:29.867743 12198 net.cpp:157] Top shape: 24 512 19 19 (4435968)
I0620 16:21:29.867753 12198 net.cpp:165] Memory required for data: 3487543392
I0620 16:21:29.867777 12198 layer_factory.hpp:77] Creating layer conv11/dw/scale
I0620 16:21:29.867790 12198 net.cpp:100] Creating Layer conv11/dw/scale
I0620 16:21:29.867800 12198 net.cpp:434] conv11/dw/scale <- conv11/dw
I0620 16:21:29.867812 12198 net.cpp:395] conv11/dw/scale -> conv11/dw (in-place)
I0620 16:21:29.867851 12198 layer_factory.hpp:77] Creating layer conv11/dw/scale
I0620 16:21:29.867935 12198 net.cpp:150] Setting up conv11/dw/scale
I0620 16:21:29.867954 12198 net.cpp:157] Top shape: 24 512 19 19 (4435968)
I0620 16:21:29.867964 12198 net.cpp:165] Memory required for data: 3505287264
I0620 16:21:29.867981 12198 layer_factory.hpp:77] Creating layer conv11/dw/relu
I0620 16:21:29.867993 12198 net.cpp:100] Creating Layer conv11/dw/relu
I0620 16:21:29.868003 12198 net.cpp:434] conv11/dw/relu <- conv11/dw
I0620 16:21:29.868014 12198 net.cpp:395] conv11/dw/relu -> conv11/dw (in-place)
I0620 16:21:29.868026 12198 net.cpp:150] Setting up conv11/dw/relu
I0620 16:21:29.868036 12198 net.cpp:157] Top shape: 24 512 19 19 (4435968)
I0620 16:21:29.868046 12198 net.cpp:165] Memory required for data: 3523031136
I0620 16:21:29.868057 12198 layer_factory.hpp:77] Creating layer conv11
I0620 16:21:29.868070 12198 net.cpp:100] Creating Layer conv11
I0620 16:21:29.868080 12198 net.cpp:434] conv11 <- conv11/dw
I0620 16:21:29.868093 12198 net.cpp:408] conv11 -> conv11
I0620 16:21:29.870178 12198 net.cpp:150] Setting up conv11
I0620 16:21:29.870193 12198 net.cpp:157] Top shape: 24 512 19 19 (4435968)
I0620 16:21:29.870203 12198 net.cpp:165] Memory required for data: 3540775008
I0620 16:21:29.870214 12198 layer_factory.hpp:77] Creating layer conv11/bn
I0620 16:21:29.870225 12198 net.cpp:100] Creating Layer conv11/bn
I0620 16:21:29.870235 12198 net.cpp:434] conv11/bn <- conv11
I0620 16:21:29.870246 12198 net.cpp:395] conv11/bn -> conv11 (in-place)
I0620 16:21:29.870388 12198 net.cpp:150] Setting up conv11/bn
I0620 16:21:29.870401 12198 net.cpp:157] Top shape: 24 512 19 19 (4435968)
I0620 16:21:29.870411 12198 net.cpp:165] Memory required for data: 3558518880
I0620 16:21:29.870424 12198 layer_factory.hpp:77] Creating layer conv11/scale
I0620 16:21:29.870436 12198 net.cpp:100] Creating Layer conv11/scale
I0620 16:21:29.870446 12198 net.cpp:434] conv11/scale <- conv11
I0620 16:21:29.870457 12198 net.cpp:395] conv11/scale -> conv11 (in-place)
I0620 16:21:29.870496 12198 layer_factory.hpp:77] Creating layer conv11/scale
I0620 16:21:29.870582 12198 net.cpp:150] Setting up conv11/scale
I0620 16:21:29.870594 12198 net.cpp:157] Top shape: 24 512 19 19 (4435968)
I0620 16:21:29.870604 12198 net.cpp:165] Memory required for data: 3576262752
I0620 16:21:29.870616 12198 layer_factory.hpp:77] Creating layer conv11/relu
I0620 16:21:29.870627 12198 net.cpp:100] Creating Layer conv11/relu
I0620 16:21:29.870637 12198 net.cpp:434] conv11/relu <- conv11
I0620 16:21:29.870651 12198 net.cpp:395] conv11/relu -> conv11 (in-place)
I0620 16:21:29.870662 12198 net.cpp:150] Setting up conv11/relu
I0620 16:21:29.870673 12198 net.cpp:157] Top shape: 24 512 19 19 (4435968)
I0620 16:21:29.870683 12198 net.cpp:165] Memory required for data: 3594006624
I0620 16:21:29.870692 12198 layer_factory.hpp:77] Creating layer conv11_conv11/relu_0_split
I0620 16:21:29.870704 12198 net.cpp:100] Creating Layer conv11_conv11/relu_0_split
I0620 16:21:29.870714 12198 net.cpp:434] conv11_conv11/relu_0_split <- conv11
I0620 16:21:29.870726 12198 net.cpp:408] conv11_conv11/relu_0_split -> conv11_conv11/relu_0_split_0
I0620 16:21:29.870743 12198 net.cpp:408] conv11_conv11/relu_0_split -> conv11_conv11/relu_0_split_1
I0620 16:21:29.870756 12198 net.cpp:408] conv11_conv11/relu_0_split -> conv11_conv11/relu_0_split_2
I0620 16:21:29.870769 12198 net.cpp:408] conv11_conv11/relu_0_split -> conv11_conv11/relu_0_split_3
I0620 16:21:29.870817 12198 net.cpp:150] Setting up conv11_conv11/relu_0_split
I0620 16:21:29.870831 12198 net.cpp:157] Top shape: 24 512 19 19 (4435968)
I0620 16:21:29.870841 12198 net.cpp:157] Top shape: 24 512 19 19 (4435968)
I0620 16:21:29.870851 12198 net.cpp:157] Top shape: 24 512 19 19 (4435968)
I0620 16:21:29.870862 12198 net.cpp:157] Top shape: 24 512 19 19 (4435968)
I0620 16:21:29.870872 12198 net.cpp:165] Memory required for data: 3664982112
I0620 16:21:29.870882 12198 layer_factory.hpp:77] Creating layer conv12/dw
I0620 16:21:29.870896 12198 net.cpp:100] Creating Layer conv12/dw
I0620 16:21:29.870906 12198 net.cpp:434] conv12/dw <- conv11_conv11/relu_0_split_0
I0620 16:21:29.870918 12198 net.cpp:408] conv12/dw -> conv12/dw
I0620 16:21:29.871093 12198 net.cpp:150] Setting up conv12/dw
I0620 16:21:29.871106 12198 net.cpp:157] Top shape: 24 512 10 10 (1228800)
I0620 16:21:29.871122 12198 net.cpp:165] Memory required for data: 3669897312
I0620 16:21:29.871134 12198 layer_factory.hpp:77] Creating layer conv12/dw/bn
I0620 16:21:29.871145 12198 net.cpp:100] Creating Layer conv12/dw/bn
I0620 16:21:29.871155 12198 net.cpp:434] conv12/dw/bn <- conv12/dw
I0620 16:21:29.871166 12198 net.cpp:395] conv12/dw/bn -> conv12/dw (in-place)
I0620 16:21:29.871312 12198 net.cpp:150] Setting up conv12/dw/bn
I0620 16:21:29.871325 12198 net.cpp:157] Top shape: 24 512 10 10 (1228800)
I0620 16:21:29.871335 12198 net.cpp:165] Memory required for data: 3674812512
I0620 16:21:29.871348 12198 layer_factory.hpp:77] Creating layer conv12/dw/scale
I0620 16:21:29.871359 12198 net.cpp:100] Creating Layer conv12/dw/scale
I0620 16:21:29.871371 12198 net.cpp:434] conv12/dw/scale <- conv12/dw
I0620 16:21:29.871381 12198 net.cpp:395] conv12/dw/scale -> conv12/dw (in-place)
I0620 16:21:29.871417 12198 layer_factory.hpp:77] Creating layer conv12/dw/scale
I0620 16:21:29.871502 12198 net.cpp:150] Setting up conv12/dw/scale
I0620 16:21:29.871516 12198 net.cpp:157] Top shape: 24 512 10 10 (1228800)
I0620 16:21:29.871526 12198 net.cpp:165] Memory required for data: 3679727712
I0620 16:21:29.871538 12198 layer_factory.hpp:77] Creating layer conv12/dw/relu
I0620 16:21:29.871549 12198 net.cpp:100] Creating Layer conv12/dw/relu
I0620 16:21:29.871559 12198 net.cpp:434] conv12/dw/relu <- conv12/dw
I0620 16:21:29.871570 12198 net.cpp:395] conv12/dw/relu -> conv12/dw (in-place)
I0620 16:21:29.871582 12198 net.cpp:150] Setting up conv12/dw/relu
I0620 16:21:29.871593 12198 net.cpp:157] Top shape: 24 512 10 10 (1228800)
I0620 16:21:29.871603 12198 net.cpp:165] Memory required for data: 3684642912
I0620 16:21:29.871613 12198 layer_factory.hpp:77] Creating layer conv12
I0620 16:21:29.871626 12198 net.cpp:100] Creating Layer conv12
I0620 16:21:29.871636 12198 net.cpp:434] conv12 <- conv12/dw
I0620 16:21:29.871649 12198 net.cpp:408] conv12 -> conv12
I0620 16:21:29.876914 12198 net.cpp:150] Setting up conv12
I0620 16:21:29.876943 12198 net.cpp:157] Top shape: 24 1024 10 10 (2457600)
I0620 16:21:29.876955 12198 net.cpp:165] Memory required for data: 3694473312
I0620 16:21:29.876969 12198 layer_factory.hpp:77] Creating layer conv12/bn
I0620 16:21:29.876986 12198 net.cpp:100] Creating Layer conv12/bn
I0620 16:21:29.876998 12198 net.cpp:434] conv12/bn <- conv12
I0620 16:21:29.877012 12198 net.cpp:395] conv12/bn -> conv12 (in-place)
I0620 16:21:29.877233 12198 net.cpp:150] Setting up conv12/bn
I0620 16:21:29.877248 12198 net.cpp:157] Top shape: 24 1024 10 10 (2457600)
I0620 16:21:29.877259 12198 net.cpp:165] Memory required for data: 3704303712
I0620 16:21:29.877274 12198 layer_factory.hpp:77] Creating layer conv12/scale
I0620 16:21:29.877290 12198 net.cpp:100] Creating Layer conv12/scale
I0620 16:21:29.877300 12198 net.cpp:434] conv12/scale <- conv12
I0620 16:21:29.877315 12198 net.cpp:395] conv12/scale -> conv12 (in-place)
I0620 16:21:29.877359 12198 layer_factory.hpp:77] Creating layer conv12/scale
I0620 16:21:29.877480 12198 net.cpp:150] Setting up conv12/scale
I0620 16:21:29.877496 12198 net.cpp:157] Top shape: 24 1024 10 10 (2457600)
I0620 16:21:29.877506 12198 net.cpp:165] Memory required for data: 3714134112
I0620 16:21:29.877521 12198 layer_factory.hpp:77] Creating layer conv12/relu
I0620 16:21:29.877533 12198 net.cpp:100] Creating Layer conv12/relu
I0620 16:21:29.877545 12198 net.cpp:434] conv12/relu <- conv12
I0620 16:21:29.877559 12198 net.cpp:395] conv12/relu -> conv12 (in-place)
I0620 16:21:29.877573 12198 net.cpp:150] Setting up conv12/relu
I0620 16:21:29.877596 12198 net.cpp:157] Top shape: 24 1024 10 10 (2457600)
I0620 16:21:29.877611 12198 net.cpp:165] Memory required for data: 3723964512
I0620 16:21:29.877621 12198 layer_factory.hpp:77] Creating layer conv13/dw
I0620 16:21:29.877636 12198 net.cpp:100] Creating Layer conv13/dw
I0620 16:21:29.877646 12198 net.cpp:434] conv13/dw <- conv12
I0620 16:21:29.877665 12198 net.cpp:408] conv13/dw -> conv13/dw
I0620 16:21:29.877877 12198 net.cpp:150] Setting up conv13/dw
I0620 16:21:29.877900 12198 net.cpp:157] Top shape: 24 1024 10 10 (2457600)
I0620 16:21:29.877910 12198 net.cpp:165] Memory required for data: 3733794912
I0620 16:21:29.877921 12198 layer_factory.hpp:77] Creating layer conv13/dw/bn
I0620 16:21:29.877933 12198 net.cpp:100] Creating Layer conv13/dw/bn
I0620 16:21:29.877943 12198 net.cpp:434] conv13/dw/bn <- conv13/dw
I0620 16:21:29.877955 12198 net.cpp:395] conv13/dw/bn -> conv13/dw (in-place)
I0620 16:21:29.878096 12198 net.cpp:150] Setting up conv13/dw/bn
I0620 16:21:29.878109 12198 net.cpp:157] Top shape: 24 1024 10 10 (2457600)
I0620 16:21:29.878118 12198 net.cpp:165] Memory required for data: 3743625312
I0620 16:21:29.878131 12198 layer_factory.hpp:77] Creating layer conv13/dw/scale
I0620 16:21:29.878144 12198 net.cpp:100] Creating Layer conv13/dw/scale
I0620 16:21:29.878154 12198 net.cpp:434] conv13/dw/scale <- conv13/dw
I0620 16:21:29.878166 12198 net.cpp:395] conv13/dw/scale -> conv13/dw (in-place)
I0620 16:21:29.878198 12198 layer_factory.hpp:77] Creating layer conv13/dw/scale
I0620 16:21:29.878288 12198 net.cpp:150] Setting up conv13/dw/scale
I0620 16:21:29.878300 12198 net.cpp:157] Top shape: 24 1024 10 10 (2457600)
I0620 16:21:29.878310 12198 net.cpp:165] Memory required for data: 3753455712
I0620 16:21:29.878321 12198 layer_factory.hpp:77] Creating layer conv13/dw/relu
I0620 16:21:29.878334 12198 net.cpp:100] Creating Layer conv13/dw/relu
I0620 16:21:29.878342 12198 net.cpp:434] conv13/dw/relu <- conv13/dw
I0620 16:21:29.878355 12198 net.cpp:395] conv13/dw/relu -> conv13/dw (in-place)
I0620 16:21:29.878366 12198 net.cpp:150] Setting up conv13/dw/relu
I0620 16:21:29.878377 12198 net.cpp:157] Top shape: 24 1024 10 10 (2457600)
I0620 16:21:29.878387 12198 net.cpp:165] Memory required for data: 3763286112
I0620 16:21:29.878397 12198 layer_factory.hpp:77] Creating layer conv13
I0620 16:21:29.878410 12198 net.cpp:100] Creating Layer conv13
I0620 16:21:29.878420 12198 net.cpp:434] conv13 <- conv13/dw
I0620 16:21:29.878432 12198 net.cpp:408] conv13 -> conv13
I0620 16:21:29.887442 12198 net.cpp:150] Setting up conv13
I0620 16:21:29.887471 12198 net.cpp:157] Top shape: 24 1024 10 10 (2457600)
I0620 16:21:29.887482 12198 net.cpp:165] Memory required for data: 3773116512
I0620 16:21:29.887495 12198 layer_factory.hpp:77] Creating layer conv13/bn
I0620 16:21:29.887517 12198 net.cpp:100] Creating Layer conv13/bn
I0620 16:21:29.887536 12198 net.cpp:434] conv13/bn <- conv13
I0620 16:21:29.887548 12198 net.cpp:395] conv13/bn -> conv13 (in-place)
I0620 16:21:29.887722 12198 net.cpp:150] Setting up conv13/bn
I0620 16:21:29.887735 12198 net.cpp:157] Top shape: 24 1024 10 10 (2457600)
I0620 16:21:29.887745 12198 net.cpp:165] Memory required for data: 3782946912
I0620 16:21:29.887758 12198 layer_factory.hpp:77] Creating layer conv13/scale
I0620 16:21:29.887773 12198 net.cpp:100] Creating Layer conv13/scale
I0620 16:21:29.887782 12198 net.cpp:434] conv13/scale <- conv13
I0620 16:21:29.887794 12198 net.cpp:395] conv13/scale -> conv13 (in-place)
I0620 16:21:29.887832 12198 layer_factory.hpp:77] Creating layer conv13/scale
I0620 16:21:29.887925 12198 net.cpp:150] Setting up conv13/scale
I0620 16:21:29.887938 12198 net.cpp:157] Top shape: 24 1024 10 10 (2457600)
I0620 16:21:29.887948 12198 net.cpp:165] Memory required for data: 3792777312
I0620 16:21:29.887959 12198 layer_factory.hpp:77] Creating layer conv13/relu
I0620 16:21:29.887971 12198 net.cpp:100] Creating Layer conv13/relu
I0620 16:21:29.887981 12198 net.cpp:434] conv13/relu <- conv13
I0620 16:21:29.887993 12198 net.cpp:395] conv13/relu -> conv13 (in-place)
I0620 16:21:29.888005 12198 net.cpp:150] Setting up conv13/relu
I0620 16:21:29.888017 12198 net.cpp:157] Top shape: 24 1024 10 10 (2457600)
I0620 16:21:29.888026 12198 net.cpp:165] Memory required for data: 3802607712
I0620 16:21:29.888036 12198 layer_factory.hpp:77] Creating layer conv13_conv13/relu_0_split
I0620 16:21:29.888053 12198 net.cpp:100] Creating Layer conv13_conv13/relu_0_split
I0620 16:21:29.888063 12198 net.cpp:434] conv13_conv13/relu_0_split <- conv13
I0620 16:21:29.888088 12198 net.cpp:408] conv13_conv13/relu_0_split -> conv13_conv13/relu_0_split_0
I0620 16:21:29.888103 12198 net.cpp:408] conv13_conv13/relu_0_split -> conv13_conv13/relu_0_split_1
I0620 16:21:29.888250 12198 net.cpp:408] conv13_conv13/relu_0_split -> conv13_conv13/relu_0_split_2
I0620 16:21:29.888273 12198 net.cpp:408] conv13_conv13/relu_0_split -> conv13_conv13/relu_0_split_3
I0620 16:21:29.888355 12198 net.cpp:150] Setting up conv13_conv13/relu_0_split
I0620 16:21:29.888373 12198 net.cpp:157] Top shape: 24 1024 10 10 (2457600)
I0620 16:21:29.888388 12198 net.cpp:157] Top shape: 24 1024 10 10 (2457600)
I0620 16:21:29.888399 12198 net.cpp:157] Top shape: 24 1024 10 10 (2457600)
I0620 16:21:29.888409 12198 net.cpp:157] Top shape: 24 1024 10 10 (2457600)
I0620 16:21:29.888419 12198 net.cpp:165] Memory required for data: 3841929312
I0620 16:21:29.888429 12198 layer_factory.hpp:77] Creating layer conv14_1
I0620 16:21:29.888444 12198 net.cpp:100] Creating Layer conv14_1
I0620 16:21:29.888454 12198 net.cpp:434] conv14_1 <- conv13_conv13/relu_0_split_0
I0620 16:21:29.888466 12198 net.cpp:408] conv14_1 -> conv14_1
I0620 16:21:29.891175 12198 net.cpp:150] Setting up conv14_1
I0620 16:21:29.891194 12198 net.cpp:157] Top shape: 24 256 10 10 (614400)
I0620 16:21:29.891204 12198 net.cpp:165] Memory required for data: 3844386912
I0620 16:21:29.891216 12198 layer_factory.hpp:77] Creating layer conv14_1/bn
I0620 16:21:29.891229 12198 net.cpp:100] Creating Layer conv14_1/bn
I0620 16:21:29.891239 12198 net.cpp:434] conv14_1/bn <- conv14_1
I0620 16:21:29.891252 12198 net.cpp:395] conv14_1/bn -> conv14_1 (in-place)
I0620 16:21:29.891399 12198 net.cpp:150] Setting up conv14_1/bn
I0620 16:21:29.891412 12198 net.cpp:157] Top shape: 24 256 10 10 (614400)
I0620 16:21:29.891422 12198 net.cpp:165] Memory required for data: 3846844512
I0620 16:21:29.891435 12198 layer_factory.hpp:77] Creating layer conv14_1/scale
I0620 16:21:29.891448 12198 net.cpp:100] Creating Layer conv14_1/scale
I0620 16:21:29.891458 12198 net.cpp:434] conv14_1/scale <- conv14_1
I0620 16:21:29.891469 12198 net.cpp:395] conv14_1/scale -> conv14_1 (in-place)
I0620 16:21:29.891507 12198 layer_factory.hpp:77] Creating layer conv14_1/scale
I0620 16:21:29.891594 12198 net.cpp:150] Setting up conv14_1/scale
I0620 16:21:29.891607 12198 net.cpp:157] Top shape: 24 256 10 10 (614400)
I0620 16:21:29.891618 12198 net.cpp:165] Memory required for data: 3849302112
I0620 16:21:29.891629 12198 layer_factory.hpp:77] Creating layer conv14_1/relu
I0620 16:21:29.891641 12198 net.cpp:100] Creating Layer conv14_1/relu
I0620 16:21:29.891651 12198 net.cpp:434] conv14_1/relu <- conv14_1
I0620 16:21:29.891662 12198 net.cpp:395] conv14_1/relu -> conv14_1 (in-place)
I0620 16:21:29.891674 12198 net.cpp:150] Setting up conv14_1/relu
I0620 16:21:29.891685 12198 net.cpp:157] Top shape: 24 256 10 10 (614400)
I0620 16:21:29.891695 12198 net.cpp:165] Memory required for data: 3851759712
I0620 16:21:29.891705 12198 layer_factory.hpp:77] Creating layer conv14_2
I0620 16:21:29.891719 12198 net.cpp:100] Creating Layer conv14_2
I0620 16:21:29.891729 12198 net.cpp:434] conv14_2 <- conv14_1
I0620 16:21:29.891741 12198 net.cpp:408] conv14_2 -> conv14_2
I0620 16:21:29.901924 12198 net.cpp:150] Setting up conv14_2
I0620 16:21:29.901955 12198 net.cpp:157] Top shape: 24 512 5 5 (307200)
I0620 16:21:29.901967 12198 net.cpp:165] Memory required for data: 3852988512
I0620 16:21:29.901979 12198 layer_factory.hpp:77] Creating layer conv14_2/bn
I0620 16:21:29.901995 12198 net.cpp:100] Creating Layer conv14_2/bn
I0620 16:21:29.902006 12198 net.cpp:434] conv14_2/bn <- conv14_2
I0620 16:21:29.902019 12198 net.cpp:395] conv14_2/bn -> conv14_2 (in-place)
I0620 16:21:29.902179 12198 net.cpp:150] Setting up conv14_2/bn
I0620 16:21:29.902192 12198 net.cpp:157] Top shape: 24 512 5 5 (307200)
I0620 16:21:29.902202 12198 net.cpp:165] Memory required for data: 3854217312
I0620 16:21:29.902222 12198 layer_factory.hpp:77] Creating layer conv14_2/scale
I0620 16:21:29.902237 12198 net.cpp:100] Creating Layer conv14_2/scale
I0620 16:21:29.902256 12198 net.cpp:434] conv14_2/scale <- conv14_2
I0620 16:21:29.902266 12198 net.cpp:395] conv14_2/scale -> conv14_2 (in-place)
I0620 16:21:29.902305 12198 layer_factory.hpp:77] Creating layer conv14_2/scale
I0620 16:21:29.902443 12198 net.cpp:150] Setting up conv14_2/scale
I0620 16:21:29.902470 12198 net.cpp:157] Top shape: 24 512 5 5 (307200)
I0620 16:21:29.902488 12198 net.cpp:165] Memory required for data: 3855446112
I0620 16:21:29.902506 12198 layer_factory.hpp:77] Creating layer conv14_2/relu
I0620 16:21:29.902523 12198 net.cpp:100] Creating Layer conv14_2/relu
I0620 16:21:29.902534 12198 net.cpp:434] conv14_2/relu <- conv14_2
I0620 16:21:29.902547 12198 net.cpp:395] conv14_2/relu -> conv14_2 (in-place)
I0620 16:21:29.902561 12198 net.cpp:150] Setting up conv14_2/relu
I0620 16:21:29.902581 12198 net.cpp:157] Top shape: 24 512 5 5 (307200)
I0620 16:21:29.902604 12198 net.cpp:165] Memory required for data: 3856674912
I0620 16:21:29.902622 12198 layer_factory.hpp:77] Creating layer conv14_2_conv14_2/relu_0_split
I0620 16:21:29.902642 12198 net.cpp:100] Creating Layer conv14_2_conv14_2/relu_0_split
I0620 16:21:29.902665 12198 net.cpp:434] conv14_2_conv14_2/relu_0_split <- conv14_2
I0620 16:21:29.902679 12198 net.cpp:408] conv14_2_conv14_2/relu_0_split -> conv14_2_conv14_2/relu_0_split_0
I0620 16:21:29.902695 12198 net.cpp:408] conv14_2_conv14_2/relu_0_split -> conv14_2_conv14_2/relu_0_split_1
I0620 16:21:29.902714 12198 net.cpp:408] conv14_2_conv14_2/relu_0_split -> conv14_2_conv14_2/relu_0_split_2
I0620 16:21:29.902729 12198 net.cpp:408] conv14_2_conv14_2/relu_0_split -> conv14_2_conv14_2/relu_0_split_3
I0620 16:21:29.902793 12198 net.cpp:150] Setting up conv14_2_conv14_2/relu_0_split
I0620 16:21:29.902808 12198 net.cpp:157] Top shape: 24 512 5 5 (307200)
I0620 16:21:29.902822 12198 net.cpp:157] Top shape: 24 512 5 5 (307200)
I0620 16:21:29.902833 12198 net.cpp:157] Top shape: 24 512 5 5 (307200)
I0620 16:21:29.902846 12198 net.cpp:157] Top shape: 24 512 5 5 (307200)
I0620 16:21:29.902858 12198 net.cpp:165] Memory required for data: 3861590112
I0620 16:21:29.902868 12198 layer_factory.hpp:77] Creating layer conv15_1
I0620 16:21:29.902885 12198 net.cpp:100] Creating Layer conv15_1
I0620 16:21:29.902897 12198 net.cpp:434] conv15_1 <- conv14_2_conv14_2/relu_0_split_0
I0620 16:21:29.902912 12198 net.cpp:408] conv15_1 -> conv15_1
I0620 16:21:29.903596 12198 net.cpp:150] Setting up conv15_1
I0620 16:21:29.903620 12198 net.cpp:157] Top shape: 24 128 5 5 (76800)
I0620 16:21:29.903630 12198 net.cpp:165] Memory required for data: 3861897312
I0620 16:21:29.903642 12198 layer_factory.hpp:77] Creating layer conv15_1/bn
I0620 16:21:29.903678 12198 net.cpp:100] Creating Layer conv15_1/bn
I0620 16:21:29.903714 12198 net.cpp:434] conv15_1/bn <- conv15_1
I0620 16:21:29.903733 12198 net.cpp:395] conv15_1/bn -> conv15_1 (in-place)
I0620 16:21:29.903895 12198 net.cpp:150] Setting up conv15_1/bn
I0620 16:21:29.903908 12198 net.cpp:157] Top shape: 24 128 5 5 (76800)
I0620 16:21:29.903918 12198 net.cpp:165] Memory required for data: 3862204512
I0620 16:21:29.903985 12198 layer_factory.hpp:77] Creating layer conv15_1/scale
I0620 16:21:29.904011 12198 net.cpp:100] Creating Layer conv15_1/scale
I0620 16:21:29.904029 12198 net.cpp:434] conv15_1/scale <- conv15_1
I0620 16:21:29.904048 12198 net.cpp:395] conv15_1/scale -> conv15_1 (in-place)
I0620 16:21:29.904095 12198 layer_factory.hpp:77] Creating layer conv15_1/scale
I0620 16:21:29.904363 12198 net.cpp:150] Setting up conv15_1/scale
I0620 16:21:29.904386 12198 net.cpp:157] Top shape: 24 128 5 5 (76800)
I0620 16:21:29.904403 12198 net.cpp:165] Memory required for data: 3862511712
I0620 16:21:29.904426 12198 layer_factory.hpp:77] Creating layer conv15_1/relu
I0620 16:21:29.904448 12198 net.cpp:100] Creating Layer conv15_1/relu
I0620 16:21:29.904466 12198 net.cpp:434] conv15_1/relu <- conv15_1
I0620 16:21:29.904484 12198 net.cpp:395] conv15_1/relu -> conv15_1 (in-place)
I0620 16:21:29.904507 12198 net.cpp:150] Setting up conv15_1/relu
I0620 16:21:29.904525 12198 net.cpp:157] Top shape: 24 128 5 5 (76800)
I0620 16:21:29.904548 12198 net.cpp:165] Memory required for data: 3862818912
I0620 16:21:29.904562 12198 layer_factory.hpp:77] Creating layer conv15_2
I0620 16:21:29.904584 12198 net.cpp:100] Creating Layer conv15_2
I0620 16:21:29.904603 12198 net.cpp:434] conv15_2 <- conv15_1
I0620 16:21:29.904625 12198 net.cpp:408] conv15_2 -> conv15_2
I0620 16:21:29.908390 12198 net.cpp:150] Setting up conv15_2
I0620 16:21:29.908416 12198 net.cpp:157] Top shape: 24 256 3 3 (55296)
I0620 16:21:29.908434 12198 net.cpp:165] Memory required for data: 3863040096
I0620 16:21:29.908452 12198 layer_factory.hpp:77] Creating layer conv15_2/bn
I0620 16:21:29.908475 12198 net.cpp:100] Creating Layer conv15_2/bn
I0620 16:21:29.908493 12198 net.cpp:434] conv15_2/bn <- conv15_2
I0620 16:21:29.908511 12198 net.cpp:395] conv15_2/bn -> conv15_2 (in-place)
I0620 16:21:29.908668 12198 net.cpp:150] Setting up conv15_2/bn
I0620 16:21:29.908686 12198 net.cpp:157] Top shape: 24 256 3 3 (55296)
I0620 16:21:29.908704 12198 net.cpp:165] Memory required for data: 3863261280
I0620 16:21:29.908727 12198 layer_factory.hpp:77] Creating layer conv15_2/scale
I0620 16:21:29.908746 12198 net.cpp:100] Creating Layer conv15_2/scale
I0620 16:21:29.908763 12198 net.cpp:434] conv15_2/scale <- conv15_2
I0620 16:21:29.908782 12198 net.cpp:395] conv15_2/scale -> conv15_2 (in-place)
I0620 16:21:29.908826 12198 layer_factory.hpp:77] Creating layer conv15_2/scale
I0620 16:21:29.908929 12198 net.cpp:150] Setting up conv15_2/scale
I0620 16:21:29.908952 12198 net.cpp:157] Top shape: 24 256 3 3 (55296)
I0620 16:21:29.908970 12198 net.cpp:165] Memory required for data: 3863482464
I0620 16:21:29.908988 12198 layer_factory.hpp:77] Creating layer conv15_2/relu
I0620 16:21:29.909015 12198 net.cpp:100] Creating Layer conv15_2/relu
I0620 16:21:29.909034 12198 net.cpp:434] conv15_2/relu <- conv15_2
I0620 16:21:29.909051 12198 net.cpp:395] conv15_2/relu -> conv15_2 (in-place)
I0620 16:21:29.909070 12198 net.cpp:150] Setting up conv15_2/relu
I0620 16:21:29.909087 12198 net.cpp:157] Top shape: 24 256 3 3 (55296)
I0620 16:21:29.909106 12198 net.cpp:165] Memory required for data: 3863703648
I0620 16:21:29.909123 12198 layer_factory.hpp:77] Creating layer conv15_2_conv15_2/relu_0_split
I0620 16:21:29.909142 12198 net.cpp:100] Creating Layer conv15_2_conv15_2/relu_0_split
I0620 16:21:29.909159 12198 net.cpp:434] conv15_2_conv15_2/relu_0_split <- conv15_2
I0620 16:21:29.909178 12198 net.cpp:408] conv15_2_conv15_2/relu_0_split -> conv15_2_conv15_2/relu_0_split_0
I0620 16:21:29.909199 12198 net.cpp:408] conv15_2_conv15_2/relu_0_split -> conv15_2_conv15_2/relu_0_split_1
I0620 16:21:29.909222 12198 net.cpp:408] conv15_2_conv15_2/relu_0_split -> conv15_2_conv15_2/relu_0_split_2
I0620 16:21:29.909240 12198 net.cpp:408] conv15_2_conv15_2/relu_0_split -> conv15_2_conv15_2/relu_0_split_3
I0620 16:21:29.909303 12198 net.cpp:150] Setting up conv15_2_conv15_2/relu_0_split
I0620 16:21:29.909322 12198 net.cpp:157] Top shape: 24 256 3 3 (55296)
I0620 16:21:29.909339 12198 net.cpp:157] Top shape: 24 256 3 3 (55296)
I0620 16:21:29.909358 12198 net.cpp:157] Top shape: 24 256 3 3 (55296)
I0620 16:21:29.909375 12198 net.cpp:157] Top shape: 24 256 3 3 (55296)
I0620 16:21:29.909394 12198 net.cpp:165] Memory required for data: 3864588384
I0620 16:21:29.909411 12198 layer_factory.hpp:77] Creating layer conv16_1
I0620 16:21:29.909435 12198 net.cpp:100] Creating Layer conv16_1
I0620 16:21:29.909452 12198 net.cpp:434] conv16_1 <- conv15_2_conv15_2/relu_0_split_0
I0620 16:21:29.909471 12198 net.cpp:408] conv16_1 -> conv16_1
I0620 16:21:29.909862 12198 net.cpp:150] Setting up conv16_1
I0620 16:21:29.909879 12198 net.cpp:157] Top shape: 24 128 3 3 (27648)
I0620 16:21:29.909898 12198 net.cpp:165] Memory required for data: 3864698976
I0620 16:21:29.909915 12198 layer_factory.hpp:77] Creating layer conv16_1/bn
I0620 16:21:29.909934 12198 net.cpp:100] Creating Layer conv16_1/bn
I0620 16:21:29.909955 12198 net.cpp:434] conv16_1/bn <- conv16_1
I0620 16:21:29.909973 12198 net.cpp:395] conv16_1/bn -> conv16_1 (in-place)
I0620 16:21:29.910126 12198 net.cpp:150] Setting up conv16_1/bn
I0620 16:21:29.910145 12198 net.cpp:157] Top shape: 24 128 3 3 (27648)
I0620 16:21:29.910162 12198 net.cpp:165] Memory required for data: 3864809568
I0620 16:21:29.910181 12198 layer_factory.hpp:77] Creating layer conv16_1/scale
I0620 16:21:29.910199 12198 net.cpp:100] Creating Layer conv16_1/scale
I0620 16:21:29.910217 12198 net.cpp:434] conv16_1/scale <- conv16_1
I0620 16:21:29.910234 12198 net.cpp:395] conv16_1/scale -> conv16_1 (in-place)
I0620 16:21:29.910279 12198 layer_factory.hpp:77] Creating layer conv16_1/scale
I0620 16:21:29.910377 12198 net.cpp:150] Setting up conv16_1/scale
I0620 16:21:29.910395 12198 net.cpp:157] Top shape: 24 128 3 3 (27648)
I0620 16:21:29.910413 12198 net.cpp:165] Memory required for data: 3864920160
I0620 16:21:29.910431 12198 layer_factory.hpp:77] Creating layer conv16_1/relu
I0620 16:21:29.910449 12198 net.cpp:100] Creating Layer conv16_1/relu
I0620 16:21:29.910467 12198 net.cpp:434] conv16_1/relu <- conv16_1
I0620 16:21:29.910485 12198 net.cpp:395] conv16_1/relu -> conv16_1 (in-place)
I0620 16:21:29.910503 12198 net.cpp:150] Setting up conv16_1/relu
I0620 16:21:29.910521 12198 net.cpp:157] Top shape: 24 128 3 3 (27648)
I0620 16:21:29.910539 12198 net.cpp:165] Memory required for data: 3865030752
I0620 16:21:29.910557 12198 layer_factory.hpp:77] Creating layer conv16_2
I0620 16:21:29.910575 12198 net.cpp:100] Creating Layer conv16_2
I0620 16:21:29.910593 12198 net.cpp:434] conv16_2 <- conv16_1
I0620 16:21:29.910616 12198 net.cpp:408] conv16_2 -> conv16_2
I0620 16:21:29.913895 12198 net.cpp:150] Setting up conv16_2
I0620 16:21:29.913926 12198 net.cpp:157] Top shape: 24 256 2 2 (24576)
I0620 16:21:29.913944 12198 net.cpp:165] Memory required for data: 3865129056
I0620 16:21:29.913962 12198 layer_factory.hpp:77] Creating layer conv16_2/bn
I0620 16:21:29.913985 12198 net.cpp:100] Creating Layer conv16_2/bn
I0620 16:21:29.914003 12198 net.cpp:434] conv16_2/bn <- conv16_2
I0620 16:21:29.914021 12198 net.cpp:395] conv16_2/bn -> conv16_2 (in-place)
I0620 16:21:29.914175 12198 net.cpp:150] Setting up conv16_2/bn
I0620 16:21:29.914192 12198 net.cpp:157] Top shape: 24 256 2 2 (24576)
I0620 16:21:29.914211 12198 net.cpp:165] Memory required for data: 3865227360
I0620 16:21:29.914228 12198 layer_factory.hpp:77] Creating layer conv16_2/scale
I0620 16:21:29.914247 12198 net.cpp:100] Creating Layer conv16_2/scale
I0620 16:21:29.914264 12198 net.cpp:434] conv16_2/scale <- conv16_2
I0620 16:21:29.914283 12198 net.cpp:395] conv16_2/scale -> conv16_2 (in-place)
I0620 16:21:29.914331 12198 layer_factory.hpp:77] Creating layer conv16_2/scale
I0620 16:21:29.914422 12198 net.cpp:150] Setting up conv16_2/scale
I0620 16:21:29.914439 12198 net.cpp:157] Top shape: 24 256 2 2 (24576)
I0620 16:21:29.914458 12198 net.cpp:165] Memory required for data: 3865325664
I0620 16:21:29.914475 12198 layer_factory.hpp:77] Creating layer conv16_2/relu
I0620 16:21:29.914494 12198 net.cpp:100] Creating Layer conv16_2/relu
I0620 16:21:29.914511 12198 net.cpp:434] conv16_2/relu <- conv16_2
I0620 16:21:29.914530 12198 net.cpp:395] conv16_2/relu -> conv16_2 (in-place)
I0620 16:21:29.914547 12198 net.cpp:150] Setting up conv16_2/relu
I0620 16:21:29.914566 12198 net.cpp:157] Top shape: 24 256 2 2 (24576)
I0620 16:21:29.914583 12198 net.cpp:165] Memory required for data: 3865423968
I0620 16:21:29.914602 12198 layer_factory.hpp:77] Creating layer conv16_2_conv16_2/relu_0_split
I0620 16:21:29.914619 12198 net.cpp:100] Creating Layer conv16_2_conv16_2/relu_0_split
I0620 16:21:29.914638 12198 net.cpp:434] conv16_2_conv16_2/relu_0_split <- conv16_2
I0620 16:21:29.914655 12198 net.cpp:408] conv16_2_conv16_2/relu_0_split -> conv16_2_conv16_2/relu_0_split_0
I0620 16:21:29.914678 12198 net.cpp:408] conv16_2_conv16_2/relu_0_split -> conv16_2_conv16_2/relu_0_split_1
I0620 16:21:29.914700 12198 net.cpp:408] conv16_2_conv16_2/relu_0_split -> conv16_2_conv16_2/relu_0_split_2
I0620 16:21:29.914727 12198 net.cpp:408] conv16_2_conv16_2/relu_0_split -> conv16_2_conv16_2/relu_0_split_3
I0620 16:21:29.914791 12198 net.cpp:150] Setting up conv16_2_conv16_2/relu_0_split
I0620 16:21:29.914809 12198 net.cpp:157] Top shape: 24 256 2 2 (24576)
I0620 16:21:29.914827 12198 net.cpp:157] Top shape: 24 256 2 2 (24576)
I0620 16:21:29.914845 12198 net.cpp:157] Top shape: 24 256 2 2 (24576)
I0620 16:21:29.914860 12198 net.cpp:157] Top shape: 24 256 2 2 (24576)
I0620 16:21:29.914875 12198 net.cpp:165] Memory required for data: 3865817184
I0620 16:21:29.914892 12198 layer_factory.hpp:77] Creating layer conv17_1
I0620 16:21:29.914914 12198 net.cpp:100] Creating Layer conv17_1
I0620 16:21:29.914932 12198 net.cpp:434] conv17_1 <- conv16_2_conv16_2/relu_0_split_0
I0620 16:21:29.914950 12198 net.cpp:408] conv17_1 -> conv17_1
I0620 16:21:29.915221 12198 net.cpp:150] Setting up conv17_1
I0620 16:21:29.915240 12198 net.cpp:157] Top shape: 24 64 2 2 (6144)
I0620 16:21:29.915257 12198 net.cpp:165] Memory required for data: 3865841760
I0620 16:21:29.915275 12198 layer_factory.hpp:77] Creating layer conv17_1/bn
I0620 16:21:29.915293 12198 net.cpp:100] Creating Layer conv17_1/bn
I0620 16:21:29.915311 12198 net.cpp:434] conv17_1/bn <- conv17_1
I0620 16:21:29.915329 12198 net.cpp:395] conv17_1/bn -> conv17_1 (in-place)
I0620 16:21:29.915488 12198 net.cpp:150] Setting up conv17_1/bn
I0620 16:21:29.915506 12198 net.cpp:157] Top shape: 24 64 2 2 (6144)
I0620 16:21:29.915524 12198 net.cpp:165] Memory required for data: 3865866336
I0620 16:21:29.915542 12198 layer_factory.hpp:77] Creating layer conv17_1/scale
I0620 16:21:29.915560 12198 net.cpp:100] Creating Layer conv17_1/scale
I0620 16:21:29.915578 12198 net.cpp:434] conv17_1/scale <- conv17_1
I0620 16:21:29.915601 12198 net.cpp:395] conv17_1/scale -> conv17_1 (in-place)
I0620 16:21:29.915650 12198 layer_factory.hpp:77] Creating layer conv17_1/scale
I0620 16:21:29.915750 12198 net.cpp:150] Setting up conv17_1/scale
I0620 16:21:29.915767 12198 net.cpp:157] Top shape: 24 64 2 2 (6144)
I0620 16:21:29.915786 12198 net.cpp:165] Memory required for data: 3865890912
I0620 16:21:29.915803 12198 layer_factory.hpp:77] Creating layer conv17_1/relu
I0620 16:21:29.915822 12198 net.cpp:100] Creating Layer conv17_1/relu
I0620 16:21:29.915839 12198 net.cpp:434] conv17_1/relu <- conv17_1
I0620 16:21:29.915858 12198 net.cpp:395] conv17_1/relu -> conv17_1 (in-place)
I0620 16:21:29.915880 12198 net.cpp:150] Setting up conv17_1/relu
I0620 16:21:29.915902 12198 net.cpp:157] Top shape: 24 64 2 2 (6144)
I0620 16:21:29.915930 12198 net.cpp:165] Memory required for data: 3865915488
I0620 16:21:29.915956 12198 layer_factory.hpp:77] Creating layer conv17_2
I0620 16:21:29.915983 12198 net.cpp:100] Creating Layer conv17_2
I0620 16:21:29.916010 12198 net.cpp:434] conv17_2 <- conv17_1
I0620 16:21:29.916033 12198 net.cpp:408] conv17_2 -> conv17_2
I0620 16:21:29.916801 12198 net.cpp:150] Setting up conv17_2
I0620 16:21:29.916824 12198 net.cpp:157] Top shape: 24 128 1 1 (3072)
I0620 16:21:29.916842 12198 net.cpp:165] Memory required for data: 3865927776
I0620 16:21:29.916860 12198 layer_factory.hpp:77] Creating layer conv17_2/bn
I0620 16:21:29.916878 12198 net.cpp:100] Creating Layer conv17_2/bn
I0620 16:21:29.916896 12198 net.cpp:434] conv17_2/bn <- conv17_2
I0620 16:21:29.916914 12198 net.cpp:395] conv17_2/bn -> conv17_2 (in-place)
I0620 16:21:29.917062 12198 net.cpp:150] Setting up conv17_2/bn
I0620 16:21:29.917079 12198 net.cpp:157] Top shape: 24 128 1 1 (3072)
I0620 16:21:29.917098 12198 net.cpp:165] Memory required for data: 3865940064
I0620 16:21:29.917115 12198 layer_factory.hpp:77] Creating layer conv17_2/scale
I0620 16:21:29.917137 12198 net.cpp:100] Creating Layer conv17_2/scale
I0620 16:21:29.917155 12198 net.cpp:434] conv17_2/scale <- conv17_2
I0620 16:21:29.917173 12198 net.cpp:395] conv17_2/scale -> conv17_2 (in-place)
I0620 16:21:29.917214 12198 layer_factory.hpp:77] Creating layer conv17_2/scale
I0620 16:21:29.917307 12198 net.cpp:150] Setting up conv17_2/scale
I0620 16:21:29.917330 12198 net.cpp:157] Top shape: 24 128 1 1 (3072)
I0620 16:21:29.917347 12198 net.cpp:165] Memory required for data: 3865952352
I0620 16:21:29.917371 12198 layer_factory.hpp:77] Creating layer conv17_2/relu
I0620 16:21:29.917393 12198 net.cpp:100] Creating Layer conv17_2/relu
I0620 16:21:29.917412 12198 net.cpp:434] conv17_2/relu <- conv17_2
I0620 16:21:29.917429 12198 net.cpp:395] conv17_2/relu -> conv17_2 (in-place)
I0620 16:21:29.917448 12198 net.cpp:150] Setting up conv17_2/relu
I0620 16:21:29.917479 12198 net.cpp:157] Top shape: 24 128 1 1 (3072)
I0620 16:21:29.917501 12198 net.cpp:165] Memory required for data: 3865964640
I0620 16:21:29.917520 12198 layer_factory.hpp:77] Creating layer conv17_2_conv17_2/relu_0_split
I0620 16:21:29.917537 12198 net.cpp:100] Creating Layer conv17_2_conv17_2/relu_0_split
I0620 16:21:29.917556 12198 net.cpp:434] conv17_2_conv17_2/relu_0_split <- conv17_2
I0620 16:21:29.917573 12198 net.cpp:408] conv17_2_conv17_2/relu_0_split -> conv17_2_conv17_2/relu_0_split_0
I0620 16:21:29.917604 12198 net.cpp:408] conv17_2_conv17_2/relu_0_split -> conv17_2_conv17_2/relu_0_split_1
I0620 16:21:29.917628 12198 net.cpp:408] conv17_2_conv17_2/relu_0_split -> conv17_2_conv17_2/relu_0_split_2
I0620 16:21:29.917676 12198 net.cpp:150] Setting up conv17_2_conv17_2/relu_0_split
I0620 16:21:29.917695 12198 net.cpp:157] Top shape: 24 128 1 1 (3072)
I0620 16:21:29.917712 12198 net.cpp:157] Top shape: 24 128 1 1 (3072)
I0620 16:21:29.917731 12198 net.cpp:157] Top shape: 24 128 1 1 (3072)
I0620 16:21:29.917748 12198 net.cpp:165] Memory required for data: 3866001504
I0620 16:21:29.917767 12198 layer_factory.hpp:77] Creating layer conv11_mbox_loc
I0620 16:21:29.917789 12198 net.cpp:100] Creating Layer conv11_mbox_loc
I0620 16:21:29.917807 12198 net.cpp:434] conv11_mbox_loc <- conv11_conv11/relu_0_split_1
I0620 16:21:29.917829 12198 net.cpp:408] conv11_mbox_loc -> conv11_mbox_loc
I0620 16:21:29.918068 12198 net.cpp:150] Setting up conv11_mbox_loc
I0620 16:21:29.918090 12198 net.cpp:157] Top shape: 24 12 19 19 (103968)
I0620 16:21:29.918108 12198 net.cpp:165] Memory required for data: 3866417376
I0620 16:21:29.918126 12198 layer_factory.hpp:77] Creating layer conv11_mbox_loc_perm
I0620 16:21:29.918144 12198 net.cpp:100] Creating Layer conv11_mbox_loc_perm
I0620 16:21:29.918162 12198 net.cpp:434] conv11_mbox_loc_perm <- conv11_mbox_loc
I0620 16:21:29.918180 12198 net.cpp:408] conv11_mbox_loc_perm -> conv11_mbox_loc_perm
I0620 16:21:29.918272 12198 net.cpp:150] Setting up conv11_mbox_loc_perm
I0620 16:21:29.918289 12198 net.cpp:157] Top shape: 24 19 19 12 (103968)
I0620 16:21:29.918308 12198 net.cpp:165] Memory required for data: 3866833248
I0620 16:21:29.918325 12198 layer_factory.hpp:77] Creating layer conv11_mbox_loc_flat
I0620 16:21:29.918347 12198 net.cpp:100] Creating Layer conv11_mbox_loc_flat
I0620 16:21:29.918365 12198 net.cpp:434] conv11_mbox_loc_flat <- conv11_mbox_loc_perm
I0620 16:21:29.918383 12198 net.cpp:408] conv11_mbox_loc_flat -> conv11_mbox_loc_flat
I0620 16:21:29.918419 12198 net.cpp:150] Setting up conv11_mbox_loc_flat
I0620 16:21:29.918437 12198 net.cpp:157] Top shape: 24 4332 (103968)
I0620 16:21:29.918455 12198 net.cpp:165] Memory required for data: 3867249120
I0620 16:21:29.918473 12198 layer_factory.hpp:77] Creating layer conv11_mbox_conf_new
I0620 16:21:29.918496 12198 net.cpp:100] Creating Layer conv11_mbox_conf_new
I0620 16:21:29.918514 12198 net.cpp:434] conv11_mbox_conf_new <- conv11_conv11/relu_0_split_2
I0620 16:21:29.918536 12198 net.cpp:408] conv11_mbox_conf_new -> conv11_mbox_conf
I0620 16:21:29.918757 12198 net.cpp:150] Setting up conv11_mbox_conf_new
I0620 16:21:29.918776 12198 net.cpp:157] Top shape: 24 9 19 19 (77976)
I0620 16:21:29.918793 12198 net.cpp:165] Memory required for data: 3867561024
I0620 16:21:29.918812 12198 layer_factory.hpp:77] Creating layer conv11_mbox_conf_perm
I0620 16:21:29.918829 12198 net.cpp:100] Creating Layer conv11_mbox_conf_perm
I0620 16:21:29.918848 12198 net.cpp:434] conv11_mbox_conf_perm <- conv11_mbox_conf
I0620 16:21:29.918865 12198 net.cpp:408] conv11_mbox_conf_perm -> conv11_mbox_conf_perm
I0620 16:21:29.918956 12198 net.cpp:150] Setting up conv11_mbox_conf_perm
I0620 16:21:29.918977 12198 net.cpp:157] Top shape: 24 19 19 9 (77976)
I0620 16:21:29.918995 12198 net.cpp:165] Memory required for data: 3867872928
I0620 16:21:29.919013 12198 layer_factory.hpp:77] Creating layer conv11_mbox_conf_flat
I0620 16:21:29.919031 12198 net.cpp:100] Creating Layer conv11_mbox_conf_flat
I0620 16:21:29.919049 12198 net.cpp:434] conv11_mbox_conf_flat <- conv11_mbox_conf_perm
I0620 16:21:29.919072 12198 net.cpp:408] conv11_mbox_conf_flat -> conv11_mbox_conf_flat
I0620 16:21:29.919103 12198 net.cpp:150] Setting up conv11_mbox_conf_flat
I0620 16:21:29.919121 12198 net.cpp:157] Top shape: 24 3249 (77976)
I0620 16:21:29.919139 12198 net.cpp:165] Memory required for data: 3868184832
I0620 16:21:29.919157 12198 layer_factory.hpp:77] Creating layer conv11_mbox_priorbox
I0620 16:21:29.919180 12198 net.cpp:100] Creating Layer conv11_mbox_priorbox
I0620 16:21:29.919198 12198 net.cpp:434] conv11_mbox_priorbox <- conv11_conv11/relu_0_split_3
I0620 16:21:29.919216 12198 net.cpp:434] conv11_mbox_priorbox <- data_data_0_split_1
I0620 16:21:29.919239 12198 net.cpp:408] conv11_mbox_priorbox -> conv11_mbox_priorbox
I0620 16:21:29.919275 12198 net.cpp:150] Setting up conv11_mbox_priorbox
I0620 16:21:29.919292 12198 net.cpp:157] Top shape: 1 2 4332 (8664)
I0620 16:21:29.919311 12198 net.cpp:165] Memory required for data: 3868219488
I0620 16:21:29.919328 12198 layer_factory.hpp:77] Creating layer conv13_mbox_loc
I0620 16:21:29.919351 12198 net.cpp:100] Creating Layer conv13_mbox_loc
I0620 16:21:29.919369 12198 net.cpp:434] conv13_mbox_loc <- conv13_conv13/relu_0_split_1
I0620 16:21:29.919392 12198 net.cpp:408] conv13_mbox_loc -> conv13_mbox_loc
I0620 16:21:29.919761 12198 net.cpp:150] Setting up conv13_mbox_loc
I0620 16:21:29.919780 12198 net.cpp:157] Top shape: 24 24 10 10 (57600)
I0620 16:21:29.919797 12198 net.cpp:165] Memory required for data: 3868449888
I0620 16:21:29.919816 12198 layer_factory.hpp:77] Creating layer conv13_mbox_loc_perm
I0620 16:21:29.919833 12198 net.cpp:100] Creating Layer conv13_mbox_loc_perm
I0620 16:21:29.919852 12198 net.cpp:434] conv13_mbox_loc_perm <- conv13_mbox_loc
I0620 16:21:29.919869 12198 net.cpp:408] conv13_mbox_loc_perm -> conv13_mbox_loc_perm
I0620 16:21:29.919958 12198 net.cpp:150] Setting up conv13_mbox_loc_perm
I0620 16:21:29.919981 12198 net.cpp:157] Top shape: 24 10 10 24 (57600)
I0620 16:21:29.919998 12198 net.cpp:165] Memory required for data: 3868680288
I0620 16:21:29.920017 12198 layer_factory.hpp:77] Creating layer conv13_mbox_loc_flat
I0620 16:21:29.920035 12198 net.cpp:100] Creating Layer conv13_mbox_loc_flat
I0620 16:21:29.920053 12198 net.cpp:434] conv13_mbox_loc_flat <- conv13_mbox_loc_perm
I0620 16:21:29.920075 12198 net.cpp:408] conv13_mbox_loc_flat -> conv13_mbox_loc_flat
I0620 16:21:29.920107 12198 net.cpp:150] Setting up conv13_mbox_loc_flat
I0620 16:21:29.920174 12198 net.cpp:157] Top shape: 24 2400 (57600)
I0620 16:21:29.920197 12198 net.cpp:165] Memory required for data: 3868910688
I0620 16:21:29.920219 12198 layer_factory.hpp:77] Creating layer conv13_mbox_conf_new
I0620 16:21:29.920246 12198 net.cpp:100] Creating Layer conv13_mbox_conf_new
I0620 16:21:29.920264 12198 net.cpp:434] conv13_mbox_conf_new <- conv13_conv13/relu_0_split_2
I0620 16:21:29.920287 12198 net.cpp:408] conv13_mbox_conf_new -> conv13_mbox_conf
I0620 16:21:29.920620 12198 net.cpp:150] Setting up conv13_mbox_conf_new
I0620 16:21:29.920642 12198 net.cpp:157] Top shape: 24 18 10 10 (43200)
I0620 16:21:29.920660 12198 net.cpp:165] Memory required for data: 3869083488
I0620 16:21:29.920678 12198 layer_factory.hpp:77] Creating layer conv13_mbox_conf_perm
I0620 16:21:29.920696 12198 net.cpp:100] Creating Layer conv13_mbox_conf_perm
I0620 16:21:29.920714 12198 net.cpp:434] conv13_mbox_conf_perm <- conv13_mbox_conf
I0620 16:21:29.920732 12198 net.cpp:408] conv13_mbox_conf_perm -> conv13_mbox_conf_perm
I0620 16:21:29.920820 12198 net.cpp:150] Setting up conv13_mbox_conf_perm
I0620 16:21:29.920842 12198 net.cpp:157] Top shape: 24 10 10 18 (43200)
I0620 16:21:29.920861 12198 net.cpp:165] Memory required for data: 3869256288
I0620 16:21:29.920883 12198 layer_factory.hpp:77] Creating layer conv13_mbox_conf_flat
I0620 16:21:29.920902 12198 net.cpp:100] Creating Layer conv13_mbox_conf_flat
I0620 16:21:29.920919 12198 net.cpp:434] conv13_mbox_conf_flat <- conv13_mbox_conf_perm
I0620 16:21:29.920938 12198 net.cpp:408] conv13_mbox_conf_flat -> conv13_mbox_conf_flat
I0620 16:21:29.920969 12198 net.cpp:150] Setting up conv13_mbox_conf_flat
I0620 16:21:29.920987 12198 net.cpp:157] Top shape: 24 1800 (43200)
I0620 16:21:29.921005 12198 net.cpp:165] Memory required for data: 3869429088
I0620 16:21:29.921023 12198 layer_factory.hpp:77] Creating layer conv13_mbox_priorbox
I0620 16:21:29.921041 12198 net.cpp:100] Creating Layer conv13_mbox_priorbox
I0620 16:21:29.921059 12198 net.cpp:434] conv13_mbox_priorbox <- conv13_conv13/relu_0_split_3
I0620 16:21:29.921077 12198 net.cpp:434] conv13_mbox_priorbox <- data_data_0_split_2
I0620 16:21:29.921095 12198 net.cpp:408] conv13_mbox_priorbox -> conv13_mbox_priorbox
I0620 16:21:29.921131 12198 net.cpp:150] Setting up conv13_mbox_priorbox
I0620 16:21:29.921149 12198 net.cpp:157] Top shape: 1 2 2400 (4800)
I0620 16:21:29.921167 12198 net.cpp:165] Memory required for data: 3869448288
I0620 16:21:29.921185 12198 layer_factory.hpp:77] Creating layer conv14_2_mbox_loc
I0620 16:21:29.921207 12198 net.cpp:100] Creating Layer conv14_2_mbox_loc
I0620 16:21:29.921226 12198 net.cpp:434] conv14_2_mbox_loc <- conv14_2_conv14_2/relu_0_split_1
I0620 16:21:29.921248 12198 net.cpp:408] conv14_2_mbox_loc -> conv14_2_mbox_loc
I0620 16:21:29.921527 12198 net.cpp:150] Setting up conv14_2_mbox_loc
I0620 16:21:29.921545 12198 net.cpp:157] Top shape: 24 24 5 5 (14400)
I0620 16:21:29.921563 12198 net.cpp:165] Memory required for data: 3869505888
I0620 16:21:29.921581 12198 layer_factory.hpp:77] Creating layer conv14_2_mbox_loc_perm
I0620 16:21:29.921604 12198 net.cpp:100] Creating Layer conv14_2_mbox_loc_perm
I0620 16:21:29.921622 12198 net.cpp:434] conv14_2_mbox_loc_perm <- conv14_2_mbox_loc
I0620 16:21:29.921640 12198 net.cpp:408] conv14_2_mbox_loc_perm -> conv14_2_mbox_loc_perm
I0620 16:21:29.921730 12198 net.cpp:150] Setting up conv14_2_mbox_loc_perm
I0620 16:21:29.921748 12198 net.cpp:157] Top shape: 24 5 5 24 (14400)
I0620 16:21:29.921766 12198 net.cpp:165] Memory required for data: 3869563488
I0620 16:21:29.921784 12198 layer_factory.hpp:77] Creating layer conv14_2_mbox_loc_flat
I0620 16:21:29.921802 12198 net.cpp:100] Creating Layer conv14_2_mbox_loc_flat
I0620 16:21:29.921820 12198 net.cpp:434] conv14_2_mbox_loc_flat <- conv14_2_mbox_loc_perm
I0620 16:21:29.921838 12198 net.cpp:408] conv14_2_mbox_loc_flat -> conv14_2_mbox_loc_flat
I0620 16:21:29.921869 12198 net.cpp:150] Setting up conv14_2_mbox_loc_flat
I0620 16:21:29.921887 12198 net.cpp:157] Top shape: 24 600 (14400)
I0620 16:21:29.921905 12198 net.cpp:165] Memory required for data: 3869621088
I0620 16:21:29.921923 12198 layer_factory.hpp:77] Creating layer conv14_2_mbox_conf_new
I0620 16:21:29.921947 12198 net.cpp:100] Creating Layer conv14_2_mbox_conf_new
I0620 16:21:29.921964 12198 net.cpp:434] conv14_2_mbox_conf_new <- conv14_2_conv14_2/relu_0_split_2
I0620 16:21:29.921986 12198 net.cpp:408] conv14_2_mbox_conf_new -> conv14_2_mbox_conf
I0620 16:21:29.922271 12198 net.cpp:150] Setting up conv14_2_mbox_conf_new
I0620 16:21:29.922298 12198 net.cpp:157] Top shape: 24 18 5 5 (10800)
I0620 16:21:29.922317 12198 net.cpp:165] Memory required for data: 3869664288
I0620 16:21:29.922343 12198 layer_factory.hpp:77] Creating layer conv14_2_mbox_conf_perm
I0620 16:21:29.922370 12198 net.cpp:100] Creating Layer conv14_2_mbox_conf_perm
I0620 16:21:29.922389 12198 net.cpp:434] conv14_2_mbox_conf_perm <- conv14_2_mbox_conf
I0620 16:21:29.922415 12198 net.cpp:408] conv14_2_mbox_conf_perm -> conv14_2_mbox_conf_perm
I0620 16:21:29.922516 12198 net.cpp:150] Setting up conv14_2_mbox_conf_perm
I0620 16:21:29.922534 12198 net.cpp:157] Top shape: 24 5 5 18 (10800)
I0620 16:21:29.922552 12198 net.cpp:165] Memory required for data: 3869707488
I0620 16:21:29.922570 12198 layer_factory.hpp:77] Creating layer conv14_2_mbox_conf_flat
I0620 16:21:29.922593 12198 net.cpp:100] Creating Layer conv14_2_mbox_conf_flat
I0620 16:21:29.922611 12198 net.cpp:434] conv14_2_mbox_conf_flat <- conv14_2_mbox_conf_perm
I0620 16:21:29.922629 12198 net.cpp:408] conv14_2_mbox_conf_flat -> conv14_2_mbox_conf_flat
I0620 16:21:29.922660 12198 net.cpp:150] Setting up conv14_2_mbox_conf_flat
I0620 16:21:29.922678 12198 net.cpp:157] Top shape: 24 450 (10800)
I0620 16:21:29.922696 12198 net.cpp:165] Memory required for data: 3869750688
I0620 16:21:29.922714 12198 layer_factory.hpp:77] Creating layer conv14_2_mbox_priorbox
I0620 16:21:29.922737 12198 net.cpp:100] Creating Layer conv14_2_mbox_priorbox
I0620 16:21:29.922755 12198 net.cpp:434] conv14_2_mbox_priorbox <- conv14_2_conv14_2/relu_0_split_3
I0620 16:21:29.922773 12198 net.cpp:434] conv14_2_mbox_priorbox <- data_data_0_split_3
I0620 16:21:29.922796 12198 net.cpp:408] conv14_2_mbox_priorbox -> conv14_2_mbox_priorbox
I0620 16:21:29.922832 12198 net.cpp:150] Setting up conv14_2_mbox_priorbox
I0620 16:21:29.922849 12198 net.cpp:157] Top shape: 1 2 600 (1200)
I0620 16:21:29.922868 12198 net.cpp:165] Memory required for data: 3869755488
I0620 16:21:29.922886 12198 layer_factory.hpp:77] Creating layer conv15_2_mbox_loc
I0620 16:21:29.922909 12198 net.cpp:100] Creating Layer conv15_2_mbox_loc
I0620 16:21:29.922926 12198 net.cpp:434] conv15_2_mbox_loc <- conv15_2_conv15_2/relu_0_split_1
I0620 16:21:29.922945 12198 net.cpp:408] conv15_2_mbox_loc -> conv15_2_mbox_loc
I0620 16:21:29.923171 12198 net.cpp:150] Setting up conv15_2_mbox_loc
I0620 16:21:29.923188 12198 net.cpp:157] Top shape: 24 24 3 3 (5184)
I0620 16:21:29.923207 12198 net.cpp:165] Memory required for data: 3869776224
I0620 16:21:29.923224 12198 layer_factory.hpp:77] Creating layer conv15_2_mbox_loc_perm
I0620 16:21:29.923243 12198 net.cpp:100] Creating Layer conv15_2_mbox_loc_perm
I0620 16:21:29.923260 12198 net.cpp:434] conv15_2_mbox_loc_perm <- conv15_2_mbox_loc
I0620 16:21:29.923283 12198 net.cpp:408] conv15_2_mbox_loc_perm -> conv15_2_mbox_loc_perm
I0620 16:21:29.923368 12198 net.cpp:150] Setting up conv15_2_mbox_loc_perm
I0620 16:21:29.923386 12198 net.cpp:157] Top shape: 24 3 3 24 (5184)
I0620 16:21:29.923404 12198 net.cpp:165] Memory required for data: 3869796960
I0620 16:21:29.923422 12198 layer_factory.hpp:77] Creating layer conv15_2_mbox_loc_flat
I0620 16:21:29.923440 12198 net.cpp:100] Creating Layer conv15_2_mbox_loc_flat
I0620 16:21:29.923460 12198 net.cpp:434] conv15_2_mbox_loc_flat <- conv15_2_mbox_loc_perm
I0620 16:21:29.923477 12198 net.cpp:408] conv15_2_mbox_loc_flat -> conv15_2_mbox_loc_flat
I0620 16:21:29.923508 12198 net.cpp:150] Setting up conv15_2_mbox_loc_flat
I0620 16:21:29.923527 12198 net.cpp:157] Top shape: 24 216 (5184)
I0620 16:21:29.923544 12198 net.cpp:165] Memory required for data: 3869817696
I0620 16:21:29.923563 12198 layer_factory.hpp:77] Creating layer conv15_2_mbox_conf_new
I0620 16:21:29.923586 12198 net.cpp:100] Creating Layer conv15_2_mbox_conf_new
I0620 16:21:29.923604 12198 net.cpp:434] conv15_2_mbox_conf_new <- conv15_2_conv15_2/relu_0_split_2
I0620 16:21:29.923622 12198 net.cpp:408] conv15_2_mbox_conf_new -> conv15_2_mbox_conf
I0620 16:21:29.923856 12198 net.cpp:150] Setting up conv15_2_mbox_conf_new
I0620 16:21:29.923877 12198 net.cpp:157] Top shape: 24 18 3 3 (3888)
I0620 16:21:29.923900 12198 net.cpp:165] Memory required for data: 3869833248
I0620 16:21:29.923923 12198 layer_factory.hpp:77] Creating layer conv15_2_mbox_conf_perm
I0620 16:21:29.923949 12198 net.cpp:100] Creating Layer conv15_2_mbox_conf_perm
I0620 16:21:29.923986 12198 net.cpp:434] conv15_2_mbox_conf_perm <- conv15_2_mbox_conf
I0620 16:21:29.924008 12198 net.cpp:408] conv15_2_mbox_conf_perm -> conv15_2_mbox_conf_perm
I0620 16:21:29.924108 12198 net.cpp:150] Setting up conv15_2_mbox_conf_perm
I0620 16:21:29.924216 12198 net.cpp:157] Top shape: 24 3 3 18 (3888)
I0620 16:21:29.924247 12198 net.cpp:165] Memory required for data: 3869848800
I0620 16:21:29.924269 12198 layer_factory.hpp:77] Creating layer conv15_2_mbox_conf_flat
I0620 16:21:29.924296 12198 net.cpp:100] Creating Layer conv15_2_mbox_conf_flat
I0620 16:21:29.924326 12198 net.cpp:434] conv15_2_mbox_conf_flat <- conv15_2_mbox_conf_perm
I0620 16:21:29.924345 12198 net.cpp:408] conv15_2_mbox_conf_flat -> conv15_2_mbox_conf_flat
I0620 16:21:29.924376 12198 net.cpp:150] Setting up conv15_2_mbox_conf_flat
I0620 16:21:29.924394 12198 net.cpp:157] Top shape: 24 162 (3888)
I0620 16:21:29.924412 12198 net.cpp:165] Memory required for data: 3869864352
I0620 16:21:29.924430 12198 layer_factory.hpp:77] Creating layer conv15_2_mbox_priorbox
I0620 16:21:29.924453 12198 net.cpp:100] Creating Layer conv15_2_mbox_priorbox
I0620 16:21:29.924471 12198 net.cpp:434] conv15_2_mbox_priorbox <- conv15_2_conv15_2/relu_0_split_3
I0620 16:21:29.924489 12198 net.cpp:434] conv15_2_mbox_priorbox <- data_data_0_split_4
I0620 16:21:29.924507 12198 net.cpp:408] conv15_2_mbox_priorbox -> conv15_2_mbox_priorbox
I0620 16:21:29.924540 12198 net.cpp:150] Setting up conv15_2_mbox_priorbox
I0620 16:21:29.924557 12198 net.cpp:157] Top shape: 1 2 216 (432)
I0620 16:21:29.924576 12198 net.cpp:165] Memory required for data: 3869866080
I0620 16:21:29.924593 12198 layer_factory.hpp:77] Creating layer conv16_2_mbox_loc
I0620 16:21:29.924615 12198 net.cpp:100] Creating Layer conv16_2_mbox_loc
I0620 16:21:29.924633 12198 net.cpp:434] conv16_2_mbox_loc <- conv16_2_conv16_2/relu_0_split_1
I0620 16:21:29.924656 12198 net.cpp:408] conv16_2_mbox_loc -> conv16_2_mbox_loc
I0620 16:21:29.924882 12198 net.cpp:150] Setting up conv16_2_mbox_loc
I0620 16:21:29.924901 12198 net.cpp:157] Top shape: 24 24 2 2 (2304)
I0620 16:21:29.924918 12198 net.cpp:165] Memory required for data: 3869875296
I0620 16:21:29.924937 12198 layer_factory.hpp:77] Creating layer conv16_2_mbox_loc_perm
I0620 16:21:29.924954 12198 net.cpp:100] Creating Layer conv16_2_mbox_loc_perm
I0620 16:21:29.924973 12198 net.cpp:434] conv16_2_mbox_loc_perm <- conv16_2_mbox_loc
I0620 16:21:29.924990 12198 net.cpp:408] conv16_2_mbox_loc_perm -> conv16_2_mbox_loc_perm
I0620 16:21:29.925076 12198 net.cpp:150] Setting up conv16_2_mbox_loc_perm
I0620 16:21:29.925094 12198 net.cpp:157] Top shape: 24 2 2 24 (2304)
I0620 16:21:29.925112 12198 net.cpp:165] Memory required for data: 3869884512
I0620 16:21:29.925160 12198 layer_factory.hpp:77] Creating layer conv16_2_mbox_loc_flat
I0620 16:21:29.925187 12198 net.cpp:100] Creating Layer conv16_2_mbox_loc_flat
I0620 16:21:29.925210 12198 net.cpp:434] conv16_2_mbox_loc_flat <- conv16_2_mbox_loc_perm
I0620 16:21:29.925232 12198 net.cpp:408] conv16_2_mbox_loc_flat -> conv16_2_mbox_loc_flat
I0620 16:21:29.925264 12198 net.cpp:150] Setting up conv16_2_mbox_loc_flat
I0620 16:21:29.925282 12198 net.cpp:157] Top shape: 24 96 (2304)
I0620 16:21:29.925300 12198 net.cpp:165] Memory required for data: 3869893728
I0620 16:21:29.925318 12198 layer_factory.hpp:77] Creating layer conv16_2_mbox_conf_new
I0620 16:21:29.925340 12198 net.cpp:100] Creating Layer conv16_2_mbox_conf_new
I0620 16:21:29.925367 12198 net.cpp:434] conv16_2_mbox_conf_new <- conv16_2_conv16_2/relu_0_split_2
I0620 16:21:29.925406 12198 net.cpp:408] conv16_2_mbox_conf_new -> conv16_2_mbox_conf
I0620 16:21:29.925616 12198 net.cpp:150] Setting up conv16_2_mbox_conf_new
I0620 16:21:29.925634 12198 net.cpp:157] Top shape: 24 18 2 2 (1728)
I0620 16:21:29.925652 12198 net.cpp:165] Memory required for data: 3869900640
I0620 16:21:29.925670 12198 layer_factory.hpp:77] Creating layer conv16_2_mbox_conf_perm
I0620 16:21:29.925688 12198 net.cpp:100] Creating Layer conv16_2_mbox_conf_perm
I0620 16:21:29.925706 12198 net.cpp:434] conv16_2_mbox_conf_perm <- conv16_2_mbox_conf
I0620 16:21:29.925724 12198 net.cpp:408] conv16_2_mbox_conf_perm -> conv16_2_mbox_conf_perm
I0620 16:21:29.925809 12198 net.cpp:150] Setting up conv16_2_mbox_conf_perm
I0620 16:21:29.925827 12198 net.cpp:157] Top shape: 24 2 2 18 (1728)
I0620 16:21:29.925845 12198 net.cpp:165] Memory required for data: 3869907552
I0620 16:21:29.925863 12198 layer_factory.hpp:77] Creating layer conv16_2_mbox_conf_flat
I0620 16:21:29.925886 12198 net.cpp:100] Creating Layer conv16_2_mbox_conf_flat
I0620 16:21:29.925904 12198 net.cpp:434] conv16_2_mbox_conf_flat <- conv16_2_mbox_conf_perm
I0620 16:21:29.925926 12198 net.cpp:408] conv16_2_mbox_conf_flat -> conv16_2_mbox_conf_flat
I0620 16:21:29.925958 12198 net.cpp:150] Setting up conv16_2_mbox_conf_flat
I0620 16:21:29.925976 12198 net.cpp:157] Top shape: 24 72 (1728)
I0620 16:21:29.925994 12198 net.cpp:165] Memory required for data: 3869914464
I0620 16:21:29.926012 12198 layer_factory.hpp:77] Creating layer conv16_2_mbox_priorbox
I0620 16:21:29.926030 12198 net.cpp:100] Creating Layer conv16_2_mbox_priorbox
I0620 16:21:29.926048 12198 net.cpp:434] conv16_2_mbox_priorbox <- conv16_2_conv16_2/relu_0_split_3
I0620 16:21:29.926066 12198 net.cpp:434] conv16_2_mbox_priorbox <- data_data_0_split_5
I0620 16:21:29.926089 12198 net.cpp:408] conv16_2_mbox_priorbox -> conv16_2_mbox_priorbox
I0620 16:21:29.926120 12198 net.cpp:150] Setting up conv16_2_mbox_priorbox
I0620 16:21:29.926138 12198 net.cpp:157] Top shape: 1 2 96 (192)
I0620 16:21:29.926156 12198 net.cpp:165] Memory required for data: 3869915232
I0620 16:21:29.926174 12198 layer_factory.hpp:77] Creating layer conv17_2_mbox_loc
I0620 16:21:29.926198 12198 net.cpp:100] Creating Layer conv17_2_mbox_loc
I0620 16:21:29.926215 12198 net.cpp:434] conv17_2_mbox_loc <- conv17_2_conv17_2/relu_0_split_0
I0620 16:21:29.926234 12198 net.cpp:408] conv17_2_mbox_loc -> conv17_2_mbox_loc
I0620 16:21:29.926435 12198 net.cpp:150] Setting up conv17_2_mbox_loc
I0620 16:21:29.926453 12198 net.cpp:157] Top shape: 24 24 1 1 (576)
I0620 16:21:29.926471 12198 net.cpp:165] Memory required for data: 3869917536
I0620 16:21:29.926489 12198 layer_factory.hpp:77] Creating layer conv17_2_mbox_loc_perm
I0620 16:21:29.926512 12198 net.cpp:100] Creating Layer conv17_2_mbox_loc_perm
I0620 16:21:29.926530 12198 net.cpp:434] conv17_2_mbox_loc_perm <- conv17_2_mbox_loc
I0620 16:21:29.926553 12198 net.cpp:408] conv17_2_mbox_loc_perm -> conv17_2_mbox_loc_perm
I0620 16:21:29.926638 12198 net.cpp:150] Setting up conv17_2_mbox_loc_perm
I0620 16:21:29.926656 12198 net.cpp:157] Top shape: 24 1 1 24 (576)
I0620 16:21:29.926674 12198 net.cpp:165] Memory required for data: 3869919840
I0620 16:21:29.926692 12198 layer_factory.hpp:77] Creating layer conv17_2_mbox_loc_flat
I0620 16:21:29.926710 12198 net.cpp:100] Creating Layer conv17_2_mbox_loc_flat
I0620 16:21:29.926728 12198 net.cpp:434] conv17_2_mbox_loc_flat <- conv17_2_mbox_loc_perm
I0620 16:21:29.926746 12198 net.cpp:408] conv17_2_mbox_loc_flat -> conv17_2_mbox_loc_flat
I0620 16:21:29.926777 12198 net.cpp:150] Setting up conv17_2_mbox_loc_flat
I0620 16:21:29.926795 12198 net.cpp:157] Top shape: 24 24 (576)
I0620 16:21:29.926813 12198 net.cpp:165] Memory required for data: 3869922144
I0620 16:21:29.926831 12198 layer_factory.hpp:77] Creating layer conv17_2_mbox_conf_new
I0620 16:21:29.926854 12198 net.cpp:100] Creating Layer conv17_2_mbox_conf_new
I0620 16:21:29.926872 12198 net.cpp:434] conv17_2_mbox_conf_new <- conv17_2_conv17_2/relu_0_split_1
I0620 16:21:29.926894 12198 net.cpp:408] conv17_2_mbox_conf_new -> conv17_2_mbox_conf
I0620 16:21:29.927093 12198 net.cpp:150] Setting up conv17_2_mbox_conf_new
I0620 16:21:29.927110 12198 net.cpp:157] Top shape: 24 18 1 1 (432)
I0620 16:21:29.927129 12198 net.cpp:165] Memory required for data: 3869923872
I0620 16:21:29.927146 12198 layer_factory.hpp:77] Creating layer conv17_2_mbox_conf_perm
I0620 16:21:29.927170 12198 net.cpp:100] Creating Layer conv17_2_mbox_conf_perm
I0620 16:21:29.927187 12198 net.cpp:434] conv17_2_mbox_conf_perm <- conv17_2_mbox_conf
I0620 16:21:29.927206 12198 net.cpp:408] conv17_2_mbox_conf_perm -> conv17_2_mbox_conf_perm
I0620 16:21:29.927291 12198 net.cpp:150] Setting up conv17_2_mbox_conf_perm
I0620 16:21:29.927309 12198 net.cpp:157] Top shape: 24 1 1 18 (432)
I0620 16:21:29.927327 12198 net.cpp:165] Memory required for data: 3869925600
I0620 16:21:29.927350 12198 layer_factory.hpp:77] Creating layer conv17_2_mbox_conf_flat
I0620 16:21:29.927367 12198 net.cpp:100] Creating Layer conv17_2_mbox_conf_flat
I0620 16:21:29.927390 12198 net.cpp:434] conv17_2_mbox_conf_flat <- conv17_2_mbox_conf_perm
I0620 16:21:29.927408 12198 net.cpp:408] conv17_2_mbox_conf_flat -> conv17_2_mbox_conf_flat
I0620 16:21:29.927470 12198 net.cpp:150] Setting up conv17_2_mbox_conf_flat
I0620 16:21:29.927489 12198 net.cpp:157] Top shape: 24 18 (432)
I0620 16:21:29.927582 12198 net.cpp:165] Memory required for data: 3869927328
I0620 16:21:29.927599 12198 layer_factory.hpp:77] Creating layer conv17_2_mbox_priorbox
I0620 16:21:29.927621 12198 net.cpp:100] Creating Layer conv17_2_mbox_priorbox
I0620 16:21:29.927639 12198 net.cpp:434] conv17_2_mbox_priorbox <- conv17_2_conv17_2/relu_0_split_2
I0620 16:21:29.927657 12198 net.cpp:434] conv17_2_mbox_priorbox <- data_data_0_split_6
I0620 16:21:29.927675 12198 net.cpp:408] conv17_2_mbox_priorbox -> conv17_2_mbox_priorbox
I0620 16:21:29.927708 12198 net.cpp:150] Setting up conv17_2_mbox_priorbox
I0620 16:21:29.927726 12198 net.cpp:157] Top shape: 1 2 24 (48)
I0620 16:21:29.927744 12198 net.cpp:165] Memory required for data: 3869927520
I0620 16:21:29.927762 12198 layer_factory.hpp:77] Creating layer mbox_loc
I0620 16:21:29.927785 12198 net.cpp:100] Creating Layer mbox_loc
I0620 16:21:29.927803 12198 net.cpp:434] mbox_loc <- conv11_mbox_loc_flat
I0620 16:21:29.927821 12198 net.cpp:434] mbox_loc <- conv13_mbox_loc_flat
I0620 16:21:29.927839 12198 net.cpp:434] mbox_loc <- conv14_2_mbox_loc_flat
I0620 16:21:29.927857 12198 net.cpp:434] mbox_loc <- conv15_2_mbox_loc_flat
I0620 16:21:29.927875 12198 net.cpp:434] mbox_loc <- conv16_2_mbox_loc_flat
I0620 16:21:29.927893 12198 net.cpp:434] mbox_loc <- conv17_2_mbox_loc_flat
I0620 16:21:29.927911 12198 net.cpp:408] mbox_loc -> mbox_loc
I0620 16:21:29.927947 12198 net.cpp:150] Setting up mbox_loc
I0620 16:21:29.927965 12198 net.cpp:157] Top shape: 24 7668 (184032)
I0620 16:21:29.927983 12198 net.cpp:165] Memory required for data: 3870663648
I0620 16:21:29.928001 12198 layer_factory.hpp:77] Creating layer mbox_conf
I0620 16:21:29.928020 12198 net.cpp:100] Creating Layer mbox_conf
I0620 16:21:29.928037 12198 net.cpp:434] mbox_conf <- conv11_mbox_conf_flat
I0620 16:21:29.928056 12198 net.cpp:434] mbox_conf <- conv13_mbox_conf_flat
I0620 16:21:29.928073 12198 net.cpp:434] mbox_conf <- conv14_2_mbox_conf_flat
I0620 16:21:29.928092 12198 net.cpp:434] mbox_conf <- conv15_2_mbox_conf_flat
I0620 16:21:29.928109 12198 net.cpp:434] mbox_conf <- conv16_2_mbox_conf_flat
I0620 16:21:29.928216 12198 net.cpp:434] mbox_conf <- conv17_2_mbox_conf_flat
I0620 16:21:29.928234 12198 net.cpp:408] mbox_conf -> mbox_conf
I0620 16:21:29.928267 12198 net.cpp:150] Setting up mbox_conf
I0620 16:21:29.928303 12198 net.cpp:157] Top shape: 24 5751 (138024)
I0620 16:21:29.928324 12198 net.cpp:165] Memory required for data: 3871215744
I0620 16:21:29.928351 12198 layer_factory.hpp:77] Creating layer mbox_priorbox
I0620 16:21:29.928383 12198 net.cpp:100] Creating Layer mbox_priorbox
I0620 16:21:29.928417 12198 net.cpp:434] mbox_priorbox <- conv11_mbox_priorbox
I0620 16:21:29.928436 12198 net.cpp:434] mbox_priorbox <- conv13_mbox_priorbox
I0620 16:21:29.928453 12198 net.cpp:434] mbox_priorbox <- conv14_2_mbox_priorbox
I0620 16:21:29.928472 12198 net.cpp:434] mbox_priorbox <- conv15_2_mbox_priorbox
I0620 16:21:29.928489 12198 net.cpp:434] mbox_priorbox <- conv16_2_mbox_priorbox
I0620 16:21:29.928508 12198 net.cpp:434] mbox_priorbox <- conv17_2_mbox_priorbox
I0620 16:21:29.928525 12198 net.cpp:408] mbox_priorbox -> mbox_priorbox
I0620 16:21:29.928556 12198 net.cpp:150] Setting up mbox_priorbox
I0620 16:21:29.928575 12198 net.cpp:157] Top shape: 1 2 7668 (15336)
I0620 16:21:29.928592 12198 net.cpp:165] Memory required for data: 3871277088
I0620 16:21:29.928611 12198 layer_factory.hpp:77] Creating layer mbox_loss
I0620 16:21:29.928633 12198 net.cpp:100] Creating Layer mbox_loss
I0620 16:21:29.928652 12198 net.cpp:434] mbox_loss <- mbox_loc
I0620 16:21:29.928673 12198 net.cpp:434] mbox_loss <- mbox_conf
I0620 16:21:29.928691 12198 net.cpp:434] mbox_loss <- mbox_priorbox
…
name: "MobileNet-SSD"
state {
  phase: TEST
}
layer {
  name: "data"
  type: "AnnotatedData"
  top: "data"
  top: "label"
  include {
    phase: TEST
  }
  transform_param {
    scale: 0.007843
    mean_value: 127.5
    mean_value: 127.5
    mean_value: 127.5
    resize_param {
      prob: 1
      resize_mode: WARP
      height: 300
      width: 300
      interp_mode: LINEAR
    }
  }
  data_param {
    source: "test_lmdb"
    batch_size: 8
    backend: LMDB
  }
  annotated_data_param {
    batch_sampler {
    }
    label_map_file: "labelmap.prototxt"
  }
}
layer {
  name: "conv0"
  type: "Convolution"
  bottom: "data"
  top: "conv0"
  param {
    lr_mult: 1
    decay_mult: 1
  }
  convolution_param {
    num_output: 32
    bias_term: false
    pad: 1
    kernel_size: 3
    stride: 2
    weight_filler {
      type: "msra"
    }
  }
}
layer {
  name: "conv0/bn"
  type: "BatchNorm"
  bottom: "conv0"
  top: "conv0"
}
layer {
  name: "conv0/scale"
  type: "Scale"
  bottom: "conv0"
  top: "conv0"
  param {
    lr_mult: 1
    decay_mult: 0
  }
  param {
    lr_mult: 2
    decay_mult: 0
  }
  scale_param {
    filler {
      value: 1
    }
    bias_term: true
    bias_filler {
      value: 0
    }
  }
}
layer {
  name: "conv0/relu"
  type: "ReLU"
  bottom: "conv0"
  top: "conv0"
}
layer {
  name: "conv1/dw"
  type: "Convolution"
  bottom: "conv0"
  top: "conv1/dw"
  param {
    lr_mult: 1
    decay_mult: 1
  }
  convolution_param {
    num_output: 32
    bias_term: false
    pad: 1
    kernel_size: 3
    group: 32
    weight_filler {
      type: "msra"
    }
    engine: CAFFE
  }
}
layer {
  name: "conv1/dw/bn"
  type: "BatchNorm"
  bottom: "conv1/dw"
  top: "conv1/dw"
}
layer {
  name: "conv1/dw/scale"
  type: "Scale"
  bottom: "conv1/dw"
  top: "conv1/dw"
  param {
    lr_mult: 1
    decay_mult: 0
  }
  param {
    lr_mult: 2
    decay_mult: 0
  }
  scale_param {
    filler {
      value: 1
    }
    bias_term: true
    bias_filler {
      value: 0
    }
  }
}
layer {
  name: "conv1/dw/relu"
  type: "ReLU"
  bottom: "conv1/dw"
  top: "conv1/dw"
}
layer {
  name: "conv1"
  type: "Convolution"
  bottom: "conv1/dw"
  top: "conv1"
  param {
    lr_mult: 1
    decay_mult: 1
  }
  convolution_param {
    num_output: 64
    bias_term: false
    kernel_size: 1
    weight_filler {
      type: "msra"
    }
  }
}
layer {
  name: "conv1/bn"
  type: "BatchNorm"
  bottom: "conv1"
  top: "conv1"
}
layer {
  name: "conv1/scale"
  type: "Scale"
  bottom: "conv1"
  top: "conv1"
  param {
    lr_mult: 1
    decay_mult: 0
  }
  param {
    lr_mult: 2
    decay_mult: 0
  }
  scale_param {
    filler {
      value: 1
    }
    bias_term: true
    bias_filler {
      value: 0
    }
  }
}
layer {
  name: "conv1/relu"
  type: "ReLU"
  bottom: "conv1"
  top: "conv1"
}
layer {
  name: "conv2/dw"
  type: "Convolution"
  bottom: "conv1"
  top: "conv2/dw"
  param {
    lr_mult: 1
    decay_mult: 1
  }
  convolution_param {
    num_output: 64
    bias_term: false
    pad: 1
    kernel_size: 3
    group: 64
    stride: 2
    weight_filler {
      type: "msra"
    }
    engine: CAFFE
  }
}
layer {
  name: "conv2/dw/bn"
  type: "BatchNorm"
  bottom: "conv2/dw"
  top: "conv2/dw"
}
layer {
  name: "conv2/dw/scale"
  type: "Scale"
  bottom: "conv2/dw"
  top: "conv2/dw"
  param {
    lr_mult: 1
    decay_mult: 0
  }
  param {
    lr_mult: 2
    decay_mult: 0
  }
  scale_param {
    filler {
      value: 1
    }
    bias_term: true
    bias_filler {
      value: 0
    }
  }
}
layer {
  name: "conv2/dw/relu"
  type: "ReLU"
  bottom: "conv2/dw"
  top: "conv2/dw"
}
layer {
  name: "conv2"
  type: "Convolution"
  bottom: "conv2/dw"
  top: "conv2"
  param {
    lr_mult: 1
    decay_mult: 1
  }
  convolution_param {
    num_output: 128
    bias_term: false
    kernel_size: 1
    weight_filler {
      type: "msra"
    }
  }
}
layer {
  name: "conv2/bn"
  type: "BatchNorm"
  bottom: "conv2"
  top: "conv2"
}
layer {
  name: "conv2/scale"
  type: "Scale"
  bottom: "conv2"
  top: "conv2"
  param {
    lr_mult: 1
    decay_mult: 0
  }
  param {
    lr_mult: 2
    decay_mult: 0
  }
  scale_param {
    filler {
      value: 1
    }
    bias_term: true
    bias_filler {
      value: 0
    }
  }
}
layer {
  name: "conv2/relu"
  type: "ReLU"
  bottom: "conv2"
  top: "conv2"
}
layer {
  name: "conv3/dw"
  type: "Convolution"
  bottom: "conv2"
  top: "conv3/dw"
  param {
    lr_mult: 1
    decay_mult: 1
  }
  convolution_param {
    num_output: 128
    bias_term: false
    pad: 1
    kernel_size: 3
    group: 128
    weight_filler {
      type: "msra"
    }
    engine: CAFFE
  }
}
layer {
  name: "conv3/dw/bn"
  type: "BatchNorm"
  bottom: "conv3/dw"
  top: "conv3/dw"
}
layer {
  name: "conv3/dw/scale"
  type: "Scale"
  bottom: "conv3/dw"
  top: "conv3/dw"
  param {
    lr_mult: 1
    decay_mult: 0
  }
  param {
    lr_mult: 2
    decay_mult: 0
  }
  scale_param {
    filler {
      value: 1
    }
    bias_term: true
    bias_filler {
      value: 0
    }
  }
}
layer {
  name: "conv3/dw/relu"
  type: "ReLU"
  bottom: "conv3/dw"
  top: "conv3/dw"
}
layer {
  name: "conv3"
  type: "Convolution"
  bottom: "conv3/dw"
  top: "conv3"
  param {
    lr_mult: 1
    decay_mult: 1
  }
  convolution_param {
    num_output: 128
    bias_term: false
    kernel_size: 1
    weight_filler {
      type: "msra"
    }
  }
}
layer {
  name: "conv3/bn"
  type: "BatchNorm"
  bottom: "conv3"
  top: "conv3"
}
layer {
  name: "conv3/scale"
  type: "Scale"
  bottom: "conv3"
  top: "conv3"
  param {
    lr_mult: 1
    decay_mult: 0
  }
  param {
    lr_mult: 2
    decay_mult: 0
  }
  scale_param {
    filler {
      value: 1
    }
    bias_term: true
    bias_filler {
      value: 0
    }
  }
}
layer {
  name: "conv3/relu"
  type: "ReLU"
  bottom: "conv3"
  top: "conv3"
}
layer {
  name: "conv4/dw"
  type: "Convolution"
  bottom: "conv3"
  top: "conv4/dw"
  param {
    lr_mult: 1
    decay_mult: 1
  }
  convolution_param {
    num_output: 128
    bias_term: false
    pad: 1
    kernel_size: 3
    group: 128
    stride: 2
    weight_filler {
      type: "msra"
    }
    engine: CAFFE
  }
}
layer {
  name: "conv4/dw/bn"
  type: "BatchNorm"
  bottom: "conv4/dw"
  top: "conv4/dw"
}
layer {
  name: "conv4/dw/scale"
  type: "Scale"
  bottom: "conv4/dw"
  top: "conv4/dw"
  param {
    lr_mult: 1
    decay_mult: 0
  }
  param {
    lr_mult: 2
    decay_mult: 0
  }
  scale_param {
    filler {
      value: 1
    }
    bias_term: true
    bias_filler {
      value: 0
    }
  }
}
layer {
  name: "conv4/dw/relu"
  type: "ReLU"
  bottom: "conv4/dw"
  top: "conv4/dw"
}
layer {
  name: "conv4"
  type: "Convolution"
  bottom: "conv4/dw"
  top: "conv4"
  param {
    lr_mult: 1
    decay_mult: 1
  }
  convolution_param {
    num_output: 256
    bias_term: false
    kernel_size: 1
    weight_filler {
      type: "msra"
    }
  }
}
layer {
  name: "conv4/bn"
  type: "BatchNorm"
  bottom: "conv4"
  top: "conv4"
}
layer {
  name: "conv4/scale"
  type: "Scale"
  bottom: "conv4"
  top: "conv4"
  param {
    lr_mult: 1
    decay_mult: 0
  }
  param {
    lr_mult: 2
    decay_mult: 0
  }
  scale_param {
    filler {
      value: 1
    }
    bias_term: true
    bias_filler {
      value: 0
    }
  }
}
layer {
  name: "conv4/relu"
  type: "ReLU"
  bottom: "conv4"
  top: "conv4"
}
layer {
  name: "conv5/dw"
  type: "Convolution"
  bottom: "conv4"
  top: "conv5/dw"
  param {
    lr_mult: 1
    decay_mult: 1
  }
  convolution_param {
    num_output: 256
    bias_term: false
    pad: 1
    kernel_size: 3
    group: 256
    weight_filler {
      type: "msra"
    }
    engine: CAFFE
  }
}
layer {
  name: "conv5/dw/bn"
  type: "BatchNorm"
  bottom: "conv5/dw"
  top: "conv5/dw"
}
layer {
  name: "conv5/dw/scale"
  type: "Scale"
  bottom: "conv5/dw"
  top: "conv5/dw"
  param {
    lr_mult: 1
    decay_mult: 0
  }
  param {
    lr_mult: 2
    decay_mult: 0
  }
  scale_param {
    filler {
      value: 1
    }
    bias_term: true
    bias_filler {
      value: 0
    }
  }
}
layer {
  name: "conv5/dw/relu"
  type: "ReLU"
  bottom: "conv5/dw"
  top: "conv5/dw"
}
layer {
  name: "conv5"
  type: "Convolution"
  bottom: "conv5/dw"
  top: "conv5"
  param {
    lr_mult: 1
    decay_mult: 1
  }
  convolution_param {
    num_output: 256
    bias_term: false
    kernel_size: 1
    weight_filler {
      type: "msra"
    }
  }
}
layer {
  name: "conv5/bn"
  type: "BatchNorm"
  bottom: "conv5"
  top: "conv5"
}
layer {
  name: "conv5/scale"
  type: "Scale"
  bottom: "conv5"
  top: "conv5"
  param {
    lr_mult: 1
    decay_mult: 0
  }
  param {
    lr_mult: 2
    decay_mult: 0
  }
  scale_param {
    filler {
      value: 1
    }
    bias_term: true
    bias_filler {
      value: 0
    }
  }
}
layer {
  name: "conv5/relu"
  type: "ReLU"
  bottom: "conv5"
  top: "conv5"
}
layer {
  name: "conv6/dw"
  type: "Convolution"
  bottom: "conv5"
  top: "conv6/dw"
  param {
    lr_mult: 1
    decay_mult: 1
  }
  convolution_param {
    num_output: 256
    bias_term: false
    pad: 1
    kernel_size: 3
    group: 256
    stride: 2
    weight_filler {
      type: "msra"
    }
    engine: CAFFE
  }
}
layer {
  name: "conv6/dw/bn"
  type: "BatchNorm"
  bottom: "conv6/dw"
  top: "conv6/dw"
}
layer {
  name: "conv6/dw/scale"
  type: "Scale"
  bottom: "conv6/dw"
  top: "conv6/dw"
  param {
    lr_mult: 1
    decay_mult: 0
  }
  param {
    lr_mult: 2
    decay_mult: 0
  }
  scale_param {
    filler {
      value: 1
    }
    bias_term: true
    bias_filler {
      value: 0
    }
  }
}
layer {
  name: "conv6/dw/relu"
  type: "ReLU"
  bottom: "conv6/dw"
  top: "conv6/dw"
}
layer {
  name: "conv6"
  type: "Convolution"
  bottom: "conv6/dw"
  top: "conv6"
  param {
    lr_mult: 1
    decay_mult: 1
  }
  convolution_param {
    num_output: 512
    bias_term: false
    kernel_size: 1
    weight_filler {
      type: "msra"
    }
  }
}
layer {
  name: "conv6/bn"
  type: "BatchNorm"
  bottom: "conv6"
  top: "conv6"
}
layer {
  name: "conv6/scale"
  type: "Scale"
  bottom: "conv6"
  top: "conv6"
  param {
    lr_mult: 1
    decay_mult: 0
  }
  param {
    lr_mult: 2
    decay_mult: 0
  }
  scale_param {
    filler {
      value: 1
    }
    bias_term: true
    bias_filler {
      value: 0
    }
  }
}
layer {
  name: "conv6/relu"
  type: "ReLU"
  bottom: "conv6"
  top: "conv6"
}
layer {
  name: "conv7/dw"
  type: "Convolution"
  bottom: "conv6"
  top: "conv7/dw"
  param {
    lr_mult: 1
    decay_mult: 1
  }
  convolution_param {
    num_output: 512
    bias_term: false
    pad: 1
    kernel_size: 3
    group: 512
    weight_filler {
      type: "msra"
    }
    engine: CAFFE
  }
}
layer {
  name: "conv7/dw/bn"
  type: "BatchNorm"
  bottom: "conv7/dw"
  top: "conv7/dw"
}
layer {
  name: "conv7/dw/scale"
  type: "Scale"
  bottom: "conv7/dw"
  top: "conv7/dw"
  param {
    lr_mult: 1
    decay_mult: 0
  }
  param {
    lr_mult: 2
    decay_mult: 0
  }
  scale_param {
    filler {
      value: 1
    }
    bias_term: true
    bias_filler {
      value: 0
    }
  }
}
layer {
  name: "conv7/dw/relu"
  type: "ReLU"
  bottom: "conv7/dw"
  top: "conv7/dw"
}
layer {
  name: "conv7"
  type: "Convolution"
  bottom: "conv7/dw"
  top: "conv7"
  param {
    lr_mult: 1
    decay_mult: 1
  }
  convolution_param {
    num_output: 512
    bias_term: false
    kernel_size: 1
    weight_filler {
      type: "msra"
    }
  }
}
layer {
  name: "conv7/bn"
  type: "BatchNorm"
  bottom: "conv7"
  top: "conv7"
}
layer {
  name: "conv7/scale"
  type: "Scale"
  bottom: "conv7"
  top: "conv7"
  param {
    lr_mult: 1
    decay_mult: 0
  }
  param {
    lr_mult: 2
    decay_mult: 0
  }
  scale_param {
    filler {
      value: 1
    }
    bias_term: true
    bias_filler {
      value: 0
    }
  }
}
layer {
  name: "conv7/relu"
  type: "ReLU"
  bottom: "conv7"
  top: "conv7"
}
layer {
  name: "conv8/dw"
  type: "Convolution"
  bottom: "conv7"
  top: "conv8/dw"
  param {
    lr_mult: 1
    decay_mult: 1
  }
  convolution_param {
    num_output: 512
    bias_term: false
    pad: 1
    kernel_size: 3
    group: 512
    weight_filler {
      type: "msra"
    }
    engine: CAFFE
  }
}
layer {
  name: "conv8/dw/bn"
  type: "BatchNorm"
  bottom: "conv8/dw"
  top: "conv8/dw"
}
layer {
  name: "conv8/dw/scale"
  type: "Scale"
  bottom: "conv8/dw"
  top: "conv8/dw"
  param {
    lr_mult: 1
    decay_mult: 0
  }
  param {
    lr_mult: 2
    decay_mult: 0
  }
  scale_param {
    filler {
      value: 1
    }
    bias_term: true
    bias_filler {
      value: 0
    }
  }
}
layer {
  name: "conv8/dw/relu"
  type: "ReLU"
  bottom: "conv8/dw"
  top: "conv8/dw"
}
layer {
  name: "conv8"
  type: "Convolution"
  bottom: "conv8/dw"
  top: "conv8"
  param {
    lr_mult: 1
    decay_mult: 1
  }
  convolution_param {
    num_output: 512
    bias_term: false
    kernel_size: 1
    weight_filler {
      type: "msra"
    }
  }
}
layer {
  name: "conv8/bn"
  type: "BatchNorm"
  bottom: "conv8"
  top: "conv8"
}
layer {
  name: "conv8/scale"
  type: "Scale"
  bottom: "conv8"
  top: "conv8"
  param {
    lr_mult: 1
    decay_mult: 0
  }
  param {
    lr_mult: 2
    decay_mult: 0
  }
  scale_param {
    filler {
      value: 1
    }
    bias_term: true
    bias_filler {
      value: 0
    }
  }
}
layer {
  name: "conv8/relu"
  type: "ReLU"
  bottom: "conv8"
  top: "conv8"
}
layer {
  name: "conv9/dw"
  type: "Convolution"
  bottom: "conv8"
  top: "conv9/dw"
  param {
    lr_mult: 1
    decay_mult: 1
  }
  convolution_param {
    num_output: 512
    bias_term: false
    pad: 1
    kernel_size: 3
    group: 512
    weight_filler {
      type: "msra"
    }
    engine: CAFFE
  }
}
layer {
  name: "conv9/dw/bn"
  type: "BatchNorm"
  bottom: "conv9/dw"
  top: "conv9/dw"
}
layer {
  name: "conv9/dw/scale"
  type: "Scale"
  bottom: "conv9/dw"
  top: "conv9/dw"
  param {
    lr_mult: 1
    decay_mult: 0
  }
  param {
    lr_mult: 2
    decay_mult: 0
  }
  scale_param {
    filler {
      value: 1
    }
    bias_term: true
    bias_filler {
      value: 0
    }
  }
}
layer {
  name: "conv9/dw/relu"
  type: "ReLU"
  bottom: "conv9/dw"
…
I0620 16:21:30.016515 12198 layer_factory.hpp:77] Creating layer conv14_1/scale
I0620 16:21:30.016530 12198 net.cpp:100] Creating Layer conv14_1/scale
I0620 16:21:30.016542 12198 net.cpp:434] conv14_1/scale <- conv14_1
I0620 16:21:30.016554 12198 net.cpp:395] conv14_1/scale -> conv14_1 (in-place)
I0620 16:21:30.016598 12198 layer_factory.hpp:77] Creating layer conv14_1/scale
I0620 16:21:30.016695 12198 net.cpp:150] Setting up conv14_1/scale
I0620 16:21:30.016708 12198 net.cpp:157] Top shape: 8 256 10 10 (204800)
I0620 16:21:30.016718 12198 net.cpp:165] Memory required for data: 1283100768
I0620 16:21:30.016729 12198 layer_factory.hpp:77] Creating layer conv14_1/relu
I0620 16:21:30.016741 12198 net.cpp:100] Creating Layer conv14_1/relu
I0620 16:21:30.016752 12198 net.cpp:434] conv14_1/relu <- conv14_1
I0620 16:21:30.016764 12198 net.cpp:395] conv14_1/relu -> conv14_1 (in-place)
I0620 16:21:30.016777 12198 net.cpp:150] Setting up conv14_1/relu
I0620 16:21:30.016788 12198 net.cpp:157] Top shape: 8 256 10 10 (204800)
I0620 16:21:30.016798 12198 net.cpp:165] Memory required for data: 1283919968
I0620 16:21:30.016806 12198 layer_factory.hpp:77] Creating layer conv14_2
I0620 16:21:30.016822 12198 net.cpp:100] Creating Layer conv14_2
I0620 16:21:30.016832 12198 net.cpp:434] conv14_2 <- conv14_1
I0620 16:21:30.016844 12198 net.cpp:408] conv14_2 -> conv14_2
I0620 16:21:30.027297 12198 net.cpp:150] Setting up conv14_2
I0620 16:21:30.027333 12198 net.cpp:157] Top shape: 8 512 5 5 (102400)
I0620 16:21:30.027343 12198 net.cpp:165] Memory required for data: 1284329568
I0620 16:21:30.027356 12198 layer_factory.hpp:77] Creating layer conv14_2/bn
I0620 16:21:30.027371 12198 net.cpp:100] Creating Layer conv14_2/bn
I0620 16:21:30.027384 12198 net.cpp:434] conv14_2/bn <- conv14_2
I0620 16:21:30.027395 12198 net.cpp:395] conv14_2/bn -> conv14_2 (in-place)
I0620 16:21:30.027582 12198 net.cpp:150] Setting up conv14_2/bn
I0620 16:21:30.027596 12198 net.cpp:157] Top shape: 8 512 5 5 (102400)
I0620 16:21:30.027606 12198 net.cpp:165] Memory required for data: 1284739168
I0620 16:21:30.027618 12198 layer_factory.hpp:77] Creating layer conv14_2/scale
I0620 16:21:30.027632 12198 net.cpp:100] Creating Layer conv14_2/scale
I0620 16:21:30.027642 12198 net.cpp:434] conv14_2/scale <- conv14_2
I0620 16:21:30.027654 12198 net.cpp:395] conv14_2/scale -> conv14_2 (in-place)
I0620 16:21:30.027704 12198 layer_factory.hpp:77] Creating layer conv14_2/scale
I0620 16:21:30.027807 12198 net.cpp:150] Setting up conv14_2/scale
I0620 16:21:30.027829 12198 net.cpp:157] Top shape: 8 512 5 5 (102400)
I0620 16:21:30.027839 12198 net.cpp:165] Memory required for data: 1285148768
I0620 16:21:30.027850 12198 layer_factory.hpp:77] Creating layer conv14_2/relu
I0620 16:21:30.027863 12198 net.cpp:100] Creating Layer conv14_2/relu
I0620 16:21:30.027873 12198 net.cpp:434] conv14_2/relu <- conv14_2
I0620 16:21:30.027884 12198 net.cpp:395] conv14_2/relu -> conv14_2 (in-place)
I0620 16:21:30.027897 12198 net.cpp:150] Setting up conv14_2/relu
I0620 16:21:30.027909 12198 net.cpp:157] Top shape: 8 512 5 5 (102400)
I0620 16:21:30.027918 12198 net.cpp:165] Memory required for data: 1285558368
I0620 16:21:30.027927 12198 layer_factory.hpp:77] Creating layer conv14_2_conv14_2/relu_0_split
I0620 16:21:30.027940 12198 net.cpp:100] Creating Layer conv14_2_conv14_2/relu_0_split
I0620 16:21:30.027950 12198 net.cpp:434] conv14_2_conv14_2/relu_0_split <- conv14_2
I0620 16:21:30.027967 12198 net.cpp:408] conv14_2_conv14_2/relu_0_split -> conv14_2_conv14_2/relu_0_split_0
I0620 16:21:30.027982 12198 net.cpp:408] conv14_2_conv14_2/relu_0_split -> conv14_2_conv14_2/relu_0_split_1
I0620 16:21:30.027994 12198 net.cpp:408] conv14_2_conv14_2/relu_0_split -> conv14_2_conv14_2/relu_0_split_2
I0620 16:21:30.028007 12198 net.cpp:408] conv14_2_conv14_2/relu_0_split -> conv14_2_conv14_2/relu_0_split_3
I0620 16:21:30.028064 12198 net.cpp:150] Setting up conv14_2_conv14_2/relu_0_split
I0620 16:21:30.028075 12198 net.cpp:157] Top shape: 8 512 5 5 (102400)
I0620 16:21:30.028086 12198 net.cpp:157] Top shape: 8 512 5 5 (102400)
I0620 16:21:30.028096 12198 net.cpp:157] Top shape: 8 512 5 5 (102400)
I0620 16:21:30.028107 12198 net.cpp:157] Top shape: 8 512 5 5 (102400)
I0620 16:21:30.028117 12198 net.cpp:165] Memory required for data: 1287196768
I0620 16:21:30.028223 12198 layer_factory.hpp:77] Creating layer conv15_1
I0620 16:21:30.028255 12198 net.cpp:100] Creating Layer conv15_1
I0620 16:21:30.028273 12198 net.cpp:434] conv15_1 <- conv14_2_conv14_2/relu_0_split_0
I0620 16:21:30.028291 12198 net.cpp:408] conv15_1 -> conv15_1
I0620 16:21:30.028949 12198 net.cpp:150] Setting up conv15_1
I0620 16:21:30.028964 12198 net.cpp:157] Top shape: 8 128 5 5 (25600)
I0620 16:21:30.028973 12198 net.cpp:165] Memory required for data: 1287299168
I0620 16:21:30.028985 12198 layer_factory.hpp:77] Creating layer conv15_1/bn
I0620 16:21:30.028997 12198 net.cpp:100] Creating Layer conv15_1/bn
I0620 16:21:30.029007 12198 net.cpp:434] conv15_1/bn <- conv15_1
I0620 16:21:30.029018 12198 net.cpp:395] conv15_1/bn -> conv15_1 (in-place)
I0620 16:21:30.029172 12198 net.cpp:150] Setting up conv15_1/bn
I0620 16:21:30.029186 12198 net.cpp:157] Top shape: 8 128 5 5 (25600)
I0620 16:21:30.029194 12198 net.cpp:165] Memory required for data: 1287401568
I0620 16:21:30.029207 12198 layer_factory.hpp:77] Creating layer conv15_1/scale
I0620 16:21:30.029220 12198 net.cpp:100] Creating Layer conv15_1/scale
I0620 16:21:30.029230 12198 net.cpp:434] conv15_1/scale <- conv15_1
I0620 16:21:30.029242 12198 net.cpp:395] conv15_1/scale -> conv15_1 (in-place)
I0620 16:21:30.029279 12198 layer_factory.hpp:77] Creating layer conv15_1/scale
I0620 16:21:30.029373 12198 net.cpp:150] Setting up conv15_1/scale
I0620 16:21:30.029386 12198 net.cpp:157] Top shape: 8 128 5 5 (25600)
I0620 16:21:30.029397 12198 net.cpp:165] Memory required for data: 1287503968
I0620 16:21:30.029407 12198 layer_factory.hpp:77] Creating layer conv15_1/relu
I0620 16:21:30.029420 12198 net.cpp:100] Creating Layer conv15_1/relu
I0620 16:21:30.029430 12198 net.cpp:434] conv15_1/relu <- conv15_1
I0620 16:21:30.029443 12198 net.cpp:395] conv15_1/relu -> conv15_1 (in-place)
I0620 16:21:30.029453 12198 net.cpp:150] Setting up conv15_1/relu
I0620 16:21:30.029464 12198 net.cpp:157] Top shape: 8 128 5 5 (25600)
I0620 16:21:30.029474 12198 net.cpp:165] Memory required for data: 1287606368
I0620 16:21:30.029484 12198 layer_factory.hpp:77] Creating layer conv15_2
I0620 16:21:30.029501 12198 net.cpp:100] Creating Layer conv15_2
I0620 16:21:30.029512 12198 net.cpp:434] conv15_2 <- conv15_1
I0620 16:21:30.029531 12198 net.cpp:408] conv15_2 -> conv15_2
I0620 16:21:30.032645 12198 net.cpp:150] Setting up conv15_2
I0620 16:21:30.032670 12198 net.cpp:157] Top shape: 8 256 3 3 (18432)
I0620 16:21:30.032680 12198 net.cpp:165] Memory required for data: 1287680096
I0620 16:21:30.032691 12198 layer_factory.hpp:77] Creating layer conv15_2/bn
I0620 16:21:30.032704 12198 net.cpp:100] Creating Layer conv15_2/bn
I0620 16:21:30.032714 12198 net.cpp:434] conv15_2/bn <- conv15_2
I0620 16:21:30.032728 12198 net.cpp:395] conv15_2/bn -> conv15_2 (in-place)
I0620 16:21:30.032905 12198 net.cpp:150] Setting up conv15_2/bn
I0620 16:21:30.032918 12198 net.cpp:157] Top shape: 8 256 3 3 (18432)
I0620 16:21:30.032928 12198 net.cpp:165] Memory required for data: 1287753824
I0620 16:21:30.032941 12198 layer_factory.hpp:77] Creating layer conv15_2/scale
I0620 16:21:30.032954 12198 net.cpp:100] Creating Layer conv15_2/scale
I0620 16:21:30.032964 12198 net.cpp:434] conv15_2/scale <- conv15_2
I0620 16:21:30.032977 12198 net.cpp:395] conv15_2/scale -> conv15_2 (in-place)
I0620 16:21:30.033017 12198 layer_factory.hpp:77] Creating layer conv15_2/scale
I0620 16:21:30.033113 12198 net.cpp:150] Setting up conv15_2/scale
I0620 16:21:30.033126 12198 net.cpp:157] Top shape: 8 256 3 3 (18432)
I0620 16:21:30.033136 12198 net.cpp:165] Memory required for data: 1287827552
I0620 16:21:30.033149 12198 layer_factory.hpp:77] Creating layer conv15_2/relu
I0620 16:21:30.033170 12198 net.cpp:100] Creating Layer conv15_2/relu
I0620 16:21:30.033181 12198 net.cpp:434] conv15_2/relu <- conv15_2
I0620 16:21:30.033192 12198 net.cpp:395] conv15_2/relu -> conv15_2 (in-place)
I0620 16:21:30.033207 12198 net.cpp:150] Setting up conv15_2/relu
I0620 16:21:30.033218 12198 net.cpp:157] Top shape: 8 256 3 3 (18432)
I0620 16:21:30.033227 12198 net.cpp:165] Memory required for data: 1287901280
I0620 16:21:30.033237 12198 layer_factory.hpp:77] Creating layer conv15_2_conv15_2/relu_0_split
I0620 16:21:30.033249 12198 net.cpp:100] Creating Layer conv15_2_conv15_2/relu_0_split
I0620 16:21:30.033259 12198 net.cpp:434] conv15_2_conv15_2/relu_0_split <- conv15_2
I0620 16:21:30.033272 12198 net.cpp:408] conv15_2_conv15_2/relu_0_split -> conv15_2_conv15_2/relu_0_split_0
I0620 16:21:30.033284 12198 net.cpp:408] conv15_2_conv15_2/relu_0_split -> conv15_2_conv15_2/relu_0_split_1
I0620 16:21:30.033298 12198 net.cpp:408] conv15_2_conv15_2/relu_0_split -> conv15_2_conv15_2/relu_0_split_2
I0620 16:21:30.033310 12198 net.cpp:408] conv15_2_conv15_2/relu_0_split -> conv15_2_conv15_2/relu_0_split_3
I0620 16:21:30.033391 12198 net.cpp:150] Setting up conv15_2_conv15_2/relu_0_split
I0620 16:21:30.033411 12198 net.cpp:157] Top shape: 8 256 3 3 (18432)
I0620 16:21:30.033423 12198 net.cpp:157] Top shape: 8 256 3 3 (18432)
I0620 16:21:30.033442 12198 net.cpp:157] Top shape: 8 256 3 3 (18432)
I0620 16:21:30.033457 12198 net.cpp:157] Top shape: 8 256 3 3 (18432)
I0620 16:21:30.033468 12198 net.cpp:165] Memory required for data: 1288196192
I0620 16:21:30.033480 12198 layer_factory.hpp:77] Creating layer conv16_1
I0620 16:21:30.033504 12198 net.cpp:100] Creating Layer conv16_1
I0620 16:21:30.033521 12198 net.cpp:434] conv16_1 <- conv15_2_conv15_2/relu_0_split_0
I0620 16:21:30.033540 12198 net.cpp:408] conv16_1 -> conv16_1
I0620 16:21:30.033960 12198 net.cpp:150] Setting up conv16_1
I0620 16:21:30.033973 12198 net.cpp:157] Top shape: 8 128 3 3 (9216)
I0620 16:21:30.033983 12198 net.cpp:165] Memory required for data: 1288233056
I0620 16:21:30.033994 12198 layer_factory.hpp:77] Creating layer conv16_1/bn
I0620 16:21:30.034006 12198 net.cpp:100] Creating Layer conv16_1/bn
I0620 16:21:30.034016 12198 net.cpp:434] conv16_1/bn <- conv16_1
I0620 16:21:30.034029 12198 net.cpp:395] conv16_1/bn -> conv16_1 (in-place)
I0620 16:21:30.034189 12198 net.cpp:150] Setting up conv16_1/bn
I0620 16:21:30.034207 12198 net.cpp:157] Top shape: 8 128 3 3 (9216)
I0620 16:21:30.034230 12198 net.cpp:165] Memory required for data: 1288269920
I0620 16:21:30.034258 12198 layer_factory.hpp:77] Creating layer conv16_1/scale
I0620 16:21:30.034313 12198 net.cpp:100] Creating Layer conv16_1/scale
I0620 16:21:30.034327 12198 net.cpp:434] conv16_1/scale <- conv16_1
I0620 16:21:30.034344 12198 net.cpp:395] conv16_1/scale -> conv16_1 (in-place)
I0620 16:21:30.034397 12198 layer_factory.hpp:77] Creating layer conv16_1/scale
I0620 16:21:30.034492 12198 net.cpp:150] Setting up conv16_1/scale
I0620 16:21:30.034504 12198 net.cpp:157] Top shape: 8 128 3 3 (9216)
I0620 16:21:30.034514 12198 net.cpp:165] Memory required for data: 1288306784
I0620 16:21:30.034525 12198 layer_factory.hpp:77] Creating layer conv16_1/relu
I0620 16:21:30.034538 12198 net.cpp:100] Creating Layer conv16_1/relu
I0620 16:21:30.034548 12198 net.cpp:434] conv16_1/relu <- conv16_1
I0620 16:21:30.034559 12198 net.cpp:395] conv16_1/relu -> conv16_1 (in-place)
I0620 16:21:30.034571 12198 net.cpp:150] Setting up conv16_1/relu
I0620 16:21:30.034581 12198 net.cpp:157] Top shape: 8 128 3 3 (9216)
I0620 16:21:30.034591 12198 net.cpp:165] Memory required for data: 1288343648
I0620 16:21:30.034601 12198 layer_factory.hpp:77] Creating layer conv16_2
I0620 16:21:30.034615 12198 net.cpp:100] Creating Layer conv16_2
I0620 16:21:30.034626 12198 net.cpp:434] conv16_2 <- conv16_1
I0620 16:21:30.034637 12198 net.cpp:408] conv16_2 -> conv16_2
I0620 16:21:30.037884 12198 net.cpp:150] Setting up conv16_2
I0620 16:21:30.037912 12198 net.cpp:157] Top shape: 8 256 2 2 (8192)
I0620 16:21:30.037923 12198 net.cpp:165] Memory required for data: 1288376416
I0620 16:21:30.037936 12198 layer_factory.hpp:77] Creating layer conv16_2/bn
I0620 16:21:30.037950 12198 net.cpp:100] Creating Layer conv16_2/bn
I0620 16:21:30.037962 12198 net.cpp:434] conv16_2/bn <- conv16_2
I0620 16:21:30.037974 12198 net.cpp:395] conv16_2/bn -> conv16_2 (in-place)
I0620 16:21:30.038147 12198 net.cpp:150] Setting up conv16_2/bn
I0620 16:21:30.038161 12198 net.cpp:157] Top shape: 8 256 2 2 (8192)
I0620 16:21:30.038172 12198 net.cpp:165] Memory required for data: 1288409184
I0620 16:21:30.038184 12198 layer_factory.hpp:77] Creating layer conv16_2/scale
I0620 16:21:30.038199 12198 net.cpp:100] Creating Layer conv16_2/scale
I0620 16:21:30.038218 12198 net.cpp:434] conv16_2/scale <- conv16_2
I0620 16:21:30.038235 12198 net.cpp:395] conv16_2/scale -> conv16_2 (in-place)
I0620 16:21:30.038287 12198 layer_factory.hpp:77] Creating layer conv16_2/scale
I0620 16:21:30.038393 12198 net.cpp:150] Setting up conv16_2/scale
I0620 16:21:30.038411 12198 net.cpp:157] Top shape: 8 256 2 2 (8192)
I0620 16:21:30.038429 12198 net.cpp:165] Memory required for data: 1288441952
I0620 16:21:30.038447 12198 layer_factory.hpp:77] Creating layer conv16_2/relu
I0620 16:21:30.038470 12198 net.cpp:100] Creating Layer conv16_2/relu
I0620 16:21:30.038487 12198 net.cpp:434] conv16_2/relu <- conv16_2
I0620 16:21:30.038506 12198 net.cpp:395] conv16_2/relu -> conv16_2 (in-place)
I0620 16:21:30.038523 12198 net.cpp:150] Setting up conv16_2/relu
I0620 16:21:30.038539 12198 net.cpp:157] Top shape: 8 256 2 2 (8192)
I0620 16:21:30.038558 12198 net.cpp:165] Memory required for data: 1288474720
I0620 16:21:30.038571 12198 layer_factory.hpp:77] Creating layer conv16_2_conv16_2/relu_0_split
I0620 16:21:30.038583 12198 net.cpp:100] Creating Layer conv16_2_conv16_2/relu_0_split
I0620 16:21:30.038594 12198 net.cpp:434] conv16_2_conv16_2/relu_0_split <- conv16_2
I0620 16:21:30.038605 12198 net.cpp:408] conv16_2_conv16_2/relu_0_split -> conv16_2_conv16_2/relu_0_split_0
I0620 16:21:30.038619 12198 net.cpp:408] conv16_2_conv16_2/relu_0_split -> conv16_2_conv16_2/relu_0_split_1
I0620 16:21:30.038632 12198 net.cpp:408] conv16_2_conv16_2/relu_0_split -> conv16_2_conv16_2/relu_0_split_2
I0620 16:21:30.038645 12198 net.cpp:408] conv16_2_conv16_2/relu_0_split -> conv16_2_conv16_2/relu_0_split_3
I0620 16:21:30.038700 12198 net.cpp:150] Setting up conv16_2_conv16_2/relu_0_split
I0620 16:21:30.038712 12198 net.cpp:157] Top shape: 8 256 2 2 (8192)
I0620 16:21:30.038728 12198 net.cpp:157] Top shape: 8 256 2 2 (8192)
I0620 16:21:30.038739 12198 net.cpp:157] Top shape: 8 256 2 2 (8192)
I0620 16:21:30.038758 12198 net.cpp:157] Top shape: 8 256 2 2 (8192)
I0620 16:21:30.038769 12198 net.cpp:165] Memory required for data: 1288605792
I0620 16:21:30.038779 12198 layer_factory.hpp:77] Creating layer conv17_1
I0620 16:21:30.038791 12198 net.cpp:100] Creating Layer conv17_1
I0620 16:21:30.038802 12198 net.cpp:434] conv17_1 <- conv16_2_conv16_2/relu_0_split_0
I0620 16:21:30.038815 12198 net.cpp:408] conv17_1 -> conv17_1
I0620 16:21:30.039106 12198 net.cpp:150] Setting up conv17_1
I0620 16:21:30.039119 12198 net.cpp:157] Top shape: 8 64 2 2 (2048)
I0620 16:21:30.039129 12198 net.cpp:165] Memory required for data: 1288613984
I0620 16:21:30.039147 12198 layer_factory.hpp:77] Creating layer conv17_1/bn
I0620 16:21:30.039165 12198 net.cpp:100] Creating Layer conv17_1/bn
I0620 16:21:30.039183 12198 net.cpp:434] conv17_1/bn <- conv17_1
I0620 16:21:30.039201 12198 net.cpp:395] conv17_1/bn -> conv17_1 (in-place)
I0620 16:21:30.039394 12198 net.cpp:150] Setting up conv17_1/bn
I0620 16:21:30.039412 12198 net.cpp:157] Top shape: 8 64 2 2 (2048)
I0620 16:21:30.039448 12198 net.cpp:165] Memory required for data: 1288622176
I0620 16:21:30.039487 12198 layer_factory.hpp:77] Creating layer conv17_1/scale
I0620 16:21:30.039520 12198 net.cpp:100] Creating Layer conv17_1/scale
I0620 16:21:30.039537 12198 net.cpp:434] conv17_1/scale <- conv17_1
I0620 16:21:30.039600 12198 net.cpp:395] conv17_1/scale -> conv17_1 (in-place)
I0620 16:21:30.039722 12198 layer_factory.hpp:77] Creating layer conv17_1/scale
I0620 16:21:30.040005 12198 net.cpp:150] Setting up conv17_1/scale
I0620 16:21:30.040024 12198 net.cpp:157] Top shape: 8 64 2 2 (2048)
I0620 16:21:30.040035 12198 net.cpp:165] Memory required for data: 1288630368
I0620 16:21:30.040047 12198 layer_factory.hpp:77] Creating layer conv17_1/relu
I0620 16:21:30.040060 12198 net.cpp:100] Creating Layer conv17_1/relu
I0620 16:21:30.040069 12198 net.cpp:434] conv17_1/relu <- conv17_1
I0620 16:21:30.040110 12198 net.cpp:395] conv17_1/relu -> conv17_1 (in-place)
I0620 16:21:30.040349 12198 net.cpp:150] Setting up conv17_1/relu
I0620 16:21:30.040416 12198 net.cpp:157] Top shape: 8 64 2 2 (2048)
I0620 16:21:30.040465 12198 net.cpp:165] Memory required for data: 1288638560
I0620 16:21:30.040542 12198 layer_factory.hpp:77] Creating layer conv17_2
I0620 16:21:30.040623 12198 net.cpp:100] Creating Layer conv17_2
I0620 16:21:30.040704 12198 net.cpp:434] conv17_2 <- conv17_1
I0620 16:21:30.040794 12198 net.cpp:408] conv17_2 -> conv17_2
I0620 16:21:30.041841 12198 net.cpp:150] Setting up conv17_2
I0620 16:21:30.041882 12198 net.cpp:157] Top shape: 8 128 1 1 (1024)
I0620 16:21:30.041957 12198 net.cpp:165] Memory required for data: 1288642656
I0620 16:21:30.042007 12198 layer_factory.hpp:77] Creating layer conv17_2/bn
I0620 16:21:30.042057 12198 net.cpp:100] Creating Layer conv17_2/bn
I0620 16:21:30.042151 12198 net.cpp:434] conv17_2/bn <- conv17_2
I0620 16:21:30.042199 12198 net.cpp:395] conv17_2/bn -> conv17_2 (in-place)
I0620 16:21:30.042369 12198 net.cpp:150] Setting up conv17_2/bn
I0620 16:21:30.042382 12198 net.cpp:157] Top shape: 8 128 1 1 (1024)
I0620 16:21:30.042392 12198 net.cpp:165] Memory required for data: 1288646752
I0620 16:21:30.042405 12198 layer_factory.hpp:77] Creating layer conv17_2/scale
I0620 16:21:30.042418 12198 net.cpp:100] Creating Layer conv17_2/scale
I0620 16:21:30.042428 12198 net.cpp:434] conv17_2/scale <- conv17_2
I0620 16:21:30.042439 12198 net.cpp:395] conv17_2/scale -> conv17_2 (in-place)
I0620 16:21:30.042482 12198 layer_factory.hpp:77] Creating layer conv17_2/scale
I0620 16:21:30.042604 12198 net.cpp:150] Setting up conv17_2/scale
I0620 16:21:30.042631 12198 net.cpp:157] Top shape: 8 128 1 1 (1024)
I0620 16:21:30.042650 12198 net.cpp:165] Memory required for data: 1288650848
I0620 16:21:30.042667 12198 layer_factory.hpp:77] Creating layer conv17_2/relu
I0620 16:21:30.042690 12198 net.cpp:100] Creating Layer conv17_2/relu
I0620 16:21:30.042706 12198 net.cpp:434] conv17_2/relu <- conv17_2
I0620 16:21:30.042726 12198 net.cpp:395] conv17_2/relu -> conv17_2 (in-place)
I0620 16:21:30.042747 12198 net.cpp:150] Setting up conv17_2/relu
I0620 16:21:30.042765 12198 net.cpp:157] Top shape: 8 128 1 1 (1024)
I0620 16:21:30.042783 12198 net.cpp:165] Memory required for data: 1288654944
I0620 16:21:30.042801 12198 layer_factory.hpp:77] Creating layer conv17_2_conv17_2/relu_0_split
I0620 16:21:30.042820 12198 net.cpp:100] Creating Layer conv17_2_conv17_2/relu_0_split
I0620 16:21:30.042835 12198 net.cpp:434] conv17_2_conv17_2/relu_0_split <- conv17_2
I0620 16:21:30.042871 12198 net.cpp:408] conv17_2_conv17_2/relu_0_split -> conv17_2_conv17_2/relu_0_split_0
I0620 16:21:30.042925 12198 net.cpp:408] conv17_2_conv17_2/relu_0_split -> conv17_2_conv17_2/relu_0_split_1
I0620 16:21:30.042953 12198 net.cpp:408] conv17_2_conv17_2/relu_0_split -> conv17_2_conv17_2/relu_0_split_2
I0620 16:21:30.043020 12198 net.cpp:150] Setting up conv17_2_conv17_2/relu_0_split
I0620 16:21:30.043042 12198 net.cpp:157] Top shape: 8 128 1 1 (1024)
I0620 16:21:30.043069 12198 net.cpp:157] Top shape: 8 128 1 1 (1024)
I0620 16:21:30.043097 12198 net.cpp:157] Top shape: 8 128 1 1 (1024)
I0620 16:21:30.043128 12198 net.cpp:165] Memory required for data: 1288667232
I0620 16:21:30.043150 12198 layer_factory.hpp:77] Creating layer conv11_mbox_loc
I0620 16:21:30.043182 12198 net.cpp:100] Creating Layer conv11_mbox_loc
I0620 16:21:30.043210 12198 net.cpp:434] conv11_mbox_loc <- conv11_conv11/relu_0_split_1
I0620 16:21:30.043246 12198 net.cpp:408] conv11_mbox_loc -> conv11_mbox_loc
I0620 16:21:30.043521 12198 net.cpp:150] Setting up conv11_mbox_loc
I0620 16:21:30.043543 12198 net.cpp:157] Top shape: 8 12 19 19 (34656)
I0620 16:21:30.043561 12198 net.cpp:165] Memory required for data: 1288805856
I0620 16:21:30.043579 12198 layer_factory.hpp:77] Creating layer conv11_mbox_loc_perm
I0620 16:21:30.043597 12198 net.cpp:100] Creating Layer conv11_mbox_loc_perm
I0620 16:21:30.043612 12198 net.cpp:434] conv11_mbox_loc_perm <- conv11_mbox_loc
I0620 16:21:30.043623 12198 net.cpp:408] conv11_mbox_loc_perm -> conv11_mbox_loc_perm
I0620 16:21:30.043804 12198 net.cpp:150] Setting up conv11_mbox_loc_perm
I0620 16:21:30.043859 12198 net.cpp:157] Top shape: 8 19 19 12 (34656)
I0620 16:21:30.043880 12198 net.cpp:165] Memory required for data: 1288944480
I0620 16:21:30.043934 12198 layer_factory.hpp:77] Creating layer conv11_mbox_loc_flat
I0620 16:21:30.043975 12198 net.cpp:100] Creating Layer conv11_mbox_loc_flat
I0620 16:21:30.044056 12198 net.cpp:434] conv11_mbox_loc_flat <- conv11_mbox_loc_perm
I0620 16:21:30.044119 12198 net.cpp:408] conv11_mbox_loc_flat -> conv11_mbox_loc_flat
I0620 16:21:30.044236 12198 net.cpp:150] Setting up conv11_mbox_loc_flat
I0620 16:21:30.044258 12198 net.cpp:157] Top shape: 8 4332 (34656)
I0620 16:21:30.044276 12198 net.cpp:165] Memory required for data: 1289083104
I0620 16:21:30.044294 12198 layer_factory.hpp:77] Creating layer conv11_mbox_conf_new
I0620 16:21:30.044322 12198 net.cpp:100] Creating Layer conv11_mbox_conf_new
I0620 16:21:30.044335 12198 net.cpp:434] conv11_mbox_conf_new <- conv11_conv11/relu_0_split_2
I0620 16:21:30.044368 12198 net.cpp:408] conv11_mbox_conf_new -> conv11_mbox_conf
I0620 16:21:30.045037 12198 net.cpp:150] Setting up conv11_mbox_conf_new
I0620 16:21:30.045064 12198 net.cpp:157] Top shape: 8 9 19 19 (25992)
I0620 16:21:30.045083 12198 net.cpp:165] Memory required for data: 1289187072
I0620 16:21:30.045109 12198 layer_factory.hpp:77] Creating layer conv11_mbox_conf_perm
I0620 16:21:30.045141 12198 net.cpp:100] Creating Layer conv11_mbox_conf_perm
I0620 16:21:30.045163 12198 net.cpp:434] conv11_mbox_conf_perm <- conv11_mbox_conf
I0620 16:21:30.045191 12198 net.cpp:408] conv11_mbox_conf_perm -> conv11_mbox_conf_perm
I0620 16:21:30.045295 12198 net.cpp:150] Setting up conv11_mbox_conf_perm
I0620 16:21:30.045339 12198 net.cpp:157] Top shape: 8 19 19 9 (25992)
I0620 16:21:30.045375 12198 net.cpp:165] Memory required for data: 1289291040
I0620 16:21:30.045406 12198 layer_factory.hpp:77] Creating layer conv11_mbox_conf_flat
I0620 16:21:30.045433 12198 net.cpp:100] Creating Layer conv11_mbox_conf_flat
I0620 16:21:30.045471 12198 net.cpp:434] conv11_mbox_conf_flat <- conv11_mbox_conf_perm
I0620 16:21:30.045507 12198 net.cpp:408] conv11_mbox_conf_flat -> conv11_mbox_conf_flat
I0620 16:21:30.045548 12198 net.cpp:150] Setting up conv11_mbox_conf_flat
I0620 16:21:30.045567 12198 net.cpp:157] Top shape: 8 3249 (25992)
I0620 16:21:30.045593 12198 net.cpp:165] Memory required for data: 1289395008
I0620 16:21:30.045639 12198 layer_factory.hpp:77] Creating layer conv11_mbox_priorbox
I0620 16:21:30.045675 12198 net.cpp:100] Creating Layer conv11_mbox_priorbox
I0620 16:21:30.045692 12198 net.cpp:434] conv11_mbox_priorbox <- conv11_conv11/relu_0_split_3
I0620 16:21:30.045728 12198 net.cpp:434] conv11_mbox_priorbox <- data_data_0_split_1
I0620 16:21:30.045755 12198 net.cpp:408] conv11_mbox_priorbox -> conv11_mbox_priorbox
I0620 16:21:30.045809 12198 net.cpp:150] Setting up conv11_mbox_priorbox
I0620 16:21:30.045832 12198 net.cpp:157] Top shape: 1 2 4332 (8664)
I0620 16:21:30.045850 12198 net.cpp:165] Memory required for data: 1289429664
I0620 16:21:30.045891 12198 layer_factory.hpp:77] Creating layer conv13_mbox_loc
I0620 16:21:30.045917 12198 net.cpp:100] Creating Layer conv13_mbox_loc
I0620 16:21:30.045944 12198 net.cpp:434] conv13_mbox_loc <- conv13_conv13/relu_0_split_1
I0620 16:21:30.045967 12198 net.cpp:408] conv13_mbox_loc -> conv13_mbox_loc
I0620 16:21:30.046396 12198 net.cpp:150] Setting up conv13_mbox_loc
I0620 16:21:30.046411 12198 net.cpp:157] Top shape: 8 24 10 10 (19200)
I0620 16:21:30.046420 12198 net.cpp:165] Memory required for data: 1289506464
I0620 16:21:30.046437 12198 layer_factory.hpp:77] Creating layer conv13_mbox_loc_perm
I0620 16:21:30.046454 12198 net.cpp:100] Creating Layer conv13_mbox_loc_perm
I0620 16:21:30.046473 12198 net.cpp:434] conv13_mbox_loc_perm <- conv13_mbox_loc
I0620 16:21:30.046490 12198 net.cpp:408] conv13_mbox_loc_perm -> conv13_mbox_loc_perm
I0620 16:21:30.046586 12198 net.cpp:150] Setting up conv13_mbox_loc_perm
I0620 16:21:30.046604 12198 net.cpp:157] Top shape: 8 10 10 24 (19200)
I0620 16:21:30.046622 12198 net.cpp:165] Memory required for data: 1289583264
I0620 16:21:30.046636 12198 layer_factory.hpp:77] Creating layer conv13_mbox_loc_flat
I0620 16:21:30.046654 12198 net.cpp:100] Creating Layer conv13_mbox_loc_flat
I0620 16:21:30.046669 12198 net.cpp:434] conv13_mbox_loc_flat <- conv13_mbox_loc_perm
I0620 16:21:30.046687 12198 net.cpp:408] conv13_mbox_loc_flat -> conv13_mbox_loc_flat
I0620 16:21:30.046718 12198 net.cpp:150] Setting up conv13_mbox_loc_flat
I0620 16:21:30.046736 12198 net.cpp:157] Top shape: 8 2400 (19200)
I0620 16:21:30.046751 12198 net.cpp:165] Memory required for data: 1289660064
I0620 16:21:30.046769 12198 layer_factory.hpp:77] Creating layer conv13_mbox_conf_new
I0620 16:21:30.046800 12198 net.cpp:100] Creating Layer conv13_mbox_conf_new
I0620 16:21:30.046823 12198 net.cpp:434] conv13_mbox_conf_new <- conv13_conv13/relu_0_split_2
I0620 16:21:30.046850 12198 net.cpp:408] conv13_mbox_conf_new -> conv13_mbox_conf
I0620 16:21:30.047358 12198 net.cpp:150] Setting up conv13_mbox_conf_new
I0620 16:21:30.047372 12198 net.cpp:157] Top shape: 8 18 10 10 (14400)
I0620 16:21:30.047382 12198 net.cpp:165] Memory required for data: 1289717664
I0620 16:21:30.047394 12198 layer_factory.hpp:77] Creating layer conv13_mbox_conf_perm
I0620 16:21:30.047407 12198 net.cpp:100] Creating Layer conv13_mbox_conf_perm
I0620 16:21:30.047418 12198 net.cpp:434] conv13_mbox_conf_perm <- conv13_mbox_conf
I0620 16:21:30.047430 12198 net.cpp:408] conv13_mbox_conf_perm -> conv13_mbox_conf_perm
I0620 16:21:30.047521 12198 net.cpp:150] Setting up conv13_mbox_conf_perm
I0620 16:21:30.047533 12198 net.cpp:157] Top shape: 8 10 10 18 (14400)
I0620 16:21:30.047544 12198 net.cpp:165] Memory required for data: 1289775264
I0620 16:21:30.047554 12198 layer_factory.hpp:77] Creating layer conv13_mbox_conf_flat
I0620 16:21:30.047565 12198 net.cpp:100] Creating Layer conv13_mbox_conf_flat
I0620 16:21:30.047580 12198 net.cpp:434] conv13_mbox_conf_flat <- conv13_mbox_conf_perm
I0620 16:21:30.047592 12198 net.cpp:408] conv13_mbox_conf_flat -> conv13_mbox_conf_flat
I0620 16:21:30.047652 12198 net.cpp:150] Setting up conv13_mbox_conf_flat
I0620 16:21:30.047669 12198 net.cpp:157] Top shape: 8 1800 (14400)
I0620 16:21:30.047683 12198 net.cpp:165] Memory required for data: 1289832864
I0620 16:21:30.047693 12198 layer_factory.hpp:77] Creating layer conv13_mbox_priorbox
I0620 16:21:30.047719 12198 net.cpp:100] Creating Layer conv13_mbox_priorbox
I0620 16:21:30.047729 12198 net.cpp:434] conv13_mbox_priorbox <- conv13_conv13/relu_0_split_3
I0620 16:21:30.047741 12198 net.cpp:434] conv13_mbox_priorbox <- data_data_0_split_2
I0620 16:21:30.047754 12198 net.cpp:408] conv13_mbox_priorbox -> conv13_mbox_priorbox
I0620 16:21:30.047782 12198 net.cpp:150] Setting up conv13_mbox_priorbox
I0620 16:21:30.047794 12198 net.cpp:157] Top shape: 1 2 2400 (4800)
I0620 16:21:30.047804 12198 net.cpp:165] Memory required for data: 1289852064
I0620 16:21:30.047813 12198 layer_factory.hpp:77] Creating layer conv14_2_mbox_loc
I0620 16:21:30.047828 12198 net.cpp:100] Creating Layer conv14_2_mbox_loc
I0620 16:21:30.047838 12198 net.cpp:434] conv14_2_mbox_loc <- conv14_2_conv14_2/relu_0_split_1
I0620 16:21:30.047852 12198 net.cpp:408] conv14_2_mbox_loc -> conv14_2_mbox_loc
I0620 16:21:30.048225 12198 net.cpp:150] Setting up conv14_2_mbox_loc
I0620 16:21:30.048257 12198 net.cpp:157] Top shape: 8 24 5 5 (4800)
I0620 16:21:30.048288 12198 net.cpp:165] Memory required for data: 1289871264
I0620 16:21:30.048311 12198 layer_factory.hpp:77] Creating layer conv14_2_mbox_loc_perm
I0620 16:21:30.048333 12198 net.cpp:100] Creating Layer conv14_2_mbox_loc_perm
I0620 16:21:30.048352 12198 net.cpp:434] conv14_2_mbox_loc_perm <- conv14_2_mbox_loc
I0620 16:21:30.048369 12198 net.cpp:408] conv14_2_mbox_loc_perm -> conv14_2_mbox_loc_perm
I0620 16:21:30.048478 12198 net.cpp:150] Setting up conv14_2_mbox_loc_perm
I0620 16:21:30.048491 12198 net.cpp:157] Top shape: 8 5 5 24 (4800)
I0620 16:21:30.048501 12198 net.cpp:165] Memory required for data: 1289890464
I0620 16:21:30.048511 12198 layer_factory.hpp:77] Creating layer conv14_2_mbox_loc_flat
I0620 16:21:30.048521 12198 net.cpp:100] Creating Layer conv14_2_mbox_loc_flat
I0620 16:21:30.048532 12198 net.cpp:434] conv14_2_mbox_loc_flat <- conv14_2_mbox_loc_perm
I0620 16:21:30.048544 12198 net.cpp:408] conv14_2_mbox_loc_flat -> conv14_2_mbox_loc_flat
I0620 16:21:30.048569 12198 net.cpp:150] Setting up conv14_2_mbox_loc_flat
I0620 16:21:30.048581 12198 net.cpp:157] Top shape: 8 600 (4800)
I0620 16:21:30.048591 12198 net.cpp:165] Memory required for data: 1289909664
I0620 16:21:30.048600 12198 layer_factory.hpp:77] Creating layer conv14_2_mbox_conf_new
I0620 16:21:30.048616 12198 net.cpp:100] Creating Layer conv14_2_mbox_conf_new
I0620 16:21:30.048626 12198 net.cpp:434] conv14_2_mbox_conf_new <- conv14_2_conv14_2/relu_0_split_2
I0620 16:21:30.048640 12198 net.cpp:408] conv14_2_mbox_conf_new -> conv14_2_mbox_conf
I0620 16:21:30.048904 12198 net.cpp:150] Setting up conv14_2_mbox_conf_new
I0620 16:21:30.048918 12198 net.cpp:157] Top shape: 8 18 5 5 (3600)
I0620 16:21:30.048928 12198 net.cpp:165] Memory required for data: 1289924064
I0620 16:21:30.048939 12198 layer_factory.hpp:77] Creating layer conv14_2_mbox_conf_perm
I0620 16:21:30.048950 12198 net.cpp:100] Creating Layer conv14_2_mbox_conf_perm
I0620 16:21:30.048961 12198 net.cpp:434] conv14_2_mbox_conf_perm <- conv14_2_mbox_conf
I0620 16:21:30.048974 12198 net.cpp:408] conv14_2_mbox_conf_perm -> conv14_2_mbox_conf_perm
I0620 16:21:30.049070 12198 net.cpp:150] Setting up conv14_2_mbox_conf_perm
I0620 16:21:30.049082 12198 net.cpp:157] Top shape: 8 5 5 18 (3600)
I0620 16:21:30.049093 12198 net.cpp:165] Memory required for data: 1289938464
I0620 16:21:30.049103 12198 layer_factory.hpp:77] Creating layer conv14_2_mbox_conf_flat
I0620 16:21:30.049115 12198 net.cpp:100] Creating Layer conv14_2_mbox_conf_flat
I0620 16:21:30.049125 12198 net.cpp:434] conv14_2_mbox_conf_flat <- conv14_2_mbox_conf_perm
I0620 16:21:30.049140 12198 net.cpp:408] conv14_2_mbox_conf_flat -> conv14_2_mbox_conf_flat
I0620 16:21:30.049166 12198 net.cpp:150] Setting up conv14_2_mbox_conf_flat
I0620 16:21:30.049183 12198 net.cpp:157] Top shape: 8 450 (3600)
I0620 16:21:30.049193 12198 net.cpp:165] Memory required for data: 1289952864
I0620 16:21:30.049203 12198 layer_factory.hpp:77] Creating layer conv14_2_mbox_priorbox
I0620 16:21:30.049216 12198 net.cpp:100] Creating Layer conv14_2_mbox_priorbox
I0620 16:21:30.049226 12198 net.cpp:434] conv14_2_mbox_priorbox <- conv14_2_conv14_2/relu_0_split_3
I0620 16:21:30.049237 12198 net.cpp:434] conv14_2_mbox_priorbox <- data_data_0_split_3
I0620 16:21:30.049252 12198 net.cpp:408] conv14_2_mbox_priorbox -> conv14_2_mbox_priorbox
I0620 16:21:30.049278 12198 net.cpp:150] Setting up conv14_2_mbox_priorbox
I0620 16:21:30.049290 12198 net.cpp:157] Top shape: 1 2 600 (1200)
I0620 16:21:30.049299 12198 net.cpp:165] Memory required for data: 1289957664
I0620 16:21:30.049309 12198 layer_factory.hpp:77] Creating layer conv15_2_mbox_loc
I0620 16:21:30.049326 12198 net.cpp:100] Creating Layer conv15_2_mbox_loc
I0620 16:21:30.049337 12198 net.cpp:434] conv15_2_mbox_loc <- conv15_2_conv15_2/relu_0_split_1
I0620 16:21:30.049350 12198 net.cpp:408] conv15_2_mbox_loc -> conv15_2_mbox_loc
I0620 16:21:30.049587 12198 net.cpp:150] Setting up conv15_2_mbox_loc
I0620 16:21:30.049602 12198 net.cpp:157] Top shape: 8 24 3 3 (1728)
I0620 16:21:30.049612 12198 net.cpp:165] Memory required for data: 1289964576
I0620 16:21:30.049623 12198 layer_factory.hpp:77] Creating layer conv15_2_mbox_loc_perm
I0620 16:21:30.049635 12198 net.cpp:100] Creating Layer conv15_2_mbox_loc_perm
I0620 16:21:30.049645 12198 net.cpp:434] conv15_2_mbox_loc_perm <- conv15_2_mbox_loc
I0620 16:21:30.049657 12198 net.cpp:408] conv15_2_mbox_loc_perm -> conv15_2_mbox_loc_perm
I0620 16:21:30.049748 12198 net.cpp:150] Setting up conv15_2_mbox_loc_perm
I0620 16:21:30.049760 12198 net.cpp:157] Top shape: 8 3 3 24 (1728)
I0620 16:21:30.049769 12198 net.cpp:165] Memory required for data: 1289971488
I0620 16:21:30.049779 12198 layer_factory.hpp:77] Creating layer conv15_2_mbox_loc_flat
I0620 16:21:30.049793 12198 net.cpp:100] Creating Layer conv15_2_mbox_loc_flat
I0620 16:21:30.049803 12198 net.cpp:434] conv15_2_mbox_loc_flat <- conv15_2_mbox_loc_perm
I0620 16:21:30.049813 12198 net.cpp:408] conv15_2_mbox_loc_flat -> conv15_2_mbox_loc_flat
I0620 16:21:30.049840 12198 net.cpp:150] Setting up conv15_2_mbox_loc_flat
I0620 16:21:30.049852 12198 net.cpp:157] Top shape: 8 216 (1728)
I0620 16:21:30.049861 12198 net.cpp:165] Memory required for data: 1289978400
I0620 16:21:30.049871 12198 layer_factory.hpp:77] Creating layer conv15_2_mbox_conf_new
I0620 16:21:30.049887 12198 net.cpp:100] Creating Layer conv15_2_mbox_conf_new
I0620 16:21:30.049897 12198 net.cpp:434] conv15_2_mbox_conf_new <- conv15_2_conv15_2/relu_0_split_2
I0620 16:21:30.049911 12198 net.cpp:408] conv15_2_mbox_conf_new -> conv15_2_mbox_conf
I0620 16:21:30.051542 12198 net.cpp:150] Setting up conv15_2_mbox_conf_new
I0620 16:21:30.051563 12198 net.cpp:157] Top shape: 8 18 3 3 (1296)
I0620 16:21:30.051573 12198 net.cpp:165] Memory required for data: 1289983584
I0620 16:21:30.051586 12198 layer_factory.hpp:77] Creating layer conv15_2_mbox_conf_perm
I0620 16:21:30.051600 12198 net.cpp:100] Creating Layer conv15_2_mbox_conf_perm
I0620 16:21:30.051611 12198 net.cpp:434] conv15_2_mbox_conf_perm <- conv15_2_mbox_conf
I0620 16:21:30.051623 12198 net.cpp:408] conv15_2_mbox_conf_perm -> conv15_2_mbox_conf_perm
I0620 16:21:30.051717 12198 net.cpp:150] Setting up conv15_2_mbox_conf_perm
I0620 16:21:30.051729 12198 net.cpp:157] Top shape: 8 3 3 18 (1296)
I0620 16:21:30.051739 12198 net.cpp:165] Memory required for data: 1289988768
I0620 16:21:30.051749 12198 layer_factory.hpp:77] Creating layer conv15_2_mbox_conf_flat
I0620 16:21:30.051767 12198 net.cpp:100] Creating Layer conv15_2_mbox_conf_flat
I0620 16:21:30.051785 12198 net.cpp:434] conv15_2_mbox_conf_flat <- conv15_2_mbox_conf_perm
I0620 16:21:30.051803 12198 net.cpp:408] conv15_2_mbox_conf_flat -> conv15_2_mbox_conf_flat
I0620 16:21:30.051841 12198 net.cpp:150] Setting up conv15_2_mbox_conf_flat
I0620 16:21:30.051857 12198 net.cpp:157] Top shape: 8 162 (1296)
I0620 16:21:30.051867 12198 net.cpp:165] Memory required for data: 1289993952
I0620 16:21:30.051877 12198 layer_factory.hpp:77] Creating layer conv15_2_mbox_priorbox
I0620 16:21:30.051888 12198 net.cpp:100] Creating Layer conv15_2_mbox_priorbox
I0620 16:21:30.051899 12198 net.cpp:434] conv15_2_mbox_priorbox <- conv15_2_conv15_2/relu_0_split_3
I0620 16:21:30.051910 12198 net.cpp:434] conv15_2_mbox_priorbox <- data_data_0_split_4
I0620 16:21:30.051924 12198 net.cpp:408] conv15_2_mbox_priorbox -> conv15_2_mbox_priorbox
I0620 16:21:30.051954 12198 net.cpp:150] Setting up conv15_2_mbox_priorbox
I0620 16:21:30.051965 12198 net.cpp:157] Top shape: 1 2 216 (432)
I0620 16:21:30.051975 12198 net.cpp:165] Memory required for data: 1289995680
I0620 16:21:30.051985 12198 layer_factory.hpp:77] Creating layer conv16_2_mbox_loc
I0620 16:21:30.052000 12198 net.cpp:100] Creating Layer conv16_2_mbox_loc
I0620 16:21:30.052011 12198 net.cpp:434] conv16_2_mbox_loc <- conv16_2_conv16_2/relu_0_split_1
I0620 16:21:30.052024 12198 net.cpp:408] conv16_2_mbox_loc -> conv16_2_mbox_loc
I0620 16:21:30.052413 12198 net.cpp:150] Setting up conv16_2_mbox_loc
I0620 16:21:30.052428 12198 net.cpp:157] Top shape: 8 24 2 2 (768)
I0620 16:21:30.052438 12198 net.cpp:165] Memory required for data: 1289998752
I0620 16:21:30.052449 12198 layer_factory.hpp:77] Creating layer conv16_2_mbox_loc_perm
I0620 16:21:30.052461 12198 net.cpp:100] Creating Layer conv16_2_mbox_loc_perm
I0620 16:21:30.052471 12198 net.cpp:434] conv16_2_mbox_loc_perm <- conv16_2_mbox_loc
I0620 16:21:30.052484 12198 net.cpp:408] conv16_2_mbox_loc_perm -> conv16_2_mbox_loc_perm
I0620 16:21:30.052578 12198 net.cpp:150] Setting up conv16_2_mbox_loc_perm
I0620 16:21:30.052597 12198 net.cpp:157] Top shape: 8 2 2 24 (768)
I0620 16:21:30.052614 12198 net.cpp:165] Memory required for data: 1290001824
I0620 16:21:30.052633 12198 layer_factory.hpp:77] Creating layer conv16_2_mbox_loc_flat
I0620 16:21:30.052647 12198 net.cpp:100] Creating Layer conv16_2_mbox_loc_flat
I0620 16:21:30.052657 12198 net.cpp:434] conv16_2_mbox_loc_flat <- conv16_2_mbox_loc_perm
I0620 16:21:30.052670 12198 net.cpp:408] conv16_2_mbox_loc_flat -> conv16_2_mbox_loc_flat
I0620 16:21:30.052702 12198 net.cpp:150] Setting up conv16_2_mbox_loc_flat
I0620 16:21:30.052721 12198 net.cpp:157] Top shape: 8 96 (768)
I0620 16:21:30.052738 12198 net.cpp:165] Memory required for data: 1290004896
I0620 16:21:30.052757 12198 layer_factory.hpp:77] Creating layer conv16_2_mbox_conf_new
I0620 16:21:30.052778 12198 net.cpp:100] Creating Layer conv16_2_mbox_conf_new
I0620 16:21:30.052796 12198 net.cpp:434] conv16_2_mbox_conf_new <- conv16_2_conv16_2/relu_0_split_2
I0620 16:21:30.052814 12198 net.cpp:408] conv16_2_mbox_conf_new -> conv16_2_mbox_conf
I0620 16:21:30.053050 12198 net.cpp:150] Setting up conv16_2_mbox_conf_new
I0620 16:21:30.053063 12198 net.cpp:157] Top shape: 8 18 2 2 (576)
I0620 16:21:30.053072 12198 net.cpp:165] Memory required for data: 1290007200
I0620 16:21:30.053084 12198 layer_factory.hpp:77] Creating layer conv16_2_mbox_conf_perm
I0620 16:21:30.053097 12198 net.cpp:100] Creating Layer conv16_2_mbox_conf_perm
I0620 16:21:30.053108 12198 net.cpp:434] conv16_2_mbox_conf_perm <- conv16_2_mbox_conf
I0620 16:21:30.053122 12198 net.cpp:408] conv16_2_mbox_conf_perm -> conv16_2_mbox_conf_perm
I0620 16:21:30.053220 12198 net.cpp:150] Setting up conv16_2_mbox_conf_perm
I0620 16:21:30.053244 12198 net.cpp:157] Top shape: 8 2 2 18 (576)
I0620 16:21:30.053259 12198 net.cpp:165] Memory required for data: 1290009504
I0620 16:21:30.053272 12198 layer_factory.hpp:77] Creating layer conv16_2_mbox_conf_flat
I0620 16:21:30.053315 12198 net.cpp:100] Creating Layer conv16_2_mbox_conf_flat
I0620 16:21:30.053346 12198 net.cpp:434] conv16_2_mbox_conf_flat <- conv16_2_mbox_conf_perm
I0620 16:21:30.053382 12198 net.cpp:408] conv16_2_mbox_conf_flat -> conv16_2_mbox_conf_flat
I0620 16:21:30.053423 12198 net.cpp:150] Setting up conv16_2_mbox_conf_flat
I0620 16:21:30.053442 12198 net.cpp:157] Top shape: 8 72 (576)
I0620 16:21:30.053463 12198 net.cpp:165] Memory required for data: 1290011808
I0620 16:21:30.053481 12198 layer_factory.hpp:77] Creating layer conv16_2_mbox_priorbox
I0620 16:21:30.053499 12198 net.cpp:100] Creating Layer conv16_2_mbox_priorbox
I0620 16:21:30.053517 12198 net.cpp:434] conv16_2_mbox_priorbox <- conv16_2_conv16_2/relu_0_split_3
I0620 16:21:30.053529 12198 net.cpp:434] conv16_2_mbox_priorbox <- data_data_0_split_5
I0620 16:21:30.053560 12198 net.cpp:408] conv16_2_mbox_priorbox -> conv16_2_mbox_priorbox
I0620 16:21:30.053623 12198 net.cpp:150] Setting up conv16_2_mbox_priorbox
I0620 16:21:30.053683 12198 net.cpp:157] Top shape: 1 2 96 (192)
I0620 16:21:30.053731 12198 net.cpp:165] Memory required for data: 1290012576
I0620 16:21:30.053750 12198 layer_factory.hpp:77] Creating layer conv17_2_mbox_loc
I0620 16:21:30.053772 12198 net.cpp:100] Creating Layer conv17_2_mbox_loc
I0620 16:21:30.053791 12198 net.cpp:434] conv17_2_mbox_loc <- conv17_2_conv17_2/relu_0_split_0
I0620 16:21:30.053812 12198 net.cpp:408] conv17_2_mbox_loc -> conv17_2_mbox_loc
I0620 16:21:30.054051 12198 net.cpp:150] Setting up conv17_2_mbox_loc
I0620 16:21:30.054064 12198 net.cpp:157] Top shape: 8 24 1 1 (192)
I0620 16:21:30.054075 12198 net.cpp:165] Memory required for data: 1290013344
I0620 16:21:30.054086 12198 layer_factory.hpp:77] Creating layer conv17_2_mbox_loc_perm
I0620 16:21:30.054100 12198 net.cpp:100] Creating Layer conv17_2_mbox_loc_perm
I0620 16:21:30.054111 12198 net.cpp:434] conv17_2_mbox_loc_perm <- conv17_2_mbox_loc
I0620 16:21:30.054122 12198 net.cpp:408] conv17_2_mbox_loc_perm -> conv17_2_mbox_loc_perm
I0620 16:21:30.054211 12198 net.cpp:150] Setting up conv17_2_mbox_loc_perm
I0620 16:21:30.054224 12198 net.cpp:157] Top shape: 8 1 1 24 (192)
I0620 16:21:30.054232 12198 net.cpp:165] Memory required for data: 1290014112
I0620 16:21:30.054242 12198 layer_factory.hpp:77] Creating layer conv17_2_mbox_loc_flat
I0620 16:21:30.054256 12198 net.cpp:100] Creating Layer conv17_2_mbox_loc_flat
I0620 16:21:30.054267 12198 net.cpp:434] conv17_2_mbox_loc_flat <- conv17_2_mbox_loc_perm
I0620 16:21:30.054278 12198 net.cpp:408] conv17_2_mbox_loc_flat -> conv17_2_mbox_loc_flat
I0620 16:21:30.054306 12198 net.cpp:150] Setting up conv17_2_mbox_loc_flat
I0620 16:21:30.054317 12198 net.cpp:157] Top shape: 8 24 (192)
I0620 16:21:30.054327 12198 net.cpp:165] Memory required for data: 1290014880
I0620 16:21:30.054337 12198 layer_factory.hpp:77] Creating layer conv17_2_mbox_conf_new
I0620 16:21:30.054352 12198 net.cpp:100] Creating Layer conv17_2_mbox_conf_new
I0620 16:21:30.054361 12198 net.cpp:434] conv17_2_mbox_conf_new <- conv17_2_conv17_2/relu_0_split_1
I0620 16:21:30.054375 12198 net.cpp:408] conv17_2_mbox_conf_new -> conv17_2_mbox_conf
I0620 16:21:30.054591 12198 net.cpp:150] Setting up conv17_2_mbox_conf_new
I0620 16:21:30.054605 12198 net.cpp:157] Top shape: 8 18 1 1 (144)
I0620 16:21:30.054613 12198 net.cpp:165] Memory required for data: 1290015456
I0620 16:21:30.054625 12198 layer_factory.hpp:77] Creating layer conv17_2_mbox_conf_perm
I0620 16:21:30.054637 12198 net.cpp:100] Creating Layer conv17_2_mbox_conf_perm
I0620 16:21:30.054647 12198 net.cpp:434] conv17_2_mbox_conf_perm <- conv17_2_mbox_conf
I0620 16:21:30.054661 12198 net.cpp:408] conv17_2_mbox_conf_perm -> conv17_2_mbox_conf_perm
I0620 16:21:30.054747 12198 net.cpp:150] Setting up conv17_2_mbox_conf_perm
I0620 16:21:30.054759 12198 net.cpp:157] Top shape: 8 1 1 18 (144)
I0620 16:21:30.054769 12198 net.cpp:165] Memory required for data: 1290016032
I0620 16:21:30.054778 12198 layer_factory.hpp:77] Creating layer conv17_2_mbox_conf_flat
I0620 16:21:30.054790 12198 net.cpp:100] Creating Layer conv17_2_mbox_conf_flat
I0620 16:21:30.054800 12198 net.cpp:434] conv17_2_mbox_conf_flat <- conv17_2_mbox_conf_perm
I0620 16:21:30.054813 12198 net.cpp:408] conv17_2_mbox_conf_flat -> conv17_2_mbox_conf_flat
I0620 16:21:30.054838 12198 net.cpp:150] Setting up conv17_2_mbox_conf_flat
I0620 16:21:30.054852 12198 net.cpp:157] Top shape: 8 18 (144)
I0620 16:21:30.054862 12198 net.cpp:165] Memory required for data: 1290016608
I0620 16:21:30.054877 12198 layer_factory.hpp:77] Creating layer conv17_2_mbox_priorbox
I0620 16:21:30.054889 12198 net.cpp:100] Creating Layer conv17_2_mbox_priorbox
I0620 16:21:30.054899 12198 net.cpp:434] conv17_2_mbox_priorbox <- conv17_2_conv17_2/relu_0_split_2
I0620 16:21:30.054911 12198 net.cpp:434] conv17_2_mbox_priorbox <- data_data_0_split_6
I0620 16:21:30.054924 12198 net.cpp:408] conv17_2_mbox_priorbox -> conv17_2_mbox_priorbox
I0620 16:21:30.054953 12198 net.cpp:150] Setting up conv17_2_mbox_priorbox
I0620 16:21:30.054965 12198 net.cpp:157] Top shape: 1 2 24 (48)
I0620 16:21:30.054975 12198 net.cpp:165] Memory required for data: 1290016800
I0620 16:21:30.054985 12198 layer_factory.hpp:77] Creating layer mbox_loc
I0620 16:21:30.054996 12198 net.cpp:100] Creating Layer mbox_loc
I0620 16:21:30.055007 12198 net.cpp:434] mbox_loc <- conv11_mbox_loc_flat
I0620 16:21:30.055018 12198 net.cpp:434] mbox_loc <- conv13_mbox_loc_flat
I0620 16:21:30.055029 12198 net.cpp:434] mbox_loc <- conv14_2_mbox_loc_flat
I0620 16:21:30.055040 12198 net.cpp:434] mbox_loc <- conv15_2_mbox_loc_flat
I0620 16:21:30.055050 12198 net.cpp:434] mbox_loc <- conv16_2_mbox_loc_flat
I0620 16:21:30.055061 12198 net.cpp:434] mbox_loc <- conv17_2_mbox_loc_flat
I0620 16:21:30.055073 12198 net.cpp:408] mbox_loc -> mbox_loc
I0620 16:21:30.055100 12198 net.cpp:150] Setting up mbox_loc
I0620 16:21:30.055112 12198 net.cpp:157] Top shape: 8 7668 (61344)
I0620 16:21:30.055122 12198 net.cpp:165] Memory required for data: 1290262176
I0620 16:21:30.055132 12198 layer_factory.hpp:77] Creating layer mbox_conf
I0620 16:21:30.055145 12198 net.cpp:100] Creating Layer mbox_conf
I0620 16:21:30.055155 12198 net.cpp:434] mbox_conf <- conv11_mbox_conf_flat
I0620 16:21:30.055166 12198 net.cpp:434] mbox_conf <- conv13_mbox_conf_flat
I0620 16:21:30.055177 12198 net.cpp:434] mbox_conf <- conv14_2_mbox_conf_flat
I0620 16:21:30.055188 12198 net.cpp:434] mbox_conf <- conv15_2_mbox_conf_flat
I0620 16:21:30.055198 12198 net.cpp:434] mbox_conf <- conv16_2_mbox_conf_flat
I0620 16:21:30.055209 12198 net.cpp:434] mbox_conf <- conv17_2_mbox_conf_flat
I0620 16:21:30.055222 12198 net.cpp:408] mbox_conf -> mbox_conf
I0620 16:21:30.055246 12198 net.cpp:150] Setting up mbox_conf
I0620 16:21:30.055258 12198 net.cpp:157] Top shape: 8 5751 (46008)
I0620 16:21:30.055268 12198 net.cpp:165] Memory required for data: 1290446208
I0620 16:21:30.055277 12198 layer_factory.hpp:77] Creating layer mbox_priorbox
I0620 16:21:30.055296 12198 net.cpp:100] Creating Layer mbox_priorbox
I0620 16:21:30.055307 12198 net.cpp:434] mbox_priorbox <- conv11_mbox_priorbox
I0620 16:21:30.055318 12198 net.cpp:434] mbox_priorbox <- conv13_mbox_priorbox
I0620 16:21:30.055330 12198 net.cpp:434] mbox_priorbox <- conv14_2_mbox_priorbox
I0620 16:21:30.055341 12198 net.cpp:434] mbox_priorbox <- conv15_2_mbox_priorbox
I0620 16:21:30.055351 12198 net.cpp:434] mbox_priorbox <- conv16_2_mbox_priorbox
I0620 16:21:30.055361 12198 net.cpp:434] mbox_priorbox <- conv17_2_mbox_priorbox
I0620 16:21:30.055372 12198 net.cpp:408] mbox_priorbox -> mbox_priorbox
I0620 16:21:30.055398 12198 net.cpp:150] Setting up mbox_priorbox
I0620 16:21:30.055410 12198 net.cpp:157] Top shape: 1 2 7668 (15336)
I0620 16:21:30.055420 12198 net.cpp:165] Memory required for data: 1290507552
I0620 16:21:30.055430 12198 layer_factory.hpp:77] Creating layer mbox_conf_reshape
I0620 16:21:30.055443 12198 net.cpp:100] Creating Layer mbox_conf_reshape
I0620 16:21:30.055454 12198 net.cpp:434] mbox_conf_reshape <- mbox_conf
I0620 16:21:30.055466 12198 net.cpp:408] mbox_conf_reshape -> mbox_conf_reshape
I0620 16:21:30.055500 12198 net.cpp:150] Setting up mbox_conf_reshape
I0620 16:21:30.055512 12198 net.cpp:157] Top shape: 8 1917 3 (46008)
I0620 16:21:30.055522 12198 net.cpp:165] Memory required for data: 1290691584
I0620 16:21:30.055532 12198 layer_factory.hpp:77] Creating layer mbox_conf_softmax
I0620 16:21:30.055547 12198 net.cpp:100] Creating Layer mbox_conf_softmax
I0620 16:21:30.055557 12198 net.cpp:434] mbox_conf_softmax <- mbox_conf_reshape
I0620 16:21:30.055575 12198 net.cpp:408] mbox_conf_softmax -> mbox_conf_softmax
I0620 16:21:30.055632 12198 net.cpp:150] Setting up mbox_conf_softmax
I0620 16:21:30.055644 12198 net.cpp:157] Top shape: 8 1917 3 (46008)
I0620 16:21:30.055655 12198 net.cpp:165] Memory required for data: 1290875616
I0620 16:21:30.055665 12198 layer_factory.hpp:77] Creating layer mbox_conf_flatten
I0620 16:21:30.055676 12198 net.cpp:100] Creating Layer mbox_conf_flatten
I0620 16:21:30.055686 12198 net.cpp:434] mbox_conf_flatten <- mbox_conf_softmax
I0620 16:21:30.055698 12198 net.cpp:408] mbox_conf_flatten -> mbox_conf_flatten
I0620 16:21:30.055723 12198 net.cpp:150] Setting up mbox_conf_flatten
I0620 16:21:30.055734 12198 net.cpp:157] Top shape: 8 5751 (46008)
I0620 16:21:30.055744 12198 net.cpp:165] Memory required for data: 1291059648
I0620 16:21:30.055754 12198 layer_factory.hpp:77] Creating layer detection_out
I0620 16:21:30.055774 12198 net.cpp:100] Creating Layer detection_out
I0620 16:21:30.055784 12198 net.cpp:434] detection_out <- mbox_loc
I0620 16:21:30.055795 12198 net.cpp:434] detection_out <- mbox_conf_flatten
I0620 16:21:30.055806 12198 net.cpp:434] detection_out <- mbox_priorbox
I0620 16:21:30.055819 12198 net.cpp:408] detection_out -> detection_out
I0620 16:21:30.055871 12198 net.cpp:150] Setting up detection_out
I0620 16:21:30.055882 12198 net.cpp:157] Top shape: 1 1 1 7 (7)
I0620 16:21:30.055891 12198 net.cpp:165] Memory required for data: 1291059676
I0620 16:21:30.055902 12198 layer_factory.hpp:77] Creating layer detection_eval
I0620 16:21:30.055915 12198 net.cpp:100] Creating Layer detection_eval
I0620 16:21:30.055925 12198 net.cpp:434] detection_eval <- detection_out
I0620 16:21:30.055936 12198 net.cpp:434] detection_eval <- label
I0620 16:21:30.055948 12198 net.cpp:408] detection_eval -> detection_eval
I0620 16:21:30.056001 12198 net.cpp:150] Setting up detection_eval
I0620 16:21:30.056013 12198 net.cpp:157] Top shape: 1 1 3 5 (15)
I0620 16:21:30.056023 12198 net.cpp:165] Memory required for data: 1291059736
I0620 16:21:30.056033 12198 net.cpp:228] detection_eval does not need backward computation.
I0620 16:21:30.056043 12198 net.cpp:228] detection_out does not need backward computation.
I0620 16:21:30.056054 12198 net.cpp:228] mbox_conf_flatten does not need backward computation.
I0620 16:21:30.056064 12198 net.cpp:228] mbox_conf_softmax does not need backward computation.
…
