…
    batch_sampler {
      sampler {
        min_scale: 0.3
        max_scale: 1
        min_aspect_ratio: 0.5
        max_aspect_ratio: 2
      }
      sample_constraint {
        min_jaccard_overlap: 0.9
      }
      max_sample: 1
      max_trials: 50
    }
    batch_sampler {
      sampler {
        min_scale: 0.3
        max_scale: 1
        min_aspect_ratio: 0.5
        max_aspect_ratio: 2
      }
      sample_constraint {
        max_jaccard_overlap: 1
      }
      max_sample: 1
      max_trials: 50
    }
    label_map_file: "labelmap.prototxt"
  }
}
layer {
  name: "conv0"
  type: "Convolution"
  bottom: "data"
  top: "conv0"
  param {
    lr_mult: 0.1
    decay_mult: 0.1
  }
  convolution_param {
    num_output: 32
    bias_term: false
    pad: 1
    kernel_size: 3
    stride: 2
    weight_filler {
      type: "msra"
    }
  }
}
layer {
  name: "conv0/bn"
  type: "BatchNorm"
  bottom: "conv0"
  top: "conv0"
}
layer {
  name: "conv0/scale"
  type: "Scale"
  bottom: "conv0"
  top: "conv0"
  param {
    lr_mult: 0.1
    decay_mult: 0
  }
  param {
    lr_mult: 0.2
    decay_mult: 0
  }
  scale_param {
    filler {
      value: 1
    }
    bias_term: true
    bias_filler {
      value: 0
    }
  }
}
layer {
  name: "conv0/relu"
  type: "ReLU"
  bottom: "conv0"
  top: "conv0"
}
layer {
  name: "conv1/dw"
  type: "Convolution"
  bottom: "conv0"
  top: "conv1/dw"
  param {
    lr_mult: 0.1
    decay_mult: 0.1
  }
  convolution_param {
    num_output: 32
    bias_term: false
    pad: 1
    kernel_size: 3
    group: 32
    weight_filler {
      type: "msra"
    }
    engine: CAFFE
  }
}
layer {
  name: "conv1/dw/bn"
  type: "BatchNorm"
  bottom: "conv1/dw"
  top: "conv1/dw"
}
layer {
  name: "conv1/dw/scale"
  type: "Scale"
  bottom: "conv1/dw"
  top: "conv1/dw"
  param {
    lr_mult: 0.1
    decay_mult: 0
  }
  param {
    lr_mult: 0.2
    decay_mult: 0
  }
  scale_param {
    filler {
      value: 1
    }
    bias_term: true
    bias_filler {
      value: 0
    }
  }
}
layer {
  name: "conv1/dw/relu"
  type: "ReLU"
  bottom: "conv1/dw"
  top: "conv1/dw"
}
layer {
  name: "conv1"
  type: "Convolution"
  bottom: "conv1/dw"
  top: "conv1"
  param {
    lr_mult: 0.1
    decay_mult: 0.1
  }
  convolution_param {
    num_output: 64
    bias_term: false
    kernel_size: 1
    weight_filler {
      type: "msra"
    }
  }
}
layer {
  name: "conv1/bn"
  type: "BatchNorm"
  bottom: "conv1"
  top: "conv1"
}
layer {
  name: "conv1/scale"
  type: "Scale"
  bottom: "conv1"
  top: "conv1"
  param {
    lr_mult: 0.1
    decay_mult: 0
  }
  param {
    lr_mult: 0.2
    decay_mult: 0
  }
  scale_param {
    filler {
      value: 1
    }
    bias_term: true
    bias_filler {
      value: 0
    }
  }
}
layer {
  name: "conv1/relu"
  type: "ReLU"
  bottom: "conv1"
  top: "conv1"
}
layer {
  name: "conv2/dw"
  type: "Convolution"
  bottom: "conv1"
  top: "conv2/dw"
  param {
    lr_mult: 0.1
    decay_mult: 0.1
  }
  convolution_param {
    num_output: 64
    bias_term: false
    pad: 1
    kernel_size: 3
    group: 64
    stride: 2
    weight_filler {
      type: "msra"
    }
    engine: CAFFE
  }
}
layer {
  name: "conv2/dw/bn"
  type: "BatchNorm"
  bottom: "conv2/dw"
  top: "conv2/dw"
}
layer {
  name: "conv2/dw/scale"
  type: "Scale"
  bottom: "conv2/dw"
  top: "conv2/dw"
  param {
    lr_mult: 0.1
    decay_mult: 0
  }
  param {
    lr_mult: 0.2
    decay_mult: 0
  }
  scale_param {
    filler {
      value: 1
    }
    bias_term: true
    bias_filler {
      value: 0
    }
  }
}
layer {
  name: "conv2/dw/relu"
  type: "ReLU"
  bottom: "conv2/dw"
  top: "conv2/dw"
}
layer {
  name: "conv2"
  type: "Convolution"
  bottom: "conv2/dw"
  top: "conv2"
  param {
    lr_mult: 0.1
    decay_mult: 0.1
  }
  convolution_param {
    num_output: 128
    bias_term: false
    kernel_size: 1
    weight_filler {
      type: "msra"
    }
  }
}
layer {
  name: "conv2/bn"
  type: "BatchNorm"
  bottom: "conv2"
  top: "conv2"
}
layer {
  name: "conv2/scale"
  type: "Scale"
  bottom: "conv2"
  top: "conv2"
  param {
    lr_mult: 0.1
    decay_mult: 0
  }
  param {
    lr_mult: 0.2
    decay_mult: 0
  }
  scale_param {
    filler {
      value: 1
    }
    bias_term: true
    bias_filler {
      value: 0
    }
  }
}
layer {
  name: "conv2/relu"
  type: "ReLU"
  bottom: "conv2"
  top: "conv2"
}
layer {
  name: "conv3/dw"
  type: "Convolution"
  bottom: "conv2"
  top: "conv3/dw"
  param {
    lr_mult: 0.1
    decay_mult: 0.1
  }
  convolution_param {
    num_output: 128
    bias_term: false
    pad: 1
    kernel_size: 3
    group: 128
    weight_filler {
      type: "msra"
    }
    engine: CAFFE
  }
}
layer {
  name: "conv3/dw/bn"
  type: "BatchNorm"
  bottom: "conv3/dw"
  top: "conv3/dw"
}
layer {
  name: "conv3/dw/scale"
  type: "Scale"
  bottom: "conv3/dw"
  top: "conv3/dw"
  param {
    lr_mult: 0.1
    decay_mult: 0
  }
  param {
    lr_mult: 0.2
    decay_mult: 0
  }
  scale_param {
    filler {
      value: 1
    }
    bias_term: true
    bias_filler {
      value: 0
    }
  }
}
layer {
  name: "conv3/dw/relu"
  type: "ReLU"
  bottom: "conv3/dw"
  top: "conv3/dw"
}
layer {
  name: "conv3"
  type: "Convolution"
  bottom: "conv3/dw"
  top: "conv3"
  param {
    lr_mult: 0.1
    decay_mult: 0.1
  }
  convolution_param {
    num_output: 128
    bias_term: false
    kernel_size: 1
    weight_filler {
      type: "msra"
    }
  }
}
layer {
  name: "conv3/bn"
  type: "BatchNorm"
  bottom: "conv3"
  top: "conv3"
}
layer {
  name: "conv3/scale"
  type: "Scale"
  bottom: "conv3"
  top: "conv3"
  param {
    lr_mult: 0.1
    decay_mult: 0
  }
  param {
    lr_mult: 0.2
    decay_mult: 0
  }
  scale_param {
    filler {
      value: 1
    }
    bias_term: true
    bias_filler {
      value: 0
    }
  }
}
layer {
  name: "conv3/relu"
  type: "ReLU"
  bottom: "conv3"
  top: "conv3"
}
layer {
  name: "conv4/dw"
  type: "Convolution"
  bottom: "conv3"
  top: "conv4/dw"
  param {
    lr_mult: 0.1
    decay_mult: 0.1
  }
  convolution_param {
    num_output: 128
    bias_term: false
    pad: 1
    kernel_size: 3
    group: 128
    stride: 2
    weight_filler {
      type: "msra"
    }
    engine: CAFFE
  }
}
layer {
  name: "conv4/dw/bn"
  type: "BatchNorm"
  bottom: "conv4/dw"
  top: "conv4/dw"
}
layer {
  name: "conv4/dw/scale"
  type: "Scale"
  bottom: "conv4/dw"
  top: "conv4/dw"
  param {
    lr_mult: 0.1
    decay_mult: 0
  }
  param {
    lr_mult: 0.2
    decay_mult: 0
  }
  scale_param {
    filler {
      value: 1
    }
    bias_term: true
    bias_filler {
      value: 0
    }
  }
}
layer {
  name: "conv4/dw/relu"
  type: "ReLU"
  bottom: "conv4/dw"
  top: "conv4/dw"
}
layer {
  name: "conv4"
  type: "Convolution"
  bottom: "conv4/dw"
  top: "conv4"
  param {
    lr_mult: 0.1
    decay_mult: 0.1
  }
  convolution_param {
    num_output: 256
    bias_term: false
    kernel_size: 1
    weight_filler {
      type: "msra"
    }
  }
}
layer {
  name: "conv4/bn"
  type: "BatchNorm"
  bottom: "conv4"
  top: "conv4"
}
layer {
  name: "conv4/scale"
  type: "Scale"
  bottom: "conv4"
  top: "conv4"
  param {
    lr_mult: 0.1
    decay_mult: 0
  }
  param {
    lr_mult: 0.2
    decay_mult: 0
  }
  scale_param {
    filler {
      value: 1
    }
    bias_term: true
    bias_filler {
      value: 0
    }
  }
}
layer {
  name: "conv4/relu"
  type: "ReLU"
  bottom: "conv4"
  top: "conv4"
}
layer {
  name: "conv5/dw"
  type: "Convolution"
  bottom: "conv4"
  top: "conv5/dw"
  param {
    lr_mult: 0.1
    decay_mult: 0.1
  }
  convolution_param {
    num_output: 256
    bias_term: false
    pad: 1
    kernel_size: 3
    group: 256
    weight_filler {
      type: "msra"
    }
    engine: CAFFE
  }
}
layer {
  name: "conv5/dw/bn"
  type: "BatchNorm"
  bottom: "conv5/dw"
  top: "conv5/dw"
}
layer {
  name: "conv5/dw/scale"
  type: "Scale"
  bottom: "conv5/dw"
  top: "conv5/dw"
  param {
    lr_mult: 0.1
    decay_mult: 0
  }
  param {
    lr_mult: 0.2
    decay_mult: 0
  }
  scale_param {
    filler {
      value: 1
    }
    bias_term: true
    bias_filler {
      value: 0
    }
  }
}
layer {
  name: "conv5/dw/relu"
  type: "ReLU"
  bottom: "conv5/dw"
  top: "conv5/dw"
}
layer {
  name: "conv5"
  type: "Convolution"
  bottom: "conv5/dw"
  top: "conv5"
  param {
    lr_mult: 0.1
    decay_mult: 0.1
  }
  convolution_param {
    num_output: 256
    bias_term: false
    kernel_size: 1
    weight_filler {
      type: "msra"
    }
  }
}
layer {
  name: "conv5/bn"
  type: "BatchNorm"
  bottom: "conv5"
  top: "conv5"
}
layer {
  name: "conv5/scale"
  type: "Scale"
  bottom: "conv5"
  top: "conv5"
  param {
    lr_mult: 0.1
    decay_mult: 0
  }
  param {
    lr_mult: 0.2
    decay_mult: 0
  }
  scale_param {
    filler {
      value: 1
    }
    bias_term: true
    bias_filler {
      value: 0
    }
  }
}
layer {
  name: "conv5/relu"
  type: "ReLU"
  bottom: "conv5"
  top: "conv5"
}
layer {
  name: "conv6/dw"
  type: "Convolution"
  bottom: "conv5"
  top: "conv6/dw"
  param {
    lr_mult: 0.1
    decay_mult: 0.1
  }
  convolution_param {
    num_output: 256
    bias_term: false
    pad: 1
    kernel_size: 3
    group: 256
    stride: 2
    weight_filler {
      type: "msra"
    }
    engine: CAFFE
  }
}
layer {
  name: "conv6/dw/bn"
  type: "BatchNorm"
  bottom: "conv6/dw"
  top: "conv6/dw"
}
layer {
  name: "conv6/dw/scale"
  type: "Scale"
  bottom: "conv6/dw"
  top: "conv6/dw"
  param {
    lr_mult: 0.1
    decay_mult: 0
  }
  param {
    lr_mult: 0.2
    decay_mult: 0
  }
  scale_param {
    filler {
      value: 1
    }
    bias_term: true
    bias_filler {
      value: 0
    }
  }
}
layer {
  name: "conv6/dw/relu"
  type: "ReLU"
  bottom: "conv6/dw"
  top: "conv6/dw"
}
layer {
  name: "conv6"
  type: "Convolution"
  bottom: "conv6/dw"
  top: "conv6"
  param {
    lr_mult: 0.1
    decay_mult: 0.1
  }
  convolution_param {
    num_output: 512
    bias_term: false
    kernel_size: 1
    weight_filler {
      type: "msra"
    }
  }
}
layer {
  name: "conv6/bn"
  type: "BatchNorm"
  bottom: "conv6"
  top: "conv6"
}
layer {
  name: "conv6/scale"
  type: "Scale"
  bottom: "conv6"
  top: "conv6"
  param {
    lr_mult: 0.1
    decay_mult: 0
  }
  param {
    lr_mult: 0.2
    decay_mult: 0
  }
  scale_param {
    filler {
      value: 1
    }
    bias_term: true
    bias_filler {
      value: 0
    }
  }
}
layer {
  name: "conv6/relu"
  type: "ReLU"
  bottom: "conv6"
  top: "conv6"
}
layer {
  name: "conv7/dw"
  type: "Convolution"
  bottom: "conv6"
  top: "conv7/dw"
  param {
    lr_mult: 0.1
    decay_mult: 0.1
  }
  convolution_param {
    num_output: 512
    bias_term: false
    pad: 1
    kernel_size: 3
    group: 512
    weight_filler {
      type: "msra"
    }
    engine: CAFFE
  }
}
layer {
  name: "conv7/dw/bn"
  type: "BatchNorm"
  bottom: "conv7/dw"
  top: "conv7/dw"
}
layer {
  name: "conv7/dw/scale"
  type: "Scale"
  bottom: "conv7/dw"
  top: "conv7/dw"
  param {
    lr_mult: 0.1
    decay_mult: 0
  }
  param {
    lr_mult: 0.2
    decay_mult: 0
  }
  scale_param {
    filler {
      value: 1
    }
    bias_term: true
    bias_filler {
      value: 0
    }
  }
}
layer {
  name: "conv7/dw/relu"
  type: "ReLU"
  bottom: "conv7/dw"
  top: "conv7/dw"
}
layer {
  name: "conv7"
  type: "Convolution"
  bottom: "conv7/dw"
  top: "conv7"
  param {
    lr_mult: 0.1
    decay_mult: 0.1
  }
  convolution_param {
    num_output: 512
    bias_term: false
    kernel_size: 1
    weight_filler {
      type: "msra"
    }
  }
}
layer {
  name: "conv7/bn"
  type: "BatchNorm"
  bottom: "conv7"
  top: "conv7"
}
layer {
  name: "conv7/scale"
  type: "Scale"
  bottom: "conv7"
  top: "conv7"
  param {
    lr_mult: 0.1
    decay_mult: 0
  }
  param {
    lr_mult: 0.2
    decay_mult: 0
  }
  scale_param {
    filler {
      value: 1
    }
    bias_term: true
    bias_filler {
      value: 0
    }
  }
}
layer {
  name: "conv7/relu"
  type: "ReLU"
  bottom: "conv7"
  top: "conv7"
}
layer {
  name: "conv8/dw"
  type: "Convolution"
  bottom: "conv7"
  top: "conv8/dw"
  param {
    lr_mult: 0.1
    decay_mult: 0.1
  }
  convolution_param {
    num_output: 512
    bias_term: false
    pad: 1
    kernel_size: 3
    group: 512
    weight_filler {
      type: "msra"
    }
    engine: CAFFE
  }
}
layer {
  name: "conv8/dw/bn"
  type: "BatchNorm"
  bottom: "conv8/dw"
  top: "conv8/dw"
}
layer {
  name: "conv8/dw/scale"
  type: "Scale"
  bottom: "conv8/dw"
  top: "conv8/dw"
  param {
    lr_mult: 0.1
    decay_mult: 0
  }
  param {
    lr_mult: 0.2
    decay_mult: 0
  }
  scale_param {
    filler {
      value: 1
    }
    bias_term: true
    bias_filler {
      value: 0
    }
  }
}
layer {
  name: "conv8/dw/relu"
  type: "ReLU"
  bottom: "conv8/dw"
  top: "conv8/dw"
}
layer {
  name: "conv8"
  type: "Convolution"
  bottom: "conv8/dw"
  top: "conv8"
  param {
    lr_mult: 0.1
    decay_mult: 0.1
  }
  convolution_param {
    num_output: 512
    bias_term: false
    kernel_size: 1
    weight_filler {
      type: "msra"
    }
  }
}
layer {
  name: "conv8/bn"
  type: "BatchNorm"
  bottom: "conv8"
  top: "conv8"
}
layer {
  name: "conv8/scale"
  type: "Scale"
  bottom: "conv8"
  top: "conv8"
  param {
    lr_mult: 0.1
    decay_mult: 0
  }
  param {
    lr_mult: 0.2
    decay_mult: 0
  }
  scale_param {
    filler {
      value: 1
    }
    bias_term: true
    bias_filler {
      value: 0
    }
  }
}
layer {
  name: "conv8/relu"
  type: "ReLU"
  bottom: "conv8"
  top: "conv8"
}
layer {
  name: "conv9/dw"
  type: "Convolution"
  bottom: "conv8"
  top: "conv9/dw"
  param {
    lr_mult: 0.1
    decay_mult: 0.1
  }
  convolution_param {
    num_output: 512
    bias_term: false
    pad: 1
    kernel_size: 3
    group: 512
    weight_filler {
      type: "msra"
    }
    engine: CAFFE
  }
}
layer {
  name: "conv9/dw/bn"
  type: "BatchNorm"
  bottom: "conv9/dw"
  top: "conv9/dw"
}
layer {
  name: "conv9/dw/scale"
  type: "Scale"
  bottom: "conv9/dw"
  top: "conv9/dw"
  param {
    lr_mult: 0.1
    decay_mult: 0
  }
  param {
    lr_mult: 0.2
    decay_mult: 0
  }
  scale_param {
    filler {
      value: 1
    }
    bias_term: true
    bias_filler {
      value: 0
    }
  }
}
layer {
  name: "conv9/dw/relu"
  type: "ReLU"
  bottom: "conv9/dw"
  top: "conv9/dw"
}
layer {
  name: "conv9"
  type: "Convolution"
  bottom: "conv9/dw"
  top: "conv9"
  param {
    lr_mult: 0.1
    decay_mult: 0.1
  }
  convolution_param {
    num_output: 512
    bias_term: false
    kernel_size: 1
    weight_filler {
      type: "msra"
    }
  }
}
layer {
  name: "conv9/bn"
  type: "BatchNorm"
  bottom: "conv9"
  top: "conv9"
}
layer {
  name: "conv9/scale"
  type: "Scale"
  bottom: "conv9"
  top: "conv9"
  param {
    lr_mult: 0.1
    decay_mult: 0
  }
  param {
    lr_mult: 0.2
    decay_mult: 0
  }
  scale_param {
    filler {
      value: 1
    }
    bias_term: true
    bias_filler {
      value: 0
    }
  }
}
layer {
  name: "conv9/relu"
  type: "ReLU"
  bottom: "conv9"
  top: "conv9"
}
layer {
  name: "conv10/dw"
  type: "Convolution"
  bottom: "conv9"
  top: "conv10/dw"
  param {
    lr_mult: 0.1
    decay_mult: 0.1
  }
  convolution_param {
    num_output: 512
    bias_term: false
    pad: 1
    kernel_size: 3
    group: 512
    weight_filler {
      type: "msra"
    }
    engine: CAFFE
  }
}
layer {
  name: "conv10/dw/bn"
  type: "BatchNorm"
  bottom: "conv10/dw"
  top: "conv10/dw"
}
layer {
  name: "conv10/dw/scale"
  type: "Scale"
  bottom: "conv10/dw"
  top: "conv10/dw"
  param {
    lr_mult: 0.1
    decay_mult: 0
  }
  param {
    lr_mult: 0.2
    decay_mult: 0
  }
  scale_param {
    filler {
      value: 1
    }
    bias_term: true
    bias_filler {
      value: 0
    }
  }
}
layer {
  name: "conv10/dw/relu"
  type: "ReLU"
  bottom: "conv10/dw"
  top: "conv10/dw"
}
layer {
  name: "conv10"
  type: "Convolution"
  bottom: "conv10/dw"
  top: "conv10"
  param {
    lr_mult: 0.1
    decay_mult: 0.1
  }
  convolution_param {
    num_output: 512
    bias_term: false
    kernel_size: 1
    weight_filler {
      type: "msra"
    }
  }
}
layer {
  name: "conv10/bn"
  type: "BatchNorm"
  bottom: "conv10"
  top: "conv10"
}
layer {
  name: "conv10/scale"
  type: "Scale"
  bottom: "conv10"
  top: "conv10"
  param {
    lr_mult: 0.1
    decay_mult: 0
  }
  param {
    lr_mult: 0.2
    decay_mult: 0
  }
  scale_param {
    filler {
      value: 1
    }
    bias_term: true
    bias_filler {
      value: 0
    }
  }
}
layer {
  name: "conv10/relu"
  type: "ReLU"
  bottom: "conv10"
  top: "conv10"
}
layer {
  name: "conv11/dw"
  type: "Convolution"
  bottom: "conv10"
  top: "conv11/dw"
  param {
    lr_mult: 0.1
    decay_mult: 0.1
  }
  convolution_param {
    num_output: 512
    bias_term: false
    pad: 1
    kernel_size: 3
    group: 512
    weight_filler {
      type: "msra"
    }
    engine: CAFFE
  }
}
layer {
  name: "conv11/dw/bn"
  type: "BatchNorm"
  bottom: "conv11/dw"
  top: "conv11/dw"
}
layer {
  name: "conv11/dw/scale"
  type: "Scale"
  bottom: "conv11/dw"
  top: "conv11/dw"
  param {
    lr_mult: 0.1
    decay_mult: 0
  }
  param {
    lr_mult: 0.2
    decay_mult: 0
  }
  scale_param {
    filler {
      value: 1
    }
    bias_term: true
    bias_filler {
      value: 0
    }
  }
}
layer {
  name: "conv11/dw/relu"
  type: "ReLU"
  bottom: "conv11/dw"
  top: "conv11/dw"
}
layer {
  name: "conv11"
  type: "Convolution"
  bottom: "conv11/dw"
  top: "conv11"
  param {
    lr_mult: 0.1
    decay_mult: 0.1
  }
  convolution_param {
    num_output: 512
    bias_term: false
    kernel_size: 1
    weight_filler {
      type: "msra"
    }
  }
}
layer {
  name: "conv11/bn"
  type: "BatchNorm"
  bottom: "conv11"
  top: "conv11"
}
layer {
  name: "conv11/scale"
  type: "Scale"
  bottom: "conv11"
  top: "conv11"
  param {
    lr_mult: 0.1
    decay_mult: 0
  }
  param {
    lr_mult: 0.2
    decay_mult: 0
  }
  scale_param {
    filler {
      value: 1
    }
    bias_term: true
    bias_filler {
      value: 0
    }
  }
}
layer {
  name: "conv11/relu"
  type: "ReLU"
  bottom: "conv11"
  top: "conv11"
}
layer {
  name: "conv12/dw"
  type: "Convolution"
  bottom: "conv11"
  top: "conv12/dw"
  param {
    lr_mult: 0.1
    decay_mult: 0.1
  }
  convolution_param {
    num_output: 512
    bias_term: false
    pad: 1
    kernel_size: 3
    group: 512
    stride: 2
    weight_filler {
      type: "msra"
    }
    engine: CAFFE
  }
}
layer {
  name: "conv12/dw/bn"
  type: "BatchNorm"
  bottom: "conv12/dw"
  top: "conv12/dw"
}
layer {
  name: "conv12/dw/scale"
  type: "Scale"
  bottom: "conv12/dw"
  top: "conv12/dw"
  param {
    lr_mult: 0.1
    decay_mult: 0
  }
  param {
    lr_mult: 0.2
    decay_mult: 0
  }
  scale_param {
    filler {
      value: 1
    }
    bias_term: true
    bias_filler {
      value: 0
    }
  }
}
layer {
  name: "conv12/dw/relu"
  type: "ReLU"
  bottom: "conv12/dw"
  top: "conv12/dw"
}
layer {
  name: "conv12"
  type: "Convolution"
  bottom: "conv12/dw"
  top: "conv12"
  param {
    lr_mult: 0.1
    decay_mult: 0.1
  }
  convolution_param {
    num_output: 1024
    bias_term: false
    kernel_size: 1
    weight_filler {
      type: "msra"
    }
  }
}
layer {
  name: "conv12/bn"
  type: "BatchNorm"
  bottom: "conv12"
  top: "conv12"
}
layer {
  name: "conv12/scale"
  type: "Scale"
  bottom: "conv12"
  top: "conv12"
  param {
    lr_mult: 0.1
    decay_mult: 0
  }
  param {
    lr_mult: 0.2
    decay_mult: 0
  }
  scale_param {
    filler {
      value: 1
    }
    bias_term: true
    bias_filler {
      value: 0
    }
  }
}
layer {
  name: "conv12/relu"
  type: "ReLU"
  bottom: "conv12"
  top: "conv12"
}
layer {
  name: "conv13/dw"
  type: "Convolution"
  bottom: "conv12"
  top: "conv13/dw"
  param {
    lr_mult: 0.1
    decay_mult: 0.1
  }
  convolution_param {
    num_output: 1024
    bias_term: false
    pad: 1
    kernel_size: 3
    group: 1024
    weight_filler {
      type: "msra"
    }
    engine: CAFFE
  }
}
layer {
  name: "conv13/dw/bn"
  type: "BatchNorm"
  bottom: "conv13/dw"
  top: "conv13/dw"
}
layer {
  name: "conv13/dw/scale"
  type: "Scale"
  bottom: "conv13/dw"
  top: "conv13/dw"
  param {
    lr_mult: 0.1
    decay_mult: 0
  }
  param {
    lr_mult: 0.2
    decay_mult: 0
  }
  scale_param {
    filler {
      value: 1
    }
    bias_term: true
    bias_filler {
      value: 0
    }
  }
}
layer {
  name: "conv13/dw/relu"
  type: "ReLU"
  bottom: "conv13/dw"
  top: "conv13/dw"
}
layer {
  name: "conv13"
  type: "Convolution"
  bottom: "conv13/dw"
  top: "conv13"
  param {
    lr_mult: 0.1
    decay_mult: 0.1
  }
  convolution_param {
    num_output: 1024
    bias_term: false
    kernel_size: 1
    weight_filler {
      type: "msra"
    }
  }
}
layer {
  name: "conv13/bn"
  type: "BatchNorm"
  bottom: "conv13"
  top: "conv13"
}
layer {
  name: "conv13/scale"
  type: "Scale"
  bottom: "conv13"
  top: "conv13"
  param {
    lr_mult: 0.1
    decay_mult: 0
  }
  param {
    lr_mult: 0.2
    decay_mult: 0
  }
  scale_param {
    filler {
      value: 1
    }
    bias_term: true
    bias_filler {
      value: 0
    }
  }
}
layer {
  name: "conv13/relu"
  type: "ReLU"
  bottom: "conv13"
  top: "conv13"
}
layer {
  name: "conv14_1"
  type: "Convolution"
  bottom: "conv13"
  top: "conv14_1"
  param {
    lr_mult: 0.1
    decay_mult: 0.1
  }
  convolution_param {
    num_output: 256
    bias_term: false
    kernel_size: 1
    weight_filler {
      type: "msra"
    }
  }
}
layer {
  name: "conv14_1/bn"
  type: "BatchNorm"
  bottom: "conv14_1"
  top: "conv14_1"
}
layer {
  name: "conv14_1/scale"
  type: "Scale"
  bottom: "conv14_1"
  top: "conv14_1"
  param {
    lr_mult: 0.1
    decay_mult: 0
  }
  param {
    lr_mult: 0.2
    decay_mult: 0
  }
  scale_param {
    filler {
      value: 1
    }
    bias_term: true
    bias_filler {
      value: 0
    }
  }
}
layer {
  name: "conv14_1/relu"
  type: "ReLU"
  bottom: "conv14_1"
  top: "conv14_1"
}
layer {
  name: "conv14_2"
  type: "Convolution"
  bottom: "conv14_1"
  top: "conv14_2"
  param {
    lr_mult: 0.1
    decay_mult: 0.1
  }
  convolution_param {
    num_output: 512
    bias_term: false
    pad: 1
    kernel_size: 3
    stride: 2
    weight_filler {
      type: "msra"
    }
  }
}
layer {
  name: "conv14_2/bn"
  type: "BatchNorm"
  bottom: "conv14_2"
  top: "conv14_2"
}
layer {
  name: "conv14_2/scale"
  type: "Scale"
  bottom: "conv14_2"
  top: "conv14_2"
  param {
    lr_mult: 0.1
    decay_mult: 0
  }
  param {
    lr_mult: 0.2
    decay_mult: 0
  }
  scale_param {
    filler {
      value: 1
    }
    bias_term: true
    bias_filler {
      value: 0
    }
  }
}
layer {
  name: "conv14_2/relu"
  type: "ReLU"
  bottom: "conv14_2"
  top: "conv14_2"
}
layer {
  name: "conv15_1"
  type: "Convolution"
  bottom: "conv14_2"
  top: "conv15_1"
  param {
    lr_mult: 0.1
    decay_mult: 0.1
  }
  convolution_param {
    num_output: 128
    bias_term: false
    kernel_size: 1
    weight_filler {
      type: "msra"
    }
  }
}
layer {
  name: "conv15_1/bn"
  type: "BatchNorm"
  bottom: "conv15_1"
  top: "conv15_1"
}
layer {
  name: "conv15_1/scale"
  type: "Scale"
  bottom: "conv15_1"
  top: "conv15_1"
  param {
    lr_mult: 0.1
    decay_mult: 0
  }
  param {
    lr_mult: 0.2
    decay_mult: 0
  }
  scale_param {
    filler {
      value: 1
    }
    bias_term: true
    bias_filler {
      value: 0
    }
  }
}
layer {
  name: "conv15_1/relu"
  type: "ReLU"
  bottom: "conv15_1"
  top: "conv15_1"
}
layer {
  name: "conv15_2"
  type: "Convolution"
  bottom: "conv15_1"
  top: "conv15_2"
  param {
    lr_mult: 0.1
    decay_mult: 0.1
  }
  convolution_param {
    num_output: 256
    bias_term: false
    pad: 1
    kernel_size: 3
    stride: 2
    weight_filler {
      type: "msra"
    }
  }
}
layer {
  name: "conv15_2/bn"
  type: "BatchNorm"
  bottom: "conv15_2"
  top: "conv15_2"
}
layer {
  name: "conv15_2/scale"
  type: "Scale"
  bottom: "conv15_2"
  top: "conv15_2"
  param {
    lr_mult: 0.1
    decay_mult: 0
  }
  param {
    lr_mult: 0.2
    decay_mult: 0
  }
  scale_param {
    filler {
      value: 1
    }
    bias_term: true
    bias_filler {
      value: 0
    }
  }
}
layer {
  name: "conv15_2/relu"
  type: "ReLU"
  bottom: "conv15_2"
  top: "conv15_2"
}
layer {
  name: "conv16_1"
  type: "Convolution"
  bottom: "conv15_2"
  top: "conv16_1"
  param {
    lr_mult: 0.1
    decay_mult: 0.1
  }
  convolution_param {
    num_output: 128
    bias_term: false
    kernel_size: 1
    weight_filler {
      type: "msra"
    }
  }
}
layer {
  name: "conv16_1/bn"
  type: "BatchNorm"
  bottom: "conv16_1"
  top: "conv16_1"
}
layer {
  name: "conv16_1/scale"
  type: "Scale"
  bottom: "conv16_1"
  top: "conv16_1"
  param {
    lr_mult: 0.1
    decay_mult: 0
  }
  param {
    lr_mult: 0.2
    decay_mult: 0
  }
  scale_param {
    filler {
      value: 1
    }
    bias_term: true
    bias_filler {
      value: 0
    }
  }
}
layer {
  name: "conv16_1/relu"
  type: "ReLU"
  bottom: "conv16_1"
  top: "conv16_1"
}
layer {
  name: "conv16_2"
  type: "Convolution"
  bottom: "conv16_1"
  top: "conv16_2"
  param {
    lr_mult: 0.1
    decay_mult: 0.1
  }
  convolution_param {
    num_output: 256
    bias_term: false
    pad: 1
    kernel_size: 3
    stride: 2
    weight_filler {
      type: "msra"
    }
  }
}
layer {
  name: "conv16_2/bn"
  type: "BatchNorm"
  bottom: "conv16_2"
  top: "conv16_2"
}
layer {
  name: "conv16_2/scale"
  type: "Scale"
  bottom: "conv16_2"
  top: "conv16_2"
  param {
    lr_mult: 0.1
    decay_mult: 0
  }
  param {
    lr_mult: 0.2
    decay_mult: 0
  }
  scale_param {
    filler {
      value: 1
    }
    bias_term: true
    bias_filler {
      value: 0
    }
  }
}
layer {
  name: "conv16_2/relu"
  type: "ReLU"
  bottom: "conv16_2"
  top: "conv16_2"
}
layer {
  name: "conv17_1"
  type: "Convolution"
  bottom: "conv16_2"
  top: "conv17_1"
  param {
    lr_mult: 0.1
    decay_mult: 0.1
  }
  convolution_param {
    num_output: 64
    bias_term: false
    kernel_size: 1
    weight_filler {
      type: "msra"
    }
  }
}
layer {
  name: "conv17_1/bn"
  type: "BatchNorm"
  bottom: "conv17_1"
  top: "conv17_1"
}
layer {
  name: "conv17_1/scale"
  type: "Scale"
  bottom: "conv17_1"
  top: "conv17_1"
  param {
    lr_mult: 0.1
    decay_mult: 0
  }
  param {
    lr_mult: 0.2
    decay_mult: 0
  }
  scale_param {
    filler {
      value: 1
    }
    bias_term: true
    bias_filler {
      value: 0
    }
  }
}
layer {
  name: "conv17_1/relu"
  type: "ReLU"
  bottom: "conv17_1"
  top: "conv17_1"
}
layer {
  name: "conv17_2"
  type: "Convolution"
  bottom: "conv17_1"
  top: "conv17_2"
  param {
    lr_mult: 0.1
    decay_mult: 0.1
  }
  convolution_param {
    num_output: 128
    bias_term: false
    pad: 1
    kernel_size: 3
    stride: 2
    weight_filler {
      type: "msra"
    }
  }
}
layer {
  name: "conv17_2/bn"
  type: "BatchNorm"
  bottom: "conv17_2"
  top: "conv17_2"
}
layer {
  name: "conv17_2/scale"
  type: "Scale"
  bottom: "conv17_2"
  top: "conv17_2"
  param {
    lr_mult: 0.1
    decay_mult: 0
  }
  param {
    lr_mult: 0.2
    decay_mult: 0
  }
  scale_param {
    filler {
      value: 1
    }
    bias_term: true
    bias_filler {
      value: 0
    }
  }
}
layer {
  name: "conv17_2/relu"
  type: "ReLU"
  bottom: "conv17_2"
  top: "conv17_2"
}
layer {
  name: "conv11_mbox_loc"
  type: "Convolution"
  bottom: "conv11"
  top: "conv11_mbox_loc"
  param {
    lr_mult: 0.1
    decay_mult: 0.1
  }
  param {
    lr_mult: 0.2
    decay_mult: 0
  }
  convolution_param {
    num_output: 12
    kernel_size: 1
    weight_filler {
      type: "msra"
    }
    bias_filler {
      type: "constant"
      value: 0
    }
  }
}
layer {
  name: "conv11_mbox_loc_perm"
  type: "Permute"
  bottom: "conv11_mbox_loc"
  top: "conv11_mbox_loc_perm"
  permute_param {
    order: 0
    or
I0623 22:58:49.082087 11349 layer_factory.hpp:77] Creating layer data
I0623 22:58:49.082520 11349 net.cpp:100] Creating Layer data
I0623 22:58:49.082551 11349 net.cpp:408] data -> data
I0623 22:58:49.082600 11349 net.cpp:408] data -> label
I0623 22:58:49.083884 11363 db_lmdb.cpp:35] Opened lmdb trainval_lmdb/
I0623 22:58:49.213868 11349 annotated_data_layer.cpp:62] output data size: 24,3,300,300
I0623 22:58:49.262723 11349 net.cpp:150] Setting up data
I0623 22:58:49.262778 11349 net.cpp:157] Top shape: 24 3 300 300 (6480000)
I0623 22:58:49.262804 11349 net.cpp:157] Top shape: 1 1 2 8 (16)
I0623 22:58:49.262845 11349 net.cpp:165] Memory required for data: 25920064
I0623 22:58:49.262984 11349 layer_factory.hpp:77] Creating layer data_data_0_split
I0623 22:58:49.263015 11349 net.cpp:100] Creating Layer data_data_0_split
I0623 22:58:49.263047 11349 net.cpp:434] data_data_0_split <- data
I0623 22:58:49.263149 11349 net.cpp:408] data_data_0_split -> data_data_0_split_0
I0623 22:58:49.263180 11349 net.cpp:408] data_data_0_split -> data_data_0_split_1
I0623 22:58:49.263202 11349 net.cpp:408] data_data_0_split -> data_data_0_split_2
I0623 22:58:49.263226 11349 net.cpp:408] data_data_0_split -> data_data_0_split_3
I0623 22:58:49.263247 11349 net.cpp:408] data_data_0_split -> data_data_0_split_4
I0623 22:58:49.263262 11349 net.cpp:408] data_data_0_split -> data_data_0_split_5
I0623 22:58:49.263280 11349 net.cpp:408] data_data_0_split -> data_data_0_split_6
I0623 22:58:49.263370 11349 net.cpp:150] Setting up data_data_0_split
I0623 22:58:49.263383 11349 net.cpp:157] Top shape: 24 3 300 300 (6480000)
I0623 22:58:49.263399 11349 net.cpp:157] Top shape: 24 3 300 300 (6480000)
I0623 22:58:49.263422 11349 net.cpp:157] Top shape: 24 3 300 300 (6480000)
I0623 22:58:49.263432 11349 net.cpp:157] Top shape: 24 3 300 300 (6480000)
I0623 22:58:49.263449 11349 net.cpp:157] Top shape: 24 3 300 300 (6480000)
I0623 22:58:49.263476 11349 net.cpp:157] Top shape: 24 3 300 300 (6480000)
I0623 22:58:49.263509 11349 net.cpp:157] Top shape: 24 3 300 300 (6480000)
I0623 22:58:49.263535 11349 net.cpp:165] Memory required for data: 207360064
I0623 22:58:49.263553 11349 layer_factory.hpp:77] Creating layer conv0
I0623 22:58:49.263581 11349 net.cpp:100] Creating Layer conv0
I0623 22:58:49.263598 11349 net.cpp:434] conv0 <- data_data_0_split_0
I0623 22:58:49.263612 11349 net.cpp:408] conv0 -> conv0
I0623 22:58:49.264888 11349 net.cpp:150] Setting up conv0
I0623 22:58:49.264914 11349 net.cpp:157] Top shape: 24 32 150 150 (17280000)
I0623 22:58:49.264925 11349 net.cpp:165] Memory required for data: 276480064
I0623 22:58:49.264942 11349 layer_factory.hpp:77] Creating layer conv0/bn
I0623 22:58:49.264955 11349 net.cpp:100] Creating Layer conv0/bn
I0623 22:58:49.264966 11349 net.cpp:434] conv0/bn <- conv0
I0623 22:58:49.264981 11349 net.cpp:395] conv0/bn -> conv0 (in-place)
I0623 22:58:49.265807 11349 net.cpp:150] Setting up conv0/bn
I0623 22:58:49.265825 11349 net.cpp:157] Top shape: 24 32 150 150 (17280000)
I0623 22:58:49.265836 11349 net.cpp:165] Memory required for data: 345600064
I0623 22:58:49.265851 11349 layer_factory.hpp:77] Creating layer conv0/scale
I0623 22:58:49.265868 11349 net.cpp:100] Creating Layer conv0/scale
I0623 22:58:49.265879 11349 net.cpp:434] conv0/scale <- conv0
I0623 22:58:49.265892 11349 net.cpp:395] conv0/scale -> conv0 (in-place)
I0623 22:58:49.265933 11349 layer_factory.hpp:77] Creating layer conv0/scale
I0623 22:58:49.266047 11349 net.cpp:150] Setting up conv0/scale
I0623 22:58:49.266062 11349 net.cpp:157] Top shape: 24 32 150 150 (17280000)
I0623 22:58:49.266072 11349 net.cpp:165] Memory required for data: 414720064
I0623 22:58:49.266086 11349 layer_factory.hpp:77] Creating layer conv0/relu
I0623 22:58:49.266098 11349 net.cpp:100] Creating Layer conv0/relu
I0623 22:58:49.266108 11349 net.cpp:434] conv0/relu <- conv0
I0623 22:58:49.266121 11349 net.cpp:395] conv0/relu -> conv0 (in-place)
I0623 22:58:49.273456 11349 net.cpp:150] Setting up conv0/relu
I0623 22:58:49.273488 11349 net.cpp:157] Top shape: 24 32 150 150 (17280000)
I0623 22:58:49.273505 11349 net.cpp:165] Memory required for data: 483840064
I0623 22:58:49.273524 11349 layer_factory.hpp:77] Creating layer conv1/dw
I0623 22:58:49.273546 11349 net.cpp:100] Creating Layer conv1/dw
I0623 22:58:49.273564 11349 net.cpp:434] conv1/dw <- conv0
I0623 22:58:49.273586 11349 net.cpp:408] conv1/dw -> conv1/dw
I0623 22:58:49.274005 11349 net.cpp:150] Setting up conv1/dw
I0623 22:58:49.274025 11349 net.cpp:157] Top shape: 24 32 150 150 (17280000)
I0623 22:58:49.274035 11349 net.cpp:165] Memory required for data: 552960064
I0623 22:58:49.274049 11349 layer_factory.hpp:77] Creating layer conv1/dw/bn
I0623 22:58:49.274060 11349 net.cpp:100] Creating Layer conv1/dw/bn
I0623 22:58:49.274071 11349 net.cpp:434] conv1/dw/bn <- conv1/dw
I0623 22:58:49.274085 11349 net.cpp:395] conv1/dw/bn -> conv1/dw (in-place)
I0623 22:58:49.274241 11349 net.cpp:150] Setting up conv1/dw/bn
I0623 22:58:49.274255 11349 net.cpp:157] Top shape: 24 32 150 150 (17280000)
I0623 22:58:49.274264 11349 net.cpp:165] Memory required for data: 622080064
I0623 22:58:49.274279 11349 layer_factory.hpp:77] Creating layer conv1/dw/scale
I0623 22:58:49.274296 11349 net.cpp:100] Creating Layer conv1/dw/scale
I0623 22:58:49.274305 11349 net.cpp:434] conv1/dw/scale <- conv1/dw
I0623 22:58:49.274317 11349 net.cpp:395] conv1/dw/scale -> conv1/dw (in-place)
I0623 22:58:49.274354 11349 layer_factory.hpp:77] Creating layer conv1/dw/scale
I0623 22:58:49.274461 11349 net.cpp:150] Setting up conv1/dw/scale
I0623 22:58:49.274477 11349 net.cpp:157] Top shape: 24 32 150 150 (17280000)
I0623 22:58:49.274492 11349 net.cpp:165] Memory required for data: 691200064
I0623 22:58:49.274503 11349 layer_factory.hpp:77] Creating layer conv1/dw/relu
I0623 22:58:49.274526 11349 net.cpp:100] Creating Layer conv1/dw/relu
I0623 22:58:49.274536 11349 net.cpp:434] conv1/dw/relu <- conv1/dw
I0623 22:58:49.274549 11349 net.cpp:395] conv1/dw/relu -> conv1/dw (in-place)
I0623 22:58:49.274566 11349 net.cpp:150] Setting up conv1/dw/relu
I0623 22:58:49.274585 11349 net.cpp:157] Top shape: 24 32 150 150 (17280000)
I0623 22:58:49.274602 11349 net.cpp:165] Memory required for data: 760320064
I0623 22:58:49.274616 11349 layer_factory.hpp:77] Creating layer conv1
I0623 22:58:49.274631 11349 net.cpp:100] Creating Layer conv1
I0623 22:58:49.274641 11349 net.cpp:434] conv1 <- conv1/dw
I0623 22:58:49.274652 11349 net.cpp:408] conv1 -> conv1
I0623 22:58:49.275540 11349 net.cpp:150] Setting up conv1
I0623 22:58:49.275559 11349 net.cpp:157] Top shape: 24 64 150 150 (34560000)
I0623 22:58:49.275570 11349 net.cpp:165] Memory required for data: 898560064
I0623 22:58:49.275581 11349 layer_factory.hpp:77] Creating layer conv1/bn
I0623 22:58:49.275594 11349 net.cpp:100] Creating Layer conv1/bn
I0623 22:58:49.275605 11349 net.cpp:434] conv1/bn <- conv1
I0623 22:58:49.275617 11349 net.cpp:395] conv1/bn -> conv1 (in-place)
I0623 22:58:49.275768 11349 net.cpp:150] Setting up conv1/bn
I0623 22:58:49.275780 11349 net.cpp:157] Top shape: 24 64 150 150 (34560000)
I0623 22:58:49.275790 11349 net.cpp:165] Memory required for data: 1036800064
I0623 22:58:49.275804 11349 layer_factory.hpp:77] Creating layer conv1/scale
I0623 22:58:49.275815 11349 net.cpp:100] Creating Layer conv1/scale
I0623 22:58:49.275825 11349 net.cpp:434] conv1/scale <- conv1
I0623 22:58:49.275836 11349 net.cpp:395] conv1/scale -> conv1 (in-place)
I0623 22:58:49.275873 11349 layer_factory.hpp:77] Creating layer conv1/scale
I0623 22:58:49.275982 11349 net.cpp:150] Setting up conv1/scale
I0623 22:58:49.275995 11349 net.cpp:157] Top shape: 24 64 150 150 (34560000)
I0623 22:58:49.276005 11349 net.cpp:165] Memory required for data: 1175040064
I0623 22:58:49.276046 11349 layer_factory.hpp:77] Creating layer conv1/relu
I0623 22:58:49.276073 11349 net.cpp:100] Creating Layer conv1/relu
I0623 22:58:49.276088 11349 net.cpp:434] conv1/relu <- conv1
I0623 22:58:49.276103 11349 net.cpp:395] conv1/relu -> conv1 (in-place)
I0623 22:58:49.276120 11349 net.cpp:150] Setting up conv1/relu
I0623 22:58:49.276134 11349 net.cpp:157] Top shape: 24 64 150 150 (34560000)
I0623 22:58:49.276161 11349 net.cpp:165] Memory required for data: 1313280064
I0623 22:58:49.276197 11349 layer_factory.hpp:77] Creating layer conv2/dw
I0623 22:58:49.276237 11349 net.cpp:100] Creating Layer conv2/dw
I0623 22:58:49.276273 11349 net.cpp:434] conv2/dw <- conv1
I0623 22:58:49.276301 11349 net.cpp:408] conv2/dw -> conv2/dw
I0623 22:58:49.276450 11349 net.cpp:150] Setting up conv2/dw
I0623 22:58:49.276463 11349 net.cpp:157] Top shape: 24 64 75 75 (8640000)
I0623 22:58:49.276473 11349 net.cpp:165] Memory required for data: 1347840064
I0623 22:58:49.276484 11349 layer_factory.hpp:77] Creating layer conv2/dw/bn
I0623 22:58:49.276496 11349 net.cpp:100] Creating Layer conv2/dw/bn
I0623 22:58:49.276507 11349 net.cpp:434] conv2/dw/bn <- conv2/dw
I0623 22:58:49.276518 11349 net.cpp:395] conv2/dw/bn -> conv2/dw (in-place)
I0623 22:58:49.277268 11349 net.cpp:150] Setting up conv2/dw/bn
I0623 22:58:49.277287 11349 net.cpp:157] Top shape: 24 64 75 75 (8640000)
I0623 22:58:49.277297 11349 net.cpp:165] Memory required for data: 1382400064
I0623 22:58:49.277309 11349 layer_factory.hpp:77] Creating layer conv2/dw/scale
I0623 22:58:49.277325 11349 net.cpp:100] Creating Layer conv2/dw/scale
I0623 22:58:49.277336 11349 net.cpp:434] conv2/dw/scale <- conv2/dw
I0623 22:58:49.277349 11349 net.cpp:395] conv2/dw/scale -> conv2/dw (in-place)
I0623 22:58:49.277389 11349 layer_factory.hpp:77] Creating layer conv2/dw/scale
I0623 22:58:49.277487 11349 net.cpp:150] Setting up conv2/dw/scale
I0623 22:58:49.277500 11349 net.cpp:157] Top shape: 24 64 75 75 (8640000)
I0623 22:58:49.277514 11349 net.cpp:165] Memory required for data: 1416960064
I0623 22:58:49.277526 11349 layer_factory.hpp:77] Creating layer conv2/dw/relu
I0623 22:58:49.277545 11349 net.cpp:100] Creating Layer conv2/dw/relu
I0623 22:58:49.277555 11349 net.cpp:434] conv2/dw/relu <- conv2/dw
I0623 22:58:49.277568 11349 net.cpp:395] conv2/dw/relu -> conv2/dw (in-place)
I0623 22:58:49.277580 11349 net.cpp:150] Setting up conv2/dw/relu
I0623 22:58:49.277590 11349 net.cpp:157] Top shape: 24 64 75 75 (8640000)
I0623 22:58:49.277601 11349 net.cpp:165] Memory required for data: 1451520064
I0623 22:58:49.277611 11349 layer_factory.hpp:77] Creating layer conv2
I0623 22:58:49.277624 11349 net.cpp:100] Creating Layer conv2
I0623 22:58:49.277634 11349 net.cpp:434] conv2 <- conv2/dw
I0623 22:58:49.277647 11349 net.cpp:408] conv2 -> conv2
I0623 22:58:49.277843 11349 net.cpp:150] Setting up conv2
I0623 22:58:49.277858 11349 net.cpp:157] Top shape: 24 128 75 75 (17280000)
I0623 22:58:49.277868 11349 net.cpp:165] Memory required for data: 1520640064
I0623 22:58:49.277878 11349 layer_factory.hpp:77] Creating layer conv2/bn
I0623 22:58:49.277889 11349 net.cpp:100] Creating Layer conv2/bn
I0623 22:58:49.277907 11349 net.cpp:434] conv2/bn <- conv2
I0623 22:58:49.277925 11349 net.cpp:395] conv2/bn -> conv2 (in-place)
I0623 22:58:49.278092 11349 net.cpp:150] Setting up conv2/bn
I0623 22:58:49.278129 11349 net.cpp:157] Top shape: 24 128 75 75 (17280000)
I0623 22:58:49.278156 11349 net.cpp:165] Memory required for data: 1589760064
I0623 22:58:49.278183 11349 layer_factory.hpp:77] Creating layer conv2/scale
I0623 22:58:49.278206 11349 net.cpp:100] Creating Layer conv2/scale
I0623 22:58:49.278228 11349 net.cpp:434] conv2/scale <- conv2
I0623 22:58:49.278246 11349 net.cpp:395] conv2/scale -> conv2 (in-place)
I0623 22:58:49.278322 11349 layer_factory.hpp:77] Creating layer conv2/scale
I0623 22:58:49.278445 11349 net.cpp:150] Setting up conv2/scale
I0623 22:58:49.278460 11349 net.cpp:157] Top shape: 24 128 75 75 (17280000)
I0623 22:58:49.278470 11349 net.cpp:165] Memory required for data: 1658880064
I0623 22:58:49.278483 11349 layer_factory.hpp:77] Creating layer conv2/relu
I0623 22:58:49.278496 11349 net.cpp:100] Creating Layer conv2/relu
I0623 22:58:49.278507 11349 net.cpp:434] conv2/relu <- conv2
I0623 22:58:49.278522 11349 net.cpp:395] conv2/relu -> conv2 (in-place)
I0623 22:58:49.278534 11349 net.cpp:150] Setting up conv2/relu
I0623 22:58:49.278548 11349 net.cpp:157] Top shape: 24 128 75 75 (17280000)
I0623 22:58:49.278558 11349 net.cpp:165] Memory required for data: 1728000064
I0623 22:58:49.278568 11349 layer_factory.hpp:77] Creating layer conv3/dw
I0623 22:58:49.278584 11349 net.cpp:100] Creating Layer conv3/dw
I0623 22:58:49.278594 11349 net.cpp:434] conv3/dw <- conv2
I0623 22:58:49.278609 11349 net.cpp:408] conv3/dw -> conv3/dw
I0623 22:58:49.278800 11349 net.cpp:150] Setting up conv3/dw
I0623 22:58:49.278815 11349 net.cpp:157] Top shape: 24 128 75 75 (17280000)
I0623 22:58:49.278826 11349 net.cpp:165] Memory required for data: 1797120064
I0623 22:58:49.278838 11349 layer_factory.hpp:77] Creating layer conv3/dw/bn
I0623 22:58:49.278851 11349 net.cpp:100] Creating Layer conv3/dw/bn
I0623 22:58:49.278982 11349 net.cpp:434] conv3/dw/bn <- conv3/dw
I0623 22:58:49.279006 11349 net.cpp:395] conv3/dw/bn -> conv3/dw (in-place)
I0623 22:58:49.279181 11349 net.cpp:150] Setting up conv3/dw/bn
I0623 22:58:49.279196 11349 net.cpp:157] Top shape: 24 128 75 75 (17280000)
I0623 22:58:49.279207 11349 net.cpp:165] Memory required for data: 1866240064
I0623 22:58:49.279227 11349 layer_factory.hpp:77] Creating layer conv3/dw/scale
I0623 22:58:49.279240 11349 net.cpp:100] Creating Layer conv3/dw/scale
I0623 22:58:49.279251 11349 net.cpp:434] conv3/dw/scale <- conv3/dw
I0623 22:58:49.279265 11349 net.cpp:395] conv3/dw/scale -> conv3/dw (in-place)
I0623 22:58:49.279309 11349 layer_factory.hpp:77] Creating layer conv3/dw/scale
I0623 22:58:49.279429 11349 net.cpp:150] Setting up conv3/dw/scale
I0623 22:58:49.279453 11349 net.cpp:157] Top shape: 24 128 75 75 (17280000)
I0623 22:58:49.279474 11349 net.cpp:165] Memory required for data: 1935360064
I0623 22:58:49.279492 11349 layer_factory.hpp:77] Creating layer conv3/dw/relu
I0623 22:58:49.279520 11349 net.cpp:100] Creating Layer conv3/dw/relu
I0623 22:58:49.279537 11349 net.cpp:434] conv3/dw/relu <- conv3/dw
I0623 22:58:49.279561 11349 net.cpp:395] conv3/dw/relu -> conv3/dw (in-place)
I0623 22:58:49.279582 11349 net.cpp:150] Setting up conv3/dw/relu
I0623 22:58:49.279600 11349 net.cpp:157] Top shape: 24 128 75 75 (17280000)
I0623 22:58:49.279628 11349 net.cpp:165] Memory required for data: 2004480064
I0623 22:58:49.279650 11349 layer_factory.hpp:77] Creating layer conv3
I0623 22:58:49.279672 11349 net.cpp:100] Creating Layer conv3
I0623 22:58:49.279690 11349 net.cpp:434] conv3 <- conv3/dw
I0623 22:58:49.279708 11349 net.cpp:408] conv3 -> conv3
I0623 22:58:49.280129 11349 net.cpp:150] Setting up conv3
I0623 22:58:49.280144 11349 net.cpp:157] Top shape: 24 128 75 75 (17280000)
I0623 22:58:49.280155 11349 net.cpp:165] Memory required for data: 2073600064
I0623 22:58:49.280167 11349 layer_factory.hpp:77] Creating layer conv3/bn
I0623 22:58:49.280181 11349 net.cpp:100] Creating Layer conv3/bn
I0623 22:58:49.280192 11349 net.cpp:434] conv3/bn <- conv3
I0623 22:58:49.280205 11349 net.cpp:395] conv3/bn -> conv3 (in-place)
I0623 22:58:49.280380 11349 net.cpp:150] Setting up conv3/bn
I0623 22:58:49.280393 11349 net.cpp:157] Top shape: 24 128 75 75 (17280000)
I0623 22:58:49.280405 11349 net.cpp:165] Memory required for data: 2142720064
I0623 22:58:49.280419 11349 layer_factory.hpp:77] Creating layer conv3/scale
I0623 22:58:49.280432 11349 net.cpp:100] Creating Layer conv3/scale
I0623 22:58:49.280443 11349 net.cpp:434] conv3/scale <- conv3
I0623 22:58:49.280457 11349 net.cpp:395] conv3/scale -> conv3 (in-place)
I0623 22:58:49.280499 11349 layer_factory.hpp:77] Creating layer conv3/scale
I0623 22:58:49.280616 11349 net.cpp:150] Setting up conv3/scale
I0623 22:58:49.280630 11349 net.cpp:157] Top shape: 24 128 75 75 (17280000)
I0623 22:58:49.280642 11349 net.cpp:165] Memory required for data: 2211840064
I0623 22:58:49.280654 11349 layer_factory.hpp:77] Creating layer conv3/relu
I0623 22:58:49.280666 11349 net.cpp:100] Creating Layer conv3/relu
I0623 22:58:49.280678 11349 net.cpp:434] conv3/relu <- conv3
I0623 22:58:49.280691 11349 net.cpp:395] conv3/relu -> conv3 (in-place)
I0623 22:58:49.280704 11349 net.cpp:150] Setting up conv3/relu
I0623 22:58:49.280716 11349 net.cpp:157] Top shape: 24 128 75 75 (17280000)
I0623 22:58:49.280727 11349 net.cpp:165] Memory required for data: 2280960064
I0623 22:58:49.280737 11349 layer_factory.hpp:77] Creating layer conv4/dw
I0623 22:58:49.280753 11349 net.cpp:100] Creating Layer conv4/dw
I0623 22:58:49.280764 11349 net.cpp:434] conv4/dw <- conv3
I0623 22:58:49.280777 11349 net.cpp:408] conv4/dw -> conv4/dw
I0623 22:58:49.280967 11349 net.cpp:150] Setting up conv4/dw
I0623 22:58:49.280982 11349 net.cpp:157] Top shape: 24 128 38 38 (4435968)
I0623 22:58:49.280993 11349 net.cpp:165] Memory required for data: 2298703936
I0623 22:58:49.281005 11349 layer_factory.hpp:77] Creating layer conv4/dw/bn
I0623 22:58:49.281020 11349 net.cpp:100] Creating Layer conv4/dw/bn
I0623 22:58:49.281031 11349 net.cpp:434] conv4/dw/bn <- conv4/dw
I0623 22:58:49.281044 11349 net.cpp:395] conv4/dw/bn -> conv4/dw (in-place)
I0623 22:58:49.281213 11349 net.cpp:150] Setting up conv4/dw/bn
I0623 22:58:49.281227 11349 net.cpp:157] Top shape: 24 128 38 38 (4435968)
I0623 22:58:49.281239 11349 net.cpp:165] Memory required for data: 2316447808
I0623 22:58:49.281252 11349 layer_factory.hpp:77] Creating layer conv4/dw/scale
I0623 22:58:49.281270 11349 net.cpp:100] Creating Layer conv4/dw/scale
I0623 22:58:49.281280 11349 net.cpp:434] conv4/dw/scale <- conv4/dw
I0623 22:58:49.281293 11349 net.cpp:395] conv4/dw/scale -> conv4/dw (in-place)
I0623 22:58:49.281335 11349 layer_factory.hpp:77] Creating layer conv4/dw/scale
I0623 22:58:49.281446 11349 net.cpp:150] Setting up conv4/dw/scale
I0623 22:58:49.281461 11349 net.cpp:157] Top shape: 24 128 38 38 (4435968)
I0623 22:58:49.281476 11349 net.cpp:165] Memory required for data: 2334191680
I0623 22:58:49.281488 11349 layer_factory.hpp:77] Creating layer conv4/dw/relu
I0623 22:58:49.281507 11349 net.cpp:100] Creating Layer conv4/dw/relu
I0623 22:58:49.281517 11349 net.cpp:434] conv4/dw/relu <- conv4/dw
I0623 22:58:49.281530 11349 net.cpp:395] conv4/dw/relu -> conv4/dw (in-place)
I0623 22:58:49.281544 11349 net.cpp:150] Setting up conv4/dw/relu
I0623 22:58:49.281556 11349 net.cpp:157] Top shape: 24 128 38 38 (4435968)
I0623 22:58:49.281566 11349 net.cpp:165] Memory required for data: 2351935552
I0623 22:58:49.281577 11349 layer_factory.hpp:77] Creating layer conv4
I0623 22:58:49.281591 11349 net.cpp:100] Creating Layer conv4
I0623 22:58:49.281602 11349 net.cpp:434] conv4 <- conv4/dw
I0623 22:58:49.281617 11349 net.cpp:408] conv4 -> conv4
I0623 22:58:49.282281 11349 net.cpp:150] Setting up conv4
I0623 22:58:49.282297 11349 net.cpp:157] Top shape: 24 256 38 38 (8871936)
I0623 22:58:49.282308 11349 net.cpp:165] Memory required for data: 2387423296
I0623 22:58:49.282320 11349 layer_factory.hpp:77] Creating layer conv4/bn
I0623 22:58:49.282333 11349 net.cpp:100] Creating Layer conv4/bn
I0623 22:58:49.282344 11349 net.cpp:434] conv4/bn <- conv4
I0623 22:58:49.282357 11349 net.cpp:395] conv4/bn -> conv4 (in-place)
I0623 22:58:49.282531 11349 net.cpp:150] Setting up conv4/bn
I0623 22:58:49.282547 11349 net.cpp:157] Top shape: 24 256 38 38 (8871936)
I0623 22:58:49.282558 11349 net.cpp:165] Memory required for data: 2422911040
I0623 22:58:49.282572 11349 layer_factory.hpp:77] Creating layer conv4/scale
I0623 22:58:49.282585 11349 net.cpp:100] Creating Layer conv4/scale
I0623 22:58:49.282596 11349 net.cpp:434] conv4/scale <- conv4
I0623 22:58:49.282609 11349 net.cpp:395] conv4/scale -> conv4 (in-place)
I0623 22:58:49.282651 11349 layer_factory.hpp:77] Creating layer conv4/scale
I0623 22:58:49.282759 11349 net.cpp:150] Setting up conv4/scale
I0623 22:58:49.282773 11349 net.cpp:157] Top shape: 24 256 38 38 (8871936)
I0623 22:58:49.282784 11349 net.cpp:165] Memory required for data: 2458398784
I0623 22:58:49.282797 11349 layer_factory.hpp:77] Creating layer conv4/relu
I0623 22:58:49.282809 11349 net.cpp:100] Creating Layer conv4/relu
I0623 22:58:49.282821 11349 net.cpp:434] conv4/relu <- conv4
I0623 22:58:49.282835 11349 net.cpp:395] conv4/relu -> conv4 (in-place)
I0623 22:58:49.282847 11349 net.cpp:150] Setting up conv4/relu
I0623 22:58:49.282927 11349 net.cpp:157] Top shape: 24 256 38 38 (8871936)
I0623 22:58:49.282945 11349 net.cpp:165] Memory required for data: 2493886528
I0623 22:58:49.282963 11349 layer_factory.hpp:77] Creating layer conv5/dw
I0623 22:58:49.282982 11349 net.cpp:100] Creating Layer conv5/dw
I0623 22:58:49.282994 11349 net.cpp:434] conv5/dw <- conv4
I0623 22:58:49.283008 11349 net.cpp:408] conv5/dw -> conv5/dw
I0623 22:58:49.283216 11349 net.cpp:150] Setting up conv5/dw
I0623 22:58:49.283231 11349 net.cpp:157] Top shape: 24 256 38 38 (8871936)
I0623 22:58:49.283242 11349 net.cpp:165] Memory required for data: 2529374272
I0623 22:58:49.283254 11349 layer_factory.hpp:77] Creating layer conv5/dw/bn
I0623 22:58:49.283267 11349 net.cpp:100] Creating Layer conv5/dw/bn
I0623 22:58:49.283278 11349 net.cpp:434] conv5/dw/bn <- conv5/dw
I0623 22:58:49.283296 11349 net.cpp:395] conv5/dw/bn -> conv5/dw (in-place)
I0623 22:58:49.283469 11349 net.cpp:150] Setting up conv5/dw/bn
I0623 22:58:49.283483 11349 net.cpp:157] Top shape: 24 256 38 38 (8871936)
I0623 22:58:49.283494 11349 net.cpp:165] Memory required for data: 2564862016
I0623 22:58:49.283509 11349 layer_factory.hpp:77] Creating layer conv5/dw/scale
I0623 22:58:49.283524 11349 net.cpp:100] Creating Layer conv5/dw/scale
I0623 22:58:49.283535 11349 net.cpp:434] conv5/dw/scale <- conv5/dw
I0623 22:58:49.283547 11349 net.cpp:395] conv5/dw/scale -> conv5/dw (in-place)
I0623 22:58:49.283591 11349 layer_factory.hpp:77] Creating layer conv5/dw/scale
I0623 22:58:49.283699 11349 net.cpp:150] Setting up conv5/dw/scale
I0623 22:58:49.283715 11349 net.cpp:157] Top shape: 24 256 38 38 (8871936)
I0623 22:58:49.283730 11349 net.cpp:165] Memory required for data: 2600349760
I0623 22:58:49.283742 11349 layer_factory.hpp:77] Creating layer conv5/dw/relu
I0623 22:58:49.283761 11349 net.cpp:100] Creating Layer conv5/dw/relu
I0623 22:58:49.283771 11349 net.cpp:434] conv5/dw/relu <- conv5/dw
I0623 22:58:49.283785 11349 net.cpp:395] conv5/dw/relu -> conv5/dw (in-place)
I0623 22:58:49.283798 11349 net.cpp:150] Setting up conv5/dw/relu
I0623 22:58:49.283810 11349 net.cpp:157] Top shape: 24 256 38 38 (8871936)
I0623 22:58:49.283821 11349 net.cpp:165] Memory required for data: 2635837504
I0623 22:58:49.283833 11349 layer_factory.hpp:77] Creating layer conv5
I0623 22:58:49.283845 11349 net.cpp:100] Creating Layer conv5
I0623 22:58:49.283857 11349 net.cpp:434] conv5 <- conv5/dw
I0623 22:58:49.283871 11349 net.cpp:408] conv5 -> conv5
I0623 22:58:49.284998 11349 net.cpp:150] Setting up conv5
I0623 22:58:49.285013 11349 net.cpp:157] Top shape: 24 256 38 38 (8871936)
I0623 22:58:49.285024 11349 net.cpp:165] Memory required for data: 2671325248
I0623 22:58:49.285037 11349 layer_factory.hpp:77] Creating layer conv5/bn
I0623 22:58:49.285049 11349 net.cpp:100] Creating Layer conv5/bn
I0623 22:58:49.285061 11349 net.cpp:434] conv5/bn <- conv5
I0623 22:58:49.285073 11349 net.cpp:395] conv5/bn -> conv5 (in-place)
I0623 22:58:49.285248 11349 net.cpp:150] Setting up conv5/bn
I0623 22:58:49.285261 11349 net.cpp:157] Top shape: 24 256 38 38 (8871936)
I0623 22:58:49.285272 11349 net.cpp:165] Memory required for data: 2706812992
I0623 22:58:49.285286 11349 layer_factory.hpp:77] Creating layer conv5/scale
I0623 22:58:49.285301 11349 net.cpp:100] Creating Layer conv5/scale
I0623 22:58:49.285312 11349 net.cpp:434] conv5/scale <- conv5
I0623 22:58:49.285326 11349 net.cpp:395] conv5/scale -> conv5 (in-place)
I0623 22:58:49.285367 11349 layer_factory.hpp:77] Creating layer conv5/scale
I0623 22:58:49.285476 11349 net.cpp:150] Setting up conv5/scale
I0623 22:58:49.285490 11349 net.cpp:157] Top shape: 24 256 38 38 (8871936)
I0623 22:58:49.285501 11349 net.cpp:165] Memory required for data: 2742300736
I0623 22:58:49.285522 11349 layer_factory.hpp:77] Creating layer conv5/relu
I0623 22:58:49.285535 11349 net.cpp:100] Creating Layer conv5/relu
I0623 22:58:49.285547 11349 net.cpp:434] conv5/relu <- conv5
I0623 22:58:49.285559 11349 net.cpp:395] conv5/relu -> conv5 (in-place)
I0623 22:58:49.285573 11349 net.cpp:150] Setting up conv5/relu
I0623 22:58:49.285584 11349 net.cpp:157] Top shape: 24 256 38 38 (8871936)
I0623 22:58:49.285595 11349 net.cpp:165] Memory required for data: 2777788480
I0623 22:58:49.285605 11349 layer_factory.hpp:77] Creating layer conv6/dw
I0623 22:58:49.285621 11349 net.cpp:100] Creating Layer conv6/dw
I0623 22:58:49.285632 11349 net.cpp:434] conv6/dw <- conv5
I0623 22:58:49.285656 11349 net.cpp:408] conv6/dw -> conv6/dw
I0623 22:58:49.285862 11349 net.cpp:150] Setting up conv6/dw
I0623 22:58:49.285877 11349 net.cpp:157] Top shape: 24 256 19 19 (2217984)
I0623 22:58:49.285888 11349 net.cpp:165] Memory required for data: 2786660416
I0623 22:58:49.285900 11349 layer_factory.hpp:77] Creating layer conv6/dw/bn
I0623 22:58:49.285913 11349 net.cpp:100] Creating Layer conv6/dw/bn
I0623 22:58:49.285924 11349 net.cpp:434] conv6/dw/bn <- conv6/dw
I0623 22:58:49.285936 11349 net.cpp:395] conv6/dw/bn -> conv6/dw (in-place)
I0623 22:58:49.286115 11349 net.cpp:150] Setting up conv6/dw/bn
I0623 22:58:49.286130 11349 net.cpp:157] Top shape: 24 256 19 19 (2217984)
I0623 22:58:49.286144 11349 net.cpp:165] Memory required for data: 2795532352
I0623 22:58:49.286166 11349 layer_factory.hpp:77] Creating layer conv6/dw/scale
I0623 22:58:49.286185 11349 net.cpp:100] Creating Layer conv6/dw/scale
I0623 22:58:49.286200 11349 net.cpp:434] conv6/dw/scale <- conv6/dw
I0623 22:58:49.286219 11349 net.cpp:395] conv6/dw/scale -> conv6/dw (in-place)
I0623 22:58:49.286262 11349 layer_factory.hpp:77] Creating layer conv6/dw/scale
I0623 22:58:49.286372 11349 net.cpp:150] Setting up conv6/dw/scale
I0623 22:58:49.286425 11349 net.cpp:157] Top shape: 24 256 19 19 (2217984)
I0623 22:58:49.286473 11349 net.cpp:165] Memory required for data: 2804404288
I0623 22:58:49.286495 11349 layer_factory.hpp:77] Creating layer conv6/dw/relu
I0623 22:58:49.286522 11349 net.cpp:100] Creating Layer conv6/dw/relu
I0623 22:58:49.286540 11349 net.cpp:434] conv6/dw/relu <- conv6/dw
I0623 22:58:49.286558 11349 net.cpp:395] conv6/dw/relu -> conv6/dw (in-place)
I0623 22:58:49.286572 11349 net.cpp:150] Setting up conv6/dw/relu
I0623 22:58:49.286590 11349 net.cpp:157] Top shape: 24 256 19 19 (2217984)
I0623 22:58:49.286617 11349 net.cpp:165] Memory required for data: 2813276224
I0623 22:58:49.286644 11349 layer_factory.hpp:77] Creating layer conv6
I0623 22:58:49.286671 11349 net.cpp:100] Creating Layer conv6
I0623 22:58:49.286707 11349 net.cpp:434] conv6 <- conv6/dw
I0623 22:58:49.286725 11349 net.cpp:408] conv6 -> conv6
I0623 22:58:49.290017 11349 net.cpp:150] Setting up conv6
I0623 22:58:49.290043 11349 net.cpp:157] Top shape: 24 512 19 19 (4435968)
I0623 22:58:49.290055 11349 net.cpp:165] Memory required for data: 2831020096
I0623 22:58:49.290068 11349 layer_factory.hpp:77] Creating layer conv6/bn
I0623 22:58:49.290086 11349 net.cpp:100] Creating Layer conv6/bn
I0623 22:58:49.290097 11349 net.cpp:434] conv6/bn <- conv6
I0623 22:58:49.290110 11349 net.cpp:395] conv6/bn -> conv6 (in-place)
I0623 22:58:49.290294 11349 net.cpp:150] Setting up conv6/bn
I0623 22:58:49.290309 11349 net.cpp:157] Top shape: 24 512 19 19 (4435968)
I0623 22:58:49.290320 11349 net.cpp:165] Memory required for data: 2848763968
I0623 22:58:49.290334 11349 layer_factory.hpp:77] Creating layer conv6/scale
I0623 22:58:49.290350 11349 net.cpp:100] Creating Layer conv6/scale
I0623 22:58:49.290361 11349 net.cpp:434] conv6/scale <- conv6
I0623 22:58:49.290374 11349 net.cpp:395] conv6/scale -> conv6 (in-place)
I0623 22:58:49.290421 11349 layer_factory.hpp:77] Creating layer conv6/scale
I0623 22:58:49.290530 11349 net.cpp:150] Setting up conv6/scale
I0623 22:58:49.290544 11349 net.cpp:157] Top shape: 24 512 19 19 (4435968)
I0623 22:58:49.290555 11349 net.cpp:165] Memory required for data: 2866507840
I0623 22:58:49.290568 11349 layer_factory.hpp:77] Creating layer conv6/relu
I0623 22:58:49.290582 11349 net.cpp:100] Creating Layer conv6/relu
I0623 22:58:49.290594 11349 net.cpp:434] conv6/relu <- conv6
I0623 22:58:49.290607 11349 net.cpp:395] conv6/relu -> conv6 (in-place)
I0623 22:58:49.290621 11349 net.cpp:150] Setting up conv6/relu
I0623 22:58:49.290632 11349 net.cpp:157] Top shape: 24 512 19 19 (4435968)
I0623 22:58:49.290643 11349 net.cpp:165] Memory required for data: 2884251712
I0623 22:58:49.290653 11349 layer_factory.hpp:77] Creating layer conv7/dw
I0623 22:58:49.290670 11349 net.cpp:100] Creating Layer conv7/dw
I0623 22:58:49.290681 11349 net.cpp:434] conv7/dw <- conv6
I0623 22:58:49.290696 11349 net.cpp:408] conv7/dw -> conv7/dw
I0623 22:58:49.291002 11349 net.cpp:150] Setting up conv7/dw
I0623 22:58:49.291018 11349 net.cpp:157] Top shape: 24 512 19 19 (4435968)
I0623 22:58:49.291029 11349 net.cpp:165] Memory required for data: 2901995584
I0623 22:58:49.291041 11349 layer_factory.hpp:77] Creating layer conv7/dw/bn
I0623 22:58:49.291055 11349 net.cpp:100] Creating Layer conv7/dw/bn
I0623 22:58:49.291066 11349 net.cpp:434] conv7/dw/bn <- conv7/dw
I0623 22:58:49.291079 11349 net.cpp:395] conv7/dw/bn -> conv7/dw (in-place)
I0623 22:58:49.291254 11349 net.cpp:150] Setting up conv7/dw/bn
I0623 22:58:49.291268 11349 net.cpp:157] Top shape: 24 512 19 19 (4435968)
I0623 22:58:49.291280 11349 net.cpp:165] Memory required for data: 2919739456
I0623 22:58:49.291293 11349 layer_factory.hpp:77] Creating layer conv7/dw/scale
I0623 22:58:49.291307 11349 net.cpp:100] Creating Layer conv7/dw/scale
I0623 22:58:49.291318 11349 net.cpp:434] conv7/dw/scale <- conv7/dw
I0623 22:58:49.291332 11349 net.cpp:395] conv7/dw/scale -> conv7/dw (in-place)
I0623 22:58:49.291374 11349 layer_factory.hpp:77] Creating layer conv7/dw/scale
I0623 22:58:49.291484 11349 net.cpp:150] Setting up conv7/dw/scale
I0623 22:58:49.291498 11349 net.cpp:157] Top shape: 24 512 19 19 (4435968)
I0623 22:58:49.291513 11349 net.cpp:165] Memory required for data: 2937483328
I0623 22:58:49.291527 11349 layer_factory.hpp:77] Creating layer conv7/dw/relu
I0623 22:58:49.291548 11349 net.cpp:100] Creating Layer conv7/dw/relu
I0623 22:58:49.291559 11349 net.cpp:434] conv7/dw/relu <- conv7/dw
I0623 22:58:49.291573 11349 net.cpp:395] conv7/dw/relu -> conv7/dw (in-place)
I0623 22:58:49.291585 11349 net.cpp:150] Setting up conv7/dw/relu
I0623 22:58:49.291599 11349 net.cpp:157] Top shape: 24 512 19 19 (4435968)
I0623 22:58:49.291610 11349 net.cpp:165] Memory required for data: 2955227200
I0623 22:58:49.291620 11349 layer_factory.hpp:77] Creating layer conv7
I0623 22:58:49.291635 11349 net.cpp:100] Creating Layer conv7
I0623 22:58:49.291646 11349 net.cpp:434] conv7 <- conv7/dw
I0623 22:58:49.291661 11349 net.cpp:408] conv7 -> conv7
I0623 22:58:49.295539 11349 net.cpp:150] Setting up conv7
I0623 22:58:49.295559 11349 net.cpp:157] Top shape: 24 512 19 19 (4435968)
I0623 22:58:49.295572 11349 net.cpp:165] Memory required for data: 2972971072
I0623 22:58:49.295585 11349 layer_factory.hpp:77] Creating layer conv7/bn
I0623 22:58:49.295601 11349 net.cpp:100] Creating Layer conv7/bn
I0623 22:58:49.295614 11349 net.cpp:434] conv7/bn <- conv7
I0623 22:58:49.295627 11349 net.cpp:395] conv7/bn -> conv7 (in-place)
I0623 22:58:49.295826 11349 net.cpp:150] Setting up conv7/bn
I0623 22:58:49.295850 11349 net.cpp:157] Top shape: 24 512 19 19 (4435968)
I0623 22:58:49.295867 11349 net.cpp:165] Memory required for data: 2990714944
I0623 22:58:49.295889 11349 layer_factory.hpp:77] Creating layer conv7/scale
I0623 22:58:49.295912 11349 net.cpp:100] Creating Layer conv7/scale
I0623 22:58:49.295930 11349 net.cpp:434] conv7/scale <- conv7
I0623 22:58:49.295948 11349 net.cpp:395] conv7/scale -> conv7 (in-place)
I0623 22:58:49.296011 11349 layer_factory.hpp:77] Creating layer conv7/scale
I0623 22:58:49.296134 11349 net.cpp:150] Setting up conv7/scale
I0623 22:58:49.296150 11349 net.cpp:157] Top shape: 24 512 19 19 (4435968)
I0623 22:58:49.296162 11349 net.cpp:165] Memory required for data: 3008458816
I0623 22:58:49.296177 11349 layer_factory.hpp:77] Creating layer conv7/relu
I0623 22:58:49.296193 11349 net.cpp:100] Creating Layer conv7/relu
I0623 22:58:49.296205 11349 net.cpp:434] conv7/relu <- conv7
I0623 22:58:49.296221 11349 net.cpp:395] conv7/relu -> conv7 (in-place)
I0623 22:58:49.296239 11349 net.cpp:150] Setting up conv7/relu
I0623 22:58:49.296257 11349 net.cpp:157] Top shape: 24 512 19 19 (4435968)
I0623 22:58:49.296275 11349 net.cpp:165] Memory required for data: 3026202688
I0623 22:58:49.296293 11349 layer_factory.hpp:77] Creating layer conv8/dw
I0623 22:58:49.296320 11349 net.cpp:100] Creating Layer conv8/dw
I0623 22:58:49.296339 11349 net.cpp:434] conv8/dw <- conv7
I0623 22:58:49.296360 11349 net.cpp:408] conv8/dw -> conv8/dw
I0623 22:58:49.296612 11349 net.cpp:150] Setting up conv8/dw
I0623 22:58:49.296629 11349 net.cpp:157] Top shape: 24 512 19 19 (4435968)
I0623 22:58:49.296641 11349 net.cpp:165] Memory required for data: 3043946560
I0623 22:58:49.296654 11349 layer_factory.hpp:77] Creating layer conv8/dw/bn
I0623 22:58:49.296669 11349 net.cpp:100] Creating Layer conv8/dw/bn
I0623 22:58:49.296681 11349 net.cpp:434] conv8/dw/bn <- conv8/dw
I0623 22:58:49.296695 11349 net.cpp:395] conv8/dw/bn -> conv8/dw (in-place)
I0623 22:58:49.296885 11349 net.cpp:150] Setting up conv8/dw/bn
I0623 22:58:49.296900 11349 net.cpp:157] Top shape: 24 512 19 19 (4435968)
I0623 22:58:49.296912 11349 net.cpp:165] Memory required for data: 3061690432
I0623 22:58:49.296928 11349 layer_factory.hpp:77] Creating layer conv8/dw/scale
I0623 22:58:49.296952 11349 net.cpp:100] Creating Layer conv8/dw/scale
I0623 22:58:49.296965 11349 net.cpp:434] conv8/dw/scale <- conv8/dw
I0623 22:58:49.296979 11349 net.cpp:395] conv8/dw/scale -> conv8/dw (in-place)
I0623 22:58:49.297030 11349 layer_factory.hpp:77] Creating layer conv8/dw/scale
I0623 22:58:49.297148 11349 net.cpp:150] Setting up conv8/dw/scale
I0623 22:58:49.297164 11349 net.cpp:157] Top shape: 24 512 19 19 (4435968)
I0623 22:58:49.297181 11349 net.cpp:165] Memory required for data: 3079434304
I0623 22:58:49.297197 11349 layer_factory.hpp:77] Creating layer conv8/dw/relu
I0623 22:58:49.297219 11349 net.cpp:100] Creating Layer conv8/dw/relu
I0623 22:58:49.297231 11349 net.cpp:434] conv8/dw/relu <- conv8/dw
I0623 22:58:49.297246 11349 net.cpp:395] conv8/dw/relu -> conv8/dw (in-place)
I0623 22:58:49.297261 11349 net.cpp:150] Setting up conv8/dw/relu
I0623 22:58:49.297274 11349 net.cpp:157] Top shape: 24 512 19 19 (4435968)
I0623 22:58:49.297286 11349 net.cpp:165] Memory required for data: 3097178176
I0623 22:58:49.297297 11349 layer_factory.hpp:77] Creating layer conv8
I0623 22:58:49.297313 11349 net.cpp:100] Creating Layer conv8
I0623 22:58:49.297325 11349 net.cpp:434] conv8 <- conv8/dw
I0623 22:58:49.297339 11349 net.cpp:408] conv8 -> conv8
I0623 22:58:49.301640 11349 net.cpp:150] Setting up conv8
I0623 22:58:49.301666 11349 net.cpp:157] Top shape: 24 512 19 19 (4435968)
I0623 22:58:49.301678 11349 net.cpp:165] Memory required for data: 3114922048
I0623 22:58:49.301693 11349 layer_factory.hpp:77] Creating layer conv8/bn
I0623 22:58:49.301708 11349 net.cpp:100] Creating Layer conv8/bn
I0623 22:58:49.301720 11349 net.cpp:434] conv8/bn <- conv8
I0623 22:58:49.301734 11349 net.cpp:395] conv8/bn -> conv8 (in-place)
I0623 22:58:49.301935 11349 net.cpp:150] Setting up conv8/bn
I0623 22:58:49.301952 11349 net.cpp:157] Top shape: 24 512 19 19 (4435968)
I0623 22:58:49.301965 11349 net.cpp:165] Memory required for data: 3132665920
I0623 22:58:49.301981 11349 layer_factory.hpp:77] Creating layer conv8/scale
I0623 22:58:49.301996 11349 net.cpp:100] Creating Layer conv8/scale
I0623 22:58:49.302008 11349 net.cpp:434] conv8/scale <- conv8
I0623 22:58:49.302022 11349 net.cpp:395] conv8/scale -> conv8 (in-place)
I0623 22:58:49.302074 11349 layer_factory.hpp:77] Creating layer conv8/scale
I0623 22:58:49.302194 11349 net.cpp:150] Setting up conv8/scale
I0623 22:58:49.302211 11349 net.cpp:157] Top shape: 24 512 19 19 (4435968)
I0623 22:58:49.302222 11349 net.cpp:165] Memory required for data: 3150409792
I0623 22:58:49.302237 11349 layer_factory.hpp:77] Creating layer conv8/relu
I0623 22:58:49.302251 11349 net.cpp:100] Creating Layer conv8/relu
I0623 22:58:49.302263 11349 net.cpp:434] conv8/relu <- conv8
I0623 22:58:49.302278 11349 net.cpp:395] conv8/relu -> conv8 (in-place)
I0623 22:58:49.302291 11349 net.cpp:150] Setting up conv8/relu
I0623 22:58:49.302305 11349 net.cpp:157] Top shape: 24 512 19 19 (4435968)
I0623 22:58:49.302317 11349 net.cpp:165] Memory required for data: 3168153664
I0623 22:58:49.302335 11349 layer_factory.hpp:77] Creating layer conv9/dw
I0623 22:58:49.302358 11349 net.cpp:100] Creating Layer conv9/dw
I0623 22:58:49.302376 11349 net.cpp:434] conv9/dw <- conv8
I0623 22:58:49.302400 11349 net.cpp:408] conv9/dw -> conv9/dw
I0623 22:58:49.302655 11349 net.cpp:150] Setting up conv9/dw
I0623 22:58:49.302672 11349 net.cpp:157] Top shape: 24 512 19 19 (4435968)
I0623 22:58:49.302683 11349 net.cpp:165] Memory required for data: 3185897536
I0623 22:58:49.302697 11349 layer_factory.hpp:77] Creating layer conv9/dw/bn
I0623 22:58:49.302711 11349 net.cpp:100] Creating Layer conv9/dw/bn
I0623 22:58:49.302723 11349 net.cpp:434] conv9/dw/bn <- conv9/dw
I0623 22:58:49.302736 11349 net.cpp:395] conv9/dw/bn -> conv9/dw (in-place)
I0623 22:58:49.302978 11349 net.cpp:150] Setting up conv9/dw/bn
I0623 22:58:49.302996 11349 net.cpp:157] Top shape: 24 512 19 19 (4435968)
I0623 22:58:49.303009 11349 net.cpp:165] Memory required for data: 3203641408
I0623 22:58:49.303025 11349 layer_factory.hpp:77] Creating layer conv9/dw/scale
I0623 22:58:49.303040 11349 net.cpp:100] Creating Layer conv9/dw/scale
I0623 22:58:49.303052 11349 net.cpp:434] conv9/dw/scale <- conv9/dw
I0623 22:58:49.303066 11349 net.cpp:395] conv9/dw/scale -> conv9/dw (in-place)
I0623 22:58:49.303126 11349 layer_factory.hpp:77] Creating layer conv9/dw/scale
I0623 22:58:49.303256 11349 net.cpp:150] Setting up conv9/dw/scale
I0623 22:58:49.303287 11349 net.cpp:157] Top shape: 24 512 19 19 (4435968)
I0623 22:58:49.303362 11349 net.cpp:165] Memory required for data: 3221385280
I0623 22:58:49.303398 11349 layer_factory.hpp:77] Creating layer conv9/dw/relu
I0623 22:58:49.303443 11349 net.cpp:100] Creating Layer conv9/dw/relu
I0623 22:58:49.303462 11349 net.cpp:434] conv9/dw/relu <- conv9/dw
I0623 22:58:49.303483 11349 net.cpp:395] conv9/dw/relu -> conv9/dw (in-place)
I0623 22:58:49.303515 11349 net.cpp:150] Setting up conv9/dw/relu
I0623 22:58:49.303551 11349 net.cpp:157] Top shape: 24 512 19 19 (4435968)
I0623 22:58:49.303582 11349 net.cpp:165] Memory required for data: 3239129152
I0623 22:58:49.303606 11349 layer_factory.hpp:77] Creating layer conv9
I0623 22:58:49.303627 11349 net.cpp:100] Creating Layer conv9
I0623 22:58:49.303645 11349 net.cpp:434] conv9 <- conv9/dw
I0623 22:58:49.303665 11349 net.cpp:408] conv9 -> conv9
I0623 22:58:49.307139 11349 net.cpp:150] Setting up conv9
I0623 22:58:49.307160 11349 net.cpp:157] Top shape: 24 512 19 19 (4435968)
I0623 22:58:49.307173 11349 net.cpp:165] Memory required for data: 3256873024
I0623 22:58:49.307185 11349 layer_factory.hpp:77] Creating layer conv9/bn
I0623 22:58:49.307201 11349 net.cpp:100] Creating Layer conv9/bn
I0623 22:58:49.307214 11349 net.cpp:434] conv9/bn <- conv9
I0623 22:58:49.307229 11349 net.cpp:395] conv9/bn -> conv9 (in-place)
I0623 22:58:49.307430 11349 net.cpp:150] Setting up conv9/bn
I0623 22:58:49.307446 11349 net.cpp:157] Top shape: 24 512 19 19 (4435968)
I0623 22:58:49.307458 11349 net.cpp:165] Memory required for data: 3274616896
I0623 22:58:49.307474 11349 layer_factory.hpp:77] Creating layer conv9/scale
I0623 22:58:49.307490 11349 net.cpp:100] Creating Layer conv9/scale
I0623 22:58:49.307502 11349 net.cpp:434] conv9/scale <- conv9
I0623 22:58:49.307516 11349 net.cpp:395] conv9/scale -> conv9 (in-place)
I0623 22:58:49.307566 11349 layer_factory.hpp:77] Creating layer conv9/scale
I0623 22:58:49.307687 11349 net.cpp:150] Setting up conv9/scale
I0623 22:58:49.307703 11349 net.cpp:157] Top shape: 24 512 19 19 (4435968)
I0623 22:58:49.307715 11349 net.cpp:165] Memory required for data: 3292360768
I0623 22:58:49.307729 11349 layer_factory.hpp:77] Creating layer conv9/relu
I0623 22:58:49.307744 11349 net.cpp:100] Creating Layer conv9/relu
I0623 22:58:49.307756 11349 net.cpp:434] conv9/relu <- conv9
I0623 22:58:49.307770 11349 net.cpp:395] conv9/relu -> conv9 (in-place)
I0623 22:58:49.307783 11349 net.cpp:150] Setting up conv9/relu
I0623 22:58:49.307796 11349 net.cpp:157] Top shape: 24 512 19 19 (4435968)
I0623 22:58:49.307808 11349 net.cpp:165] Memory required for data: 3310104640
I0623 22:58:49.307819 11349 layer_factory.hpp:77] Creating layer conv10/dw
I0623 22:58:49.307837 11349 net.cpp:100] Creating Layer conv10/dw
I0623 22:58:49.307848 11349 net.cpp:434] conv10/dw <- conv9
I0623 22:58:49.307863 11349 net.cpp:408] conv10/dw -> conv10/dw
I0623 22:58:49.308109 11349 net.cpp:150] Setting up conv10/dw
I0623 22:58:49.308125 11349 net.cpp:157] Top shape: 24 512 19 19 (4435968)
I0623 22:58:49.308137 11349 net.cpp:165] Memory required for data: 3327848512
I0623 22:58:49.308151 11349 layer_factory.hpp:77] Creating layer conv10/dw/bn
I0623 22:58:49.308166 11349 net.cpp:100] Creating Layer conv10/dw/bn
I0623 22:58:49.308176 11349 net.cpp:434] conv10/dw/bn <- conv10/dw
I0623 22:58:49.308190 11349 net.cpp:395] conv10/dw/bn -> conv10/dw (in-place)
I0623 22:58:49.308387 11349 net.cpp:150] Setting up conv10/dw/bn
I0623 22:58:49.308403 11349 net.cpp:157] Top shape: 24 512 19 19 (4435968)
I0623 22:58:49.308413 11349 net.cpp:165] Memory required for data: 3345592384
I0623 22:58:49.308429 11349 layer_factory.hpp:77] Creating layer conv10/dw/scale
I0623 22:58:49.308445 11349 net.cpp:100] Creating Layer conv10/dw/scale
I0623 22:58:49.308457 11349 net.cpp:434] conv10/dw/scale <- conv10/dw
I0623 22:58:49.308470 11349 net.cpp:395] conv10/dw/scale -> conv10/dw (in-place)
I0623 22:58:49.308518 11349 layer_factory.hpp:77] Creating layer conv10/dw/scale
I0623 22:58:49.308640 11349 net.cpp:150] Setting up conv10/dw/scale
I0623 22:58:49.308655 11349 net.cpp:157] Top shape: 24 512 19 19 (4435968)
I0623 22:58:49.308670 11349 net.cpp:165] Memory required for data: 3363336256
I0623 22:58:49.308686 11349 layer_factory.hpp:77] Creating layer conv10/dw/relu
I0623 22:58:49.308709 11349 net.cpp:100] Creating Layer conv10/dw/relu
I0623 22:58:49.308722 11349 net.cpp:434] conv10/dw/relu <- conv10/dw
I0623 22:58:49.308735 11349 net.cpp:395] conv10/dw/relu -> conv10/dw (in-place)
I0623 22:58:49.308749 11349 net.cpp:150] Setting up conv10/dw/relu
I0623 22:58:49.308773 11349 net.cpp:157] Top shape: 24 512 19 19 (4435968)
I0623 22:58:49.308790 11349 net.cpp:165] Memory required for data: 3381080128
I0623 22:58:49.308809 11349 layer_factory.hpp:77] Creating layer conv10
I0623 22:58:49.308828 11349 net.cpp:100] Creating Layer conv10
I0623 22:58:49.308846 11349 net.cpp:434] conv10 <- conv10/dw
I0623 22:58:49.308861 11349 net.cpp:408] conv10 -> conv10
I0623 22:58:49.313246 11349 net.cpp:150] Setting up conv10
I0623 22:58:49.313277 11349 net.cpp:157] Top shape: 24 512 19 19 (4435968)
I0623 22:58:49.313289 11349 net.cpp:165] Memory required for data: 3398824000
I0623 22:58:49.313304 11349 layer_factory.hpp:77] Creating layer conv10/bn
I0623 22:58:49.313320 11349 net.cpp:100] Creating Layer conv10/bn
I0623 22:58:49.313333 11349 net.cpp:434] conv10/bn <- conv10
I0623 22:58:49.313347 11349 net.cpp:395] conv10/bn -> conv10 (in-place)
I0623 22:58:49.313552 11349 net.cpp:150] Setting up conv10/bn
I0623 22:58:49.313568 11349 net.cpp:157] Top shape: 24 512 19 19 (4435968)
I0623 22:58:49.313580 11349 net.cpp:165] Memory required for data: 3416567872
I0623 22:58:49.313596 11349 layer_factory.hpp:77] Creating layer conv10/scale
I0623 22:58:49.313611 11349 net.cpp:100] Creating Layer conv10/scale
I0623 22:58:49.313622 11349 net.cpp:434] conv10/scale <- conv10
I0623 22:58:49.313637 11349 net.cpp:395] conv10/scale -> conv10 (in-place)
I0623 22:58:49.313689 11349 layer_factory.hpp:77] Creating layer conv10/scale
I0623 22:58:49.313812 11349 net.cpp:150] Setting up conv10/scale
I0623 22:58:49.313828 11349 net.cpp:157] Top shape: 24 512 19 19 (4435968)
I0623 22:58:49.313840 11349 net.cpp:165] Memory required for data: 3434311744
I0623 22:58:49.313854 11349 layer_factory.hpp:77] Creating layer conv10/relu
I0623 22:58:49.313868 11349 net.cpp:100] Creating Layer conv10/relu
I0623 22:58:49.313880 11349 net.cpp:434] conv10/relu <- conv10
I0623 22:58:49.313894 11349 net.cpp:395] conv10/relu -> conv10 (in-place)
I0623 22:58:49.313916 11349 net.cpp:150] Setting up conv10/relu
I0623 22:58:49.313938 11349 net.cpp:157] Top shape: 24 512 19 19 (4435968)
I0623 22:58:49.313949 11349 net.cpp:165] Memory required for data: 3452055616
I0623 22:58:49.313967 11349 layer_factory.hpp:77] Creating layer conv11/dw
I0623 22:58:49.313989 11349 net.cpp:100] Creating Layer conv11/dw
I0623 22:58:49.314002 11349 net.cpp:434] conv11/dw <- conv10
I0623 22:58:49.314018 11349 net.cpp:408] conv11/dw -> conv11/dw
I0623 22:58:49.314273 11349 net.cpp:150] Setting up conv11/dw
I0623 22:58:49.314296 11349 net.cpp:157] Top shape: 24 512 19 19 (4435968)
I0623 22:58:49.314318 11349 net.cpp:165] Memory required for data: 3469799488
I0623 22:58:49.314349 11349 layer_factory.hpp:77] Creating layer conv11/dw/bn
I0623 22:58:49.314373 11349 net.cpp:100] Creating Layer conv11/dw/bn
I0623 22:58:49.314404 11349 net.cpp:434] conv11/dw/bn <- conv11/dw
I0623 22:58:49.314457 11349 net.cpp:395] conv11/dw/bn -> conv11/dw (in-place)
I0623 22:58:49.314684 11349 net.cpp:150] Setting up conv11/dw/bn
I0623 22:58:49.314699 11349 net.cpp:157] Top shape: 24 512 19 19 (4435968)
I0623 22:58:49.314712 11349 net.cpp:165] Memory required for data: 3487543360
I0623 22:58:49.314743 11349 layer_factory.hpp:77] Creating layer conv11/dw/scale
I0623 22:58:49.314759 11349 net.cpp:100] Creating Layer conv11/dw/scale
I0623 22:58:49.314771 11349 net.cpp:434] conv11/dw/scale <- conv11/dw
I0623 22:58:49.314785 11349 net.cpp:395] conv11/dw/scale -> conv11/dw (in-place)
I0623 22:58:49.314838 11349 layer_factory.hpp:77] Creating layer conv11/dw/scale
I0623 22:58:49.315001 11349 net.cpp:150] Setting up conv11/dw/scale
I0623 22:58:49.315021 11349 net.cpp:157] Top shape: 24 512 19 19 (4435968)
I0623 22:58:49.315033 11349 net.cpp:165] Memory required for data: 3505287232
I0623 22:58:49.315057 11349 layer_factory.hpp:77] Creating layer conv11/dw/relu
I0623 22:58:49.315073 11349 net.cpp:100] Creating Layer conv11/dw/relu
I0623 22:58:49.315084 11349 net.cpp:434] conv11/dw/relu <- conv11/dw
I0623 22:58:49.315099 11349 net.cpp:395] conv11/dw/relu -> conv11/dw (in-place)
I0623 22:58:49.315112 11349 net.cpp:150] Setting up conv11/dw/relu
I0623 22:58:49.315125 11349 net.cpp:157] Top shape: 24 512 19 19 (4435968)
I0623 22:58:49.315137 11349 net.cpp:165] Memory required for data: 3523031104
I0623 22:58:49.315148 11349 layer_factory.hpp:77] Creating layer conv11
I0623 22:58:49.315165 11349 net.cpp:100] Creating Layer conv11
I0623 22:58:49.315177 11349 net.cpp:434] conv11 <- conv11/dw
I0623 22:58:49.315191 11349 net.cpp:408] conv11 -> conv11
I0623 22:58:49.317517 11349 net.cpp:150] Setting up conv11
I0623 22:58:49.317536 11349 net.cpp:157] Top shape: 24 512 19 19 (4435968)
I0623 22:58:49.317546 11349 net.cpp:165] Memory required for data: 3540774976
I0623 22:58:49.317559 11349 layer_factory.hpp:77] Creating layer conv11/bn
I0623 22:58:49.317570 11349 net.cpp:100] Creating Layer conv11/bn
I0623 22:58:49.317580 11349 net.cpp:434] conv11/bn <- conv11
I0623 22:58:49.317593 11349 net.cpp:395] conv11/bn -> conv11 (in-place)
I0623 22:58:49.317739 11349 net.cpp:150] Setting up conv11/bn
I0623 22:58:49.317752 11349 net.cpp:157] Top shape: 24 512 19 19 (4435968)
I0623 22:58:49.317761 11349 net.cpp:165] Memory required for data: 3558518848
I0623 22:58:49.317775 11349 layer_factory.hpp:77] Creating layer conv11/scale
I0623 22:58:49.317786 11349 net.cpp:100] Creating Layer conv11/scale
I0623 22:58:49.317797 11349 net.cpp:434] conv11/scale <- conv11
I0623 22:58:49.317812 11349 net.cpp:395] conv11/scale -> conv11 (in-place)
I0623 22:58:49.317850 11349 layer_factory.hpp:77] Creating layer conv11/scale
I0623 22:58:49.317941 11349 net.cpp:150] Setting up conv11/scale
I0623 22:58:49.317955 11349 net.cpp:157] Top shape: 24 512 19 19 (4435968)
I0623 22:58:49.317965 11349 net.cpp:165] Memory required for data: 3576262720
I0623 22:58:49.317976 11349 layer_factory.hpp:77] Creating layer conv11/relu
I0623 22:58:49.317987 11349 net.cpp:100] Creating Layer conv11/relu
I0623 22:58:49.317997 11349 net.cpp:434] conv11/relu <- conv11
I0623 22:58:49.318008 11349 net.cpp:395] conv11/relu -> conv11 (in-place)
I0623 22:58:49.318022 11349 net.cpp:150] Setting up conv11/relu
I0623 22:58:49.318032 11349 net.cpp:157] Top shape: 24 512 19 19 (4435968)
I0623 22:58:49.318042 11349 net.cpp:165] Memory required for data: 3594006592
I0623 22:58:49.318053 11349 layer_factory.hpp:77] Creating layer conv11_conv11/relu_0_split
I0623 22:58:49.318064 11349 net.cpp:100] Creating Layer conv11_conv11/relu_0_split
I0623 22:58:49.318074 11349 net.cpp:434] conv11_conv11/relu_0_split <- conv11
I0623 22:58:49.318086 11349 net.cpp:408] conv11_conv11/relu_0_split -> conv11_conv11/relu_0_split_0
I0623 22:58:49.318104 11349 net.cpp:408] conv11_conv11/relu_0_split -> conv11_conv11/relu_0_split_1
I0623 22:58:49.318119 11349 net.cpp:408] conv11_conv11/relu_0_split -> conv11_conv11/relu_0_split_2
I0623 22:58:49.318130 11349 net.cpp:408] conv11_conv11/relu_0_split -> conv11_conv11/relu_0_split_3
I0623 22:58:49.318183 11349 net.cpp:150] Setting up conv11_conv11/relu_0_split
I0623 22:58:49.318195 11349 net.cpp:157] Top shape: 24 512 19 19 (4435968)
I0623 22:58:49.318207 11349 net.cpp:157] Top shape: 24 512 19 19 (4435968)
I0623 22:58:49.318217 11349 net.cpp:157] Top shape: 24 512 19 19 (4435968)
I0623 22:58:49.318228 11349 net.cpp:157] Top shape: 24 512 19 19 (4435968)
I0623 22:58:49.318238 11349 net.cpp:165] Memory required for data: 3664982080
I0623 22:58:49.318248 11349 layer_factory.hpp:77] Creating layer conv12/dw
I0623 22:58:49.318262 11349 net.cpp:100] Creating Layer conv12/dw
I0623 22:58:49.318272 11349 net.cpp:434] conv12/dw <- conv11_conv11/relu_0_split_0
I0623 22:58:49.318285 11349 net.cpp:408] conv12/dw -> conv12/dw
I0623 22:58:49.318470 11349 net.cpp:150] Setting up conv12/dw
I0623 22:58:49.318486 11349 net.cpp:157] Top shape: 24 512 10 10 (1228800)
I0623 22:58:49.318503 11349 net.cpp:165] Memory required for data: 3669897280
I0623 22:58:49.318514 11349 layer_factory.hpp:77] Creating layer conv12/dw/bn
I0623 22:58:49.318526 11349 net.cpp:100] Creating Layer conv12/dw/bn
I0623 22:58:49.318536 11349 net.cpp:434] conv12/dw/bn <- conv12/dw
I0623 22:58:49.318548 11349 net.cpp:395] conv12/dw/bn -> conv12/dw (in-place)
I0623 22:58:49.318709 11349 net.cpp:150] Setting up conv12/dw/bn
I0623 22:58:49.318722 11349 net.cpp:157] Top shape: 24 512 10 10 (1228800)
I0623 22:58:49.318732 11349 net.cpp:165] Memory required for data: 3674812480
I0623 22:58:49.318744 11349 layer_factory.hpp:77] Creating layer conv12/dw/scale
I0623 22:58:49.318756 11349 net.cpp:100] Creating Layer conv12/dw/scale
I0623 22:58:49.318766 11349 net.cpp:434] conv12/dw/scale <- conv12/dw
I0623 22:58:49.318778 11349 net.cpp:395] conv12/dw/scale -> conv12/dw (in-place)
I0623 22:58:49.318814 11349 layer_factory.hpp:77] Creating layer conv12/dw/scale
I0623 22:58:49.318994 11349 net.cpp:150] Setting up conv12/dw/scale
I0623 22:58:49.319033 11349 net.cpp:157] Top shape: 24 512 10 10 (1228800)
I0623 22:58:49.319078 11349 net.cpp:165] Memory required for data: 3679727680
I0623 22:58:49.319118 11349 layer_factory.hpp:77] Creating layer conv12/dw/relu
I0623 22:58:49.319139 11349 net.cpp:100] Creating Layer conv12/dw/relu
I0623 22:58:49.319171 11349 net.cpp:434] conv12/dw/relu <- conv12/dw
I0623 22:58:49.319198 11349 net.cpp:395] conv12/dw/relu -> conv12/dw (in-place)
I0623 22:58:49.319216 11349 net.cpp:150] Setting up conv12/dw/relu
I0623 22:58:49.319234 11349 net.cpp:157] Top shape: 24 512 10 10 (1228800)
I0623 22:58:49.319252 11349 net.cpp:165] Memory required for data: 3684642880
I0623 22:58:49.319262 11349 layer_factory.hpp:77] Creating layer conv12
I0623 22:58:49.319275 11349 net.cpp:100] Creating Layer conv12
I0623 22:58:49.319285 11349 net.cpp:434] conv12 <- conv12/dw
I0623 22:58:49.319298 11349 net.cpp:408] conv12 -> conv12
I0623 22:58:49.324782 11349 net.cpp:150] Setting up conv12
I0623 22:58:49.324831 11349 net.cpp:157] Top shape: 24 1024 10 10 (2457600)
I0623 22:58:49.324841 11349 net.cpp:165] Memory required for data: 3694473280
I0623 22:58:49.324856 11349 layer_factory.hpp:77] Creating layer conv12/bn
I0623 22:58:49.324870 11349 net.cpp:100] Creating Layer conv12/bn
I0623 22:58:49.324882 11349 net.cpp:434] conv12/bn <- conv12
I0623 22:58:49.324893 11349 net.cpp:395] conv12/bn -> conv12 (in-place)
I0623 22:58:49.325059 11349 net.cpp:150] Setting up conv12/bn
I0623 22:58:49.325073 11349 net.cpp:157] Top shape: 24 1024 10 10 (2457600)
I0623 22:58:49.325083 11349 net.cpp:165] Memory required for data: 3704303680
I0623 22:58:49.325095 11349 layer_factory.hpp:77] Creating layer conv12/scale
I0623 22:58:49.325109 11349 net.cpp:100] Creating Layer conv12/scale
I0623 22:58:49.325119 11349 net.cpp:434] conv12/scale <- conv12
I0623 22:58:49.325130 11349 net.cpp:395] conv12/scale -> conv12 (in-place)
I0623 22:58:49.325170 11349 layer_factory.hpp:77] Creating layer conv12/scale
I0623 22:58:49.325263 11349 net.cpp:150] Setting up conv12/scale
I0623 22:58:49.325276 11349 net.cpp:157] Top shape: 24 1024 10 10 (2457600)
I0623 22:58:49.325286 11349 net.cpp:165] Memory required for data: 3714134080
I0623 22:58:49.325299 11349 layer_factory.hpp:77] Creating layer conv12/relu
I0623 22:58:49.325311 11349 net.cpp:100] Creating Layer conv12/relu
I0623 22:58:49.325321 11349 net.cpp:434] conv12/relu <- conv12
I0623 22:58:49.325332 11349 net.cpp:395] conv12/relu -> conv12 (in-place)
I0623 22:58:49.325345 11349 net.cpp:150] Setting up conv12/relu
I0623 22:58:49.325356 11349 net.cpp:157] Top shape: 24 1024 10 10 (2457600)
I0623 22:58:49.325364 11349 net.cpp:165] Memory required for data: 3723964480
I0623 22:58:49.325374 11349 layer_factory.hpp:77] Creating layer conv13/dw
I0623 22:58:49.325392 11349 net.cpp:100] Creating Layer conv13/dw
I0623 22:58:49.325403 11349 net.cpp:434] conv13/dw <- conv12
I0623 22:58:49.325420 11349 net.cpp:408] conv13/dw -> conv13/dw
I0623 22:58:49.325635 11349 net.cpp:150] Setting up conv13/dw
I0623 22:58:49.325657 11349 net.cpp:157] Top shape: 24 1024 10 10 (2457600)
I0623 22:58:49.325667 11349 net.cpp:165] Memory required for data: 3733794880
I0623 22:58:49.325678 11349 layer_factory.hpp:77] Creating layer conv13/dw/bn
I0623 22:58:49.325690 11349 net.cpp:100] Creating Layer conv13/dw/bn
I0623 22:58:49.325700 11349 net.cpp:434] conv13/dw/bn <- conv13/dw
I0623 22:58:49.325711 11349 net.cpp:395] conv13/dw/bn -> conv13/dw (in-place)
I0623 22:58:49.325856 11349 net.cpp:150] Setting up conv13/dw/bn
I0623 22:58:49.325870 11349 net.cpp:157] Top shape: 24 1024 10 10 (2457600)
I0623 22:58:49.325879 11349 net.cpp:165] Memory required for data: 3743625280
I0623 22:58:49.325892 11349 layer_factory.hpp:77] Creating layer conv13/dw/scale
I0623 22:58:49.325903 11349 net.cpp:100] Creating Layer conv13/dw/scale
I0623 22:58:49.325914 11349 net.cpp:434] conv13/dw/scale <- conv13/dw
I0623 22:58:49.325925 11349 net.cpp:395] conv13/dw/scale -> conv13/dw (in-place)
I0623 22:58:49.325961 11349 layer_factory.hpp:77] Creating layer conv13/dw/scale
I0623 22:58:49.326051 11349 net.cpp:150] Setting up conv13/dw/scale
I0623 22:58:49.326064 11349 net.cpp:157] Top shape: 24 1024 10 10 (2457600)
I0623 22:58:49.326074 11349 net.cpp:165] Memory required for data: 3753455680
I0623 22:58:49.326086 11349 layer_factory.hpp:77] Creating layer conv13/dw/relu
I0623 22:58:49.326098 11349 net.cpp:100] Creating Layer conv13/dw/relu
I0623 22:58:49.326108 11349 net.cpp:434] conv13/dw/relu <- conv13/dw
I0623 22:58:49.326119 11349 net.cpp:395] conv13/dw/relu -> conv13/dw (in-place)
I0623 22:58:49.326131 11349 net.cpp:150] Setting up conv13/dw/relu
I0623 22:58:49.326143 11349 net.cpp:157] Top shape: 24 1024 10 10 (2457600)
I0623 22:58:49.326151 11349 net.cpp:165] Memory required for data: 3763286080
I0623 22:58:49.326161 11349 layer_factory.hpp:77] Creating layer conv13
I0623 22:58:49.326175 11349 net.cpp:100] Creating Layer conv13
I0623 22:58:49.326185 11349 net.cpp:434] conv13 <- conv13/dw
I0623 22:58:49.326197 11349 net.cpp:408] conv13 -> conv13
I0623 22:58:49.335186 11349 net.cpp:150] Setting up conv13
I0623 22:58:49.335216 11349 net.cpp:157] Top shape: 24 1024 10 10 (2457600)
I0623 22:58:49.335227 11349 net.cpp:165] Memory required for data: 3773116480
I0623 22:58:49.335238 11349 layer_factory.hpp:77] Creating layer conv13/bn
I0623 22:58:49.335253 11349 net.cpp:100] Creating Layer conv13/bn
I0623 22:58:49.335263 11349 net.cpp:434] conv13/bn <- conv13
I0623 22:58:49.335278 11349 net.cpp:395] conv13/bn -> conv13 (in-place)
I0623 22:58:49.335443 11349 net.cpp:150] Setting up conv13/bn
I0623 22:58:49.335455 11349 net.cpp:157] Top shape: 24 1024 10 10 (2457600)
I0623 22:58:49.335465 11349 net.cpp:165] Memory required for data: 3782946880
I0623 22:58:49.335477 11349 layer_factory.hpp:77] Creating layer conv13/scale
I0623 22:58:49.335490 11349 net.cpp:100] Creating Layer conv13/scale
I0623 22:58:49.335500 11349 net.cpp:434] conv13/scale <- conv13
I0623 22:58:49.335517 11349 net.cpp:395] conv13/scale -> conv13 (in-place)
I0623 22:58:49.335556 11349 layer_factory.hpp:77] Creating layer conv13/scale
I0623 22:58:49.335649 11349 net.cpp:150] Setting up conv13/scale
I0623 22:58:49.335662 11349 net.cpp:157] Top shape: 24 1024 10 10 (2457600)
I0623 22:58:49.335680 11349 net.cpp:165] Memory required for data: 3792777280
I0623 22:58:49.335711 11349 layer_factory.hpp:77] Creating layer conv13/relu
I0623 22:58:49.335747 11349 net.cpp:100] Creating Layer conv13/relu
I0623 22:58:49.335774 11349 net.cpp:434] conv13/relu <- conv13
I0623 22:58:49.335801 11349 net.cpp:395] conv13/relu -> conv13 (in-place)
I0623 22:58:49.335827 11349 net.cpp:150] Setting up conv13/relu
I0623 22:58:49.335839 11349 net.cpp:157] Top shape: 24 1024 10 10 (2457600)
I0623 22:58:49.335847 11349 net.cpp:165] Memory required for data: 3802607680
I0623 22:58:49.335865 11349 layer_factory.hpp:77] Creating layer conv13_conv13/relu_0_split
I0623 22:58:49.335892 11349 net.cpp:100] Creating Layer conv13_conv13/relu_0_split
I0623 22:58:49.335919 11349 net.cpp:434] conv13_conv13/relu_0_split <- conv13
I0623 22:58:49.335955 11349 net.cpp:408] conv13_conv13/relu_0_split -> conv13_conv13/relu_0_split_0
I0623 22:58:49.335999 11349 net.cpp:408] conv13_conv13/relu_0_split -> conv13_conv13/relu_0_split_1
I0623 22:58:49.336026 11349 net.cpp:408] conv13_conv13/relu_0_split -> conv13_conv13/relu_0_split_2
I0623 22:58:49.336071 11349 net.cpp:408] conv13_conv13/relu_0_split -> conv13_conv13/relu_0_split_3
I0623 22:58:49.336154 11349 net.cpp:150] Setting up conv13_conv13/relu_0_split
I0623 22:58:49.336199 11349 net.cpp:157] Top shape: 24 1024 10 10 (2457600)
I0623 22:58:49.336231 11349 net.cpp:157] Top shape: 24 1024 10 10 (2457600)
I0623 22:58:49.336253 11349 net.cpp:157] Top shape: 24 1024 10 10 (2457600)
I0623 22:58:49.336277 11349 net.cpp:157] Top shape: 24 1024 10 10 (2457600)
I0623 22:58:49.336298 11349 net.cpp:165] Memory required for data: 3841929280
I0623 22:58:49.336330 11349 layer_factory.hpp:77] Creating layer conv14_1
I0623 22:58:49.336345 11349 net.cpp:100] Creating Layer conv14_1
I0623 22:58:49.336355 11349 net.cpp:434] conv14_1 <- conv13_conv13/relu_0_split_0
I0623 22:58:49.336369 11349 net.cpp:408] conv14_1 -> conv14_1
I0623 22:58:49.339578 11349 net.cpp:150] Setting up conv14_1
I0623 22:58:49.339606 11349 net.cpp:157] Top shape: 24 256 10 10 (614400)
I0623 22:58:49.339615 11349 net.cpp:165] Memory required for data: 3844386880
I0623 22:58:49.339628 11349 layer_factory.hpp:77] Creating layer conv14_1/bn
I0623 22:58:49.339643 11349 net.cpp:100] Creating Layer conv14_1/bn
I0623 22:58:49.339654 11349 net.cpp:434] conv14_1/bn <- conv14_1
I0623 22:58:49.339668 11349 net.cpp:395] conv14_1/bn -> conv14_1 (in-place)
I0623 22:58:49.339830 11349 net.cpp:150] Setting up conv14_1/bn
I0623 22:58:49.339848 11349 net.cpp:157] Top shape: 24 256 10 10 (614400)
I0623 22:58:49.339857 11349 net.cpp:165] Memory required for data: 3846844480
I0623 22:58:49.339870 11349 layer_factory.hpp:77] Creating layer conv14_1/scale
I0623 22:58:49.339884 11349 net.cpp:100] Creating Layer conv14_1/scale
I0623 22:58:49.339895 11349 net.cpp:434] conv14_1/scale <- conv14_1
I0623 22:58:49.339906 11349 net.cpp:395] conv14_1/scale -> conv14_1 (in-place)
I0623 22:58:49.339946 11349 layer_factory.hpp:77] Creating layer conv14_1/scale
I0623 22:58:49.340035 11349 net.cpp:150] Setting up conv14_1/scale
I0623 22:58:49.340047 11349 net.cpp:157] Top shape: 24 256 10 10 (614400)
I0623 22:58:49.340057 11349 net.cpp:165] Memory required for data: 3849302080
I0623 22:58:49.340070 11349 layer_factory.hpp:77] Creating layer conv14_1/relu
I0623 22:58:49.340082 11349 net.cpp:100] Creating Layer conv14_1/relu
I0623 22:58:49.340092 11349 net.cpp:434] conv14_1/relu <- conv14_1
I0623 22:58:49.340103 11349 net.cpp:395] conv14_1/relu -> conv14_1 (in-place)
I0623 22:58:49.340116 11349 net.cpp:150] Setting up conv14_1/relu
I0623 22:58:49.340126 11349 net.cpp:157] Top shape: 24 256 10 10 (614400)
I0623 22:58:49.340137 11349 net.cpp:165] Memory required for data: 3851759680
I0623 22:58:49.340147 11349 layer_factory.hpp:77] Creating layer conv14_2
I0623 22:58:49.340162 11349 net.cpp:100] Creating Layer conv14_2
I0623 22:58:49.340171 11349 net.cpp:434] conv14_2 <- conv14_1
I0623 22:58:49.340184 11349 net.cpp:408] conv14_2 -> conv14_2
I0623 22:58:49.355837 11349 net.cpp:150] Setting up conv14_2
I0623 22:58:49.355877 11349 net.cpp:157] Top shape: 24 512 5 5 (307200)
I0623 22:58:49.355890 11349 net.cpp:165] Memory required for data: 3852988480
I0623 22:58:49.355907 11349 layer_factory.hpp:77] Creating layer conv14_2/bn
I0623 22:58:49.355926 11349 net.cpp:100] Creating Layer conv14_2/bn
I0623 22:58:49.355939 11349 net.cpp:434] conv14_2/bn <- conv14_2
I0623 22:58:49.355955 11349 net.cpp:395] conv14_2/bn -> conv14_2 (in-place)
I0623 22:58:49.356180 11349 net.cpp:150] Setting up conv14_2/bn
I0623 22:58:49.356196 11349 net.cpp:157] Top shape: 24 512 5 5 (307200)
I0623 22:58:49.356209 11349 net.cpp:165] Memory required for data: 3854217280
I0623 22:58:49.356231 11349 layer_factory.hpp:77] Creating layer conv14_2/scale
I0623 22:58:49.356248 11349 net.cpp:100] Creating Layer conv14_2/scale
I0623 22:58:49.356272 11349 net.cpp:434] conv14_2/scale <- conv14_2
I0623 22:58:49.356289 11349 net.cpp:395] conv14_2/scale -> conv14_2 (in-place)
I0623 22:58:49.356345 11349 layer_factory.hpp:77] Creating layer conv14_2/scale
I0623 22:58:49.356513 11349 net.cpp:150] Setting up conv14_2/scale
I0623 22:58:49.356549 11349 net.cpp:157] Top shape: 24 512 5 5 (307200)
I0623 22:58:49.356566 11349 net.cpp:165] Memory required for data: 3855446080
I0623 22:58:49.356585 11349 layer_factory.hpp:77] Creating layer conv14_2/relu
I0623 22:58:49.356598 11349 net.cpp:100] Creating Layer conv14_2/relu
I0623 22:58:49.356609 11349 net.cpp:434] conv14_2/relu <- conv14_2
I0623 22:58:49.356622 11349 net.cpp:395] conv14_2/relu -> conv14_2 (in-place)
I0623 22:58:49.356637 11349 net.cpp:150] Setting up conv14_2/relu
I0623 22:58:49.356648 11349 net.cpp:157] Top shape: 24 512 5 5 (307200)
I0623 22:58:49.356659 11349 net.cpp:165] Memory required for data: 3856674880
I0623 22:58:49.356670 11349 layer_factory.hpp:77] Creating layer conv14_2_conv14_2/relu_0_split
I0623 22:58:49.356685 11349 net.cpp:100] Creating Layer conv14_2_conv14_2/relu_0_split
I0623 22:58:49.356698 11349 net.cpp:434] conv14_2_conv14_2/relu_0_split <- conv14_2
I0623 22:58:49.356710 11349 net.cpp:408] conv14_2_conv14_2/relu_0_split -> conv14_2_conv14_2/relu_0_split_0
I0623 22:58:49.356729 11349 net.cpp:408] conv14_2_conv14_2/relu_0_split -> conv14_2_conv14_2/relu_0_split_1
I0623 22:58:49.356743 11349 net.cpp:408] conv14_2_conv14_2/relu_0_split -> conv14_2_conv14_2/relu_0_split_2
I0623 22:58:49.356758 11349 net.cpp:408] conv14_2_conv14_2/relu_0_split -> conv14_2_conv14_2/relu_0_split_3
I0623 22:58:49.356825 11349 net.cpp:150] Setting up conv14_2_conv14_2/relu_0_split
I0623 22:58:49.356840 11349 net.cpp:157] Top shape: 24 512 5 5 (307200)
I0623 22:58:49.356856 11349 net.cpp:157] Top shape: 24 512 5 5 (307200)
I0623 22:58:49.356874 11349 net.cpp:157] Top shape: 24 512 5 5 (307200)
I0623 22:58:49.356892 11349 net.cpp:157] Top shape: 24 512 5 5 (307200)
I0623 22:58:49.356904 11349 net.cpp:165] Memory required for data: 3861590080
I0623 22:58:49.356914 11349 layer_factory.hpp:77] Creating layer conv15_1
I0623 22:58:49.356935 11349 net.cpp:100] Creating Layer conv15_1
I0623 22:58:49.356953 11349 net.cpp:434] conv15_1 <- conv14_2_conv14_2/relu_0_split_0
I0623 22:58:49.356972 11349 net.cpp:408] conv15_1 -> conv15_1
I0623 22:58:49.358160 11349 net.cpp:150] Setting up conv15_1
I0623 22:58:49.358175 11349 net.cpp:157] Top shape: 24 128 5 5 (76800)
I0623 22:58:49.358186 11349 net.cpp:165] Memory required for data: 3861897280
I0623 22:58:49.358199 11349 layer_factory.hpp:77] Creating layer conv15_1/bn
I0623 22:58:49.358213 11349 net.cpp:100] Creating Layer conv15_1/bn
I0623 22:58:49.358225 11349 net.cpp:434] conv15_1/bn <- conv15_1
I0623 22:58:49.358238 11349 net.cpp:395] conv15_1/bn -> conv15_1 (in-place)
I0623 22:58:49.358431 11349 net.cpp:150] Setting up conv15_1/bn
I0623 22:58:49.358448 11349 net.cpp:157] Top shape: 24 128 5 5 (76800)
I0623 22:58:49.358466 11349 net.cpp:165] Memory required for data: 3862204480
I0623 22:58:49.358489 11349 layer_factory.hpp:77] Creating layer conv15_1/scale
I0623 22:58:49.358511 11349 net.cpp:100] Creating Layer conv15_1/scale
I0623 22:58:49.358530 11349 net.cpp:434] conv15_1/scale <- conv15_1
I0623 22:58:49.358552 11349 net.cpp:395] conv15_1/scale -> conv15_1 (in-place)
I0623 22:58:49.358603 11349 layer_factory.hpp:77] Creating layer conv15_1/scale
I0623 22:58:49.358731 11349 net.cpp:150] Setting up conv15_1/scale
I0623 22:58:49.358752 11349 net.cpp:157] Top shape: 24 128 5 5 (76800)
I0623 22:58:49.358770 11349 net.cpp:165] Memory required for data: 3862511680
I0623 22:58:49.358793 11349 layer_factory.hpp:77] Creating layer conv15_1/relu
I0623 22:58:49.358811 11349 net.cpp:100] Creating Layer conv15_1/relu
I0623 22:58:49.358829 11349 net.cpp:434] conv15_1/relu <- conv15_1
I0623 22:58:49.358847 11349 net.cpp:395] conv15_1/relu -> conv15_1 (in-place)
I0623 22:58:49.359041 11349 net.cpp:150] Setting up conv15_1/relu
I0623 22:58:49.359072 11349 net.cpp:157] Top shape: 24 128 5 5 (76800)
I0623 22:58:49.359095 11349 net.cpp:165] Memory required for data: 3862818880
I0623 22:58:49.359113 11349 layer_factory.hpp:77] Creating layer conv15_2
I0623 22:58:49.359135 11349 net.cpp:100] Creating Layer conv15_2
I0623 22:58:49.359153 11349 net.cpp:434] conv15_2 <- conv15_1
I0623 22:58:49.359176 11349 net.cpp:408] conv15_2 -> conv15_2
I0623 22:58:49.364151 11349 net.cpp:150] Setting up conv15_2
I0623 22:58:49.364187 11349 net.cpp:157] Top shape: 24 256 3 3 (55296)
I0623 22:58:49.364204 11349 net.cpp:165] Memory required for data: 3863040064
I0623 22:58:49.364223 11349 layer_factory.hpp:77] Creating layer conv15_2/bn
I0623 22:58:49.364245 11349 net.cpp:100] Creating Layer conv15_2/bn
I0623 22:58:49.364264 11349 net.cpp:434] conv15_2/bn <- conv15_2
I0623 22:58:49.364286 11349 net.cpp:395] conv15_2/bn -> conv15_2 (in-place)
I0623 22:58:49.364500 11349 net.cpp:150] Setting up conv15_2/bn
I0623 22:58:49.364521 11349 net.cpp:157] Top shape: 24 256 3 3 (55296)
I0623 22:58:49.364548 11349 net.cpp:165] Memory required for data: 3863261248
I0623 22:58:49.364580 11349 layer_factory.hpp:77] Creating layer conv15_2/scale
I0623 22:58:49.364608 11349 net.cpp:100] Creating Layer conv15_2/scale
I0623 22:58:49.364634 11349 net.cpp:434] conv15_2/scale <- conv15_2
I0623 22:58:49.364687 11349 net.cpp:395] conv15_2/scale -> conv15_2 (in-place)
I0623 22:58:49.364768 11349 layer_factory.hpp:77] Creating layer conv15_2/scale
I0623 22:58:49.364890 11349 net.cpp:150] Setting up conv15_2/scale
I0623 22:58:49.364912 11349 net.cpp:157] Top shape: 24 256 3 3 (55296)
I0623 22:58:49.364930 11349 net.cpp:165] Memory required for data: 3863482432
I0623 22:58:49.364948 11349 layer_factory.hpp:77] Creating layer conv15_2/relu
I0623 22:58:49.364980 11349 net.cpp:100] Creating Layer conv15_2/relu
I0623 22:58:49.364998 11349 net.cpp:434] conv15_2/relu <- conv15_2
I0623 22:58:49.365021 11349 net.cpp:395] conv15_2/relu -> conv15_2 (in-place)
I0623 22:58:49.365039 11349 net.cpp:150] Setting up conv15_2/relu
I0623 22:58:49.365057 11349 net.cpp:157] Top shape: 24 256 3 3 (55296)
I0623 22:58:49.365075 11349 net.cpp:165] Memory required for data: 3863703616
I0623 22:58:49.365093 11349 layer_factory.hpp:77] Creating layer conv15_2_conv15_2/relu_0_split
I0623 22:58:49.365111 11349 net.cpp:100] Creating Layer conv15_2_conv15_2/relu_0_split
I0623 22:58:49.365129 11349 net.cpp:434] conv15_2_conv15_2/relu_0_split <- conv15_2
I0623 22:58:49.365151 11349 net.cpp:408] conv15_2_conv15_2/relu_0_split -> conv15_2_conv15_2/relu_0_split_0
I0623 22:58:49.365175 11349 net.cpp:408] conv15_2_conv15_2/relu_0_split -> conv15_2_conv15_2/relu_0_split_1
I0623 22:58:49.365206 11349 net.cpp:408] conv15_2_conv15_2/relu_0_split -> conv15_2_conv15_2/relu_0_split_2
I0623 22:58:49.365263 11349 net.cpp:408] conv15_2_conv15_2/relu_0_split -> conv15_2_conv15_2/relu_0_split_3
I0623 22:58:49.365345 11349 net.cpp:150] Setting up conv15_2_conv15_2/relu_0_split
I0623 22:58:49.365363 11349 net.cpp:157] Top shape: 24 256 3 3 (55296)
I0623 22:58:49.365381 11349 net.cpp:157] Top shape: 24 256 3 3 (55296)
I0623 22:58:49.365399 11349 net.cpp:157] Top shape: 24 256 3 3 (55296)
I0623 22:58:49.365417 11349 net.cpp:157] Top shape: 24 256 3 3 (55296)
I0623 22:58:49.365435 11349 net.cpp:165] Memory required for data: 3864588352
I0623 22:58:49.365453 11349 layer_factory.hpp:77] Creating layer conv16_1
I0623 22:58:49.365480 11349 net.cpp:100] Creating Layer conv16_1
I0623 22:58:49.365499 11349 net.cpp:434] conv16_1 <- conv15_2_conv15_2/relu_0_split_0
I0623 22:58:49.365516 11349 net.cpp:408] conv16_1 -> conv16_1
I0623 22:58:49.366150 11349 net.cpp:150] Setting up conv16_1
I0623 22:58:49.366173 11349 net.cpp:157] Top shape: 24 128 3 3 (27648)
I0623 22:58:49.366190 11349 net.cpp:165] Memory required for data: 3864698944
I0623 22:58:49.366209 11349 layer_factory.hpp:77] Creating layer conv16_1/bn
I0623 22:58:49.366231 11349 net.cpp:100] Creating Layer conv16_1/bn
I0623 22:58:49.366255 11349 net.cpp:434] conv16_1/bn <- conv16_1
I0623 22:58:49.366272 11349 net.cpp:395] conv16_1/bn -> conv16_1 (in-place)
I0623 22:58:49.366506 11349 net.cpp:150] Setting up conv16_1/bn
I0623 22:58:49.366529 11349 net.cpp:157] Top shape: 24 128 3 3 (27648)
I0623 22:58:49.366547 11349 net.cpp:165] Memory required for data: 3864809536
I0623 22:58:49.366570 11349 layer_factory.hpp:77] Creating layer conv16_1/scale
I0623 22:58:49.366592 11349 net.cpp:100] Creating Layer conv16_1/scale
I0623 22:58:49.366611 11349 net.cpp:434] conv16_1/scale <- conv16_1
I0623 22:58:49.366633 11349 net.cpp:395] conv16_1/scale -> conv16_1 (in-place)
I0623 22:58:49.366689 11349 layer_factory.hpp:77] Creating layer conv16_1/scale
I0623 22:58:49.366816 11349 net.cpp:150] Setting up conv16_1/scale
I0623 22:58:49.366838 11349 net.cpp:157] Top shape: 24 128 3 3 (27648)
I0623 22:58:49.366856 11349 net.cpp:165] Memory required for data: 3864920128
I0623 22:58:49.367041 11349 layer_factory.hpp:77] Creating layer conv16_1/relu
I0623 22:58:49.367063 11349 net.cpp:100] Creating Layer conv16_1/relu
I0623 22:58:49.367081 11349 net.cpp:434] conv16_1/relu <- conv16_1
I0623 22:58:49.367105 11349 net.cpp:395] conv16_1/relu -> conv16_1 (in-place)
I0623 22:58:49.367127 11349 net.cpp:150] Setting up conv16_1/relu
I0623 22:58:49.367149 11349 net.cpp:157] Top shape: 24 128 3 3 (27648)
I0623 22:58:49.367167 11349 net.cpp:165] Memory required for data: 3865030720
I0623 22:58:49.367185 11349 layer_factory.hpp:77] Creating layer conv16_2
I0623 22:58:49.367208 11349 net.cpp:100] Creating Layer conv16_2
I0623 22:58:49.367226 11349 net.cpp:434] conv16_2 <- conv16_1
I0623 22:58:49.367249 11349 net.cpp:408] conv16_2 -> conv16_2
I0623 22:58:49.373122 11349 net.cpp:150] Setting up conv16_2
I0623 22:58:49.373163 11349 net.cpp:157] Top shape: 24 256 2 2 (24576)
I0623 22:58:49.373180 11349 net.cpp:165] Memory required for data: 3865129024
I0623 22:58:49.373203 11349 layer_factory.hpp:77] Creating layer conv16_2/bn
I0623 22:58:49.373225 11349 net.cpp:100] Creating Layer conv16_2/bn
I0623 22:58:49.373244 11349 net.cpp:434] conv16_2/bn <- conv16_2
I0623 22:58:49.373266 11349 net.cpp:395] conv16_2/bn -> conv16_2 (in-place)
I0623 22:58:49.373486 11349 net.cpp:150] Setting up conv16_2/bn
I0623 22:58:49.373517 11349 net.cpp:157] Top shape: 24 256 2 2 (24576)
I0623 22:58:49.373535 11349 net.cpp:165] Memory required for data: 3865227328
I0623 22:58:49.373562 11349 layer_factory.hpp:77] Creating layer conv16_2/scale
I0623 22:58:49.373625 11349 net.cpp:100] Creating Layer conv16_2/scale
I0623 22:58:49.373667 11349 net.cpp:434] conv16_2/scale <- conv16_2
I0623 22:58:49.373690 11349 net.cpp:395] conv16_2/scale -> conv16_2 (in-place)
I0623 22:58:49.373754 11349 layer_factory.hpp:77] Creating layer conv16_2/scale
I0623 22:58:49.373914 11349 net.cpp:150] Setting up conv16_2/scale
I0623 22:58:49.373941 11349 net.cpp:157] Top shape: 24 256 2 2 (24576)
I0623 22:58:49.373960 11349 net.cpp:165] Memory required for data: 3865325632
I0623 22:58:49.374002 11349 layer_factory.hpp:77] Creating layer conv16_2/relu
I0623 22:58:49.374033 11349 net.cpp:100] Creating Layer conv16_2/relu
I0623 22:58:49.374052 11349 net.cpp:434] conv16_2/relu <- conv16_2
I0623 22:58:49.374074 11349 net.cpp:395] conv16_2/relu -> conv16_2 (in-place)
I0623 22:58:49.374092 11349 net.cpp:150] Setting up conv16_2/relu
I0623 22:58:49.374110 11349 net.cpp:157] Top shape: 24 256 2 2 (24576)
I0623 22:58:49.374128 11349 net.cpp:165] Memory required for data: 3865423936
I0623 22:58:49.374146 11349 layer_factory.hpp:77] Creating layer conv16_2_conv16_2/relu_0_split
I0623 22:58:49.374168 11349 net.cpp:100] Creating Layer conv16_2_conv16_2/relu_0_split
I0623 22:58:49.374186 11349 net.cpp:434] conv16_2_conv16_2/relu_0_split <- conv16_2
I0623 22:58:49.374209 11349 net.cpp:408] conv16_2_conv16_2/relu_0_split -> conv16_2_conv16_2/relu_0_split_0
I0623 22:58:49.374231 11349 net.cpp:408] conv16_2_conv16_2/relu_0_split -> conv16_2_conv16_2/relu_0_split_1
I0623 22:58:49.374251 11349 net.cpp:408] conv16_2_conv16_2/relu_0_split -> conv16_2_conv16_2/relu_0_split_2
I0623 22:58:49.374279 11349 net.cpp:408] conv16_2_conv16_2/relu_0_split -> conv16_2_conv16_2/relu_0_split_3
I0623 22:58:49.374372 11349 net.cpp:150] Setting up conv16_2_conv16_2/relu_0_split
I0623 22:58:49.374395 11349 net.cpp:157] Top shape: 24 256 2 2 (24576)
I0623 22:58:49.374413 11349 net.cpp:157] Top shape: 24 256 2 2 (24576)
I0623 22:58:49.374430 11349 net.cpp:157] Top shape: 24 256 2 2 (24576)
I0623 22:58:49.374449 11349 net.cpp:157] Top shape: 24 256 2 2 (24576)
I0623 22:58:49.374466 11349 net.cpp:165] Memory required for data: 3865817152
I0623 22:58:49.374485 11349 layer_factory.hpp:77] Creating layer conv17_1
I0623 22:58:49.374507 11349 net.cpp:100] Creating Layer conv17_1
I0623 22:58:49.374526 11349 net.cpp:434] conv17_1 <- conv16_2_conv16_2/relu_0_split_0
I0623 22:58:49.374544 11349 net.cpp:408] conv17_1 -> conv17_1
I0623 22:58:49.375097 11349 net.cpp:150] Setting up conv17_1
I0623 22:58:49.375124 11349 net.cpp:157] Top shape: 24 64 2 2 (6144)
I0623 22:58:49.375151 11349 net.cpp:165] Memory required for data: 3865841728
I0623 22:58:49.375169 11349 layer_factory.hpp:77] Creating layer conv17_1/bn
I0623 22:58:49.375192 11349 net.cpp:100] Creating Layer conv17_1/bn
I0623 22:58:49.375211 11349 net.cpp:434] conv17_1/bn <- conv17_1
I0623 22:58:49.375232 11349 net.cpp:395] conv17_1/bn -> conv17_1 (in-place)
I0623 22:58:49.375443 11349 net.cpp:150] Setting up conv17_1/bn
I0623 22:58:49.375465 11349 net.cpp:157] Top shape: 24 64 2 2 (6144)
I0623 22:58:49.375483 11349 net.cpp:165] Memory required for data: 3865866304
I0623 22:58:49.375506 11349 layer_factory.hpp:77] Creating layer conv17_1/scale
I0623 22:58:49.375528 11349 net.cpp:100] Creating Layer conv17_1/scale
I0623 22:58:49.375546 11349 net.cpp:434] conv17_1/scale <- conv17_1
I0623 22:58:49.375569 11349 net.cpp:395] conv17_1/scale -> conv17_1 (in-place)
I0623 22:58:49.375633 11349 layer_factory.hpp:77] Creating layer conv17_1/scale
I0623 22:58:49.375785 11349 net.cpp:150] Setting up conv17_1/scale
I0623 22:58:49.375821 11349 net.cpp:157] Top shape: 24 64 2 2 (6144)
I0623 22:58:49.375844 11349 net.cpp:165] Memory required for data: 3865890880
I0623 22:58:49.375880 11349 layer_factory.hpp:77] Creating layer conv17_1/relu
I0623 22:58:49.375906 11349 net.cpp:100] Creating Layer conv17_1/relu
I0623 22:58:49.375933 11349 net.cpp:434] conv17_1/relu <- conv17_1
I0623 22:58:49.375952 11349 net.cpp:395] conv17_1/relu -> conv17_1 (in-place)
I0623 22:58:49.375974 11349 net.cpp:150] Setting up conv17_1/relu
I0623 22:58:49.375996 11349 net.cpp:157] Top shape: 24 64 2 2 (6144)
I0623 22:58:49.376014 11349 net.cpp:165] Memory required for data: 3865915456
I0623 22:58:49.376032 11349 layer_factory.hpp:77] Creating layer conv17_2
I0623 22:58:49.376060 11349 net.cpp:100] Creating Layer conv17_2
I0623 22:58:49.376077 11349 net.cpp:434] conv17_2 <- conv17_1
I0623 22:58:49.376101 11349 net.cpp:408] conv17_2 -> conv17_2
I0623 22:58:49.377336 11349 net.cpp:150] Setting up conv17_2
I0623 22:58:49.377362 11349 net.cpp:157] Top shape: 24 128 1 1 (3072)
I0623 22:58:49.377384 11349 net.cpp:165] Memory required for data: 3865927744
I0623 22:58:49.377444 11349 layer_factory.hpp:77] Creating layer conv17_2/bn
I0623 22:58:49.377488 11349 net.cpp:100] Creating Layer conv17_2/bn
I0623 22:58:49.377511 11349 net.cpp:434] conv17_2/bn <- conv17_2
I0623 22:58:49.377552 11349 net.cpp:395] conv17_2/bn -> conv17_2 (in-place)
I0623 22:58:49.377758 11349 net.cpp:150] Setting up conv17_2/bn
I0623 22:58:49.377781 11349 net.cpp:157] Top shape: 24 128 1 1 (3072)
I0623 22:58:49.377799 11349 net.cpp:165] Memory required for data: 3865940032
I0623 22:58:49.377826 11349 layer_factory.hpp:77] Creating layer conv17_2/scale
I0623 22:58:49.377871 11349 net.cpp:100] Creating Layer conv17_2/scale
I0623 22:58:49.377898 11349 net.cpp:434] conv17_2/scale <- conv17_2
I0623 22:58:49.377925 11349 net.cpp:395] conv17_2/scale -> conv17_2 (in-place)
I0623 22:58:49.377979 11349 layer_factory.hpp:77] Creating layer conv17_2/scale
I0623 22:58:49.378118 11349 net.cpp:150] Setting up conv17_2/scale
I0623 22:58:49.378144 11349 net.cpp:157] Top shape: 24 128 1 1 (3072)
I0623 22:58:49.378171 11349 net.cpp:165] Memory required for data: 3865952320
I0623 22:58:49.378207 11349 layer_factory.hpp:77] Creating layer conv17_2/relu
I0623 22:58:49.378238 11349 net.cpp:100] Creating Layer conv17_2/relu
I0623 22:58:49.378274 11349 net.cpp:434] conv17_2/relu <- conv17_2
I0623 22:58:49.378306 11349 net.cpp:395] conv17_2/relu -> conv17_2 (in-place)
I0623 22:58:49.378329 11349 net.cpp:150] Setting up conv17_2/relu
I0623 22:58:49.378351 11349 net.cpp:157] Top shape: 24 128 1 1 (3072)
I0623 22:58:49.378382 11349 net.cpp:165] Memory required for data: 3865964608
I0623 22:58:49.378432 11349 layer_factory.hpp:77] Creating layer conv17_2_conv17_2/relu_0_split
I0623 22:58:49.378468 11349 net.cpp:100] Creating Layer conv17_2_conv17_2/relu_0_split
I0623 22:58:49.378490 11349 net.cpp:434] conv17_2_conv17_2/relu_0_split <- conv17_2
I0623 22:58:49.378517 11349 net.cpp:408] conv17_2_conv17_2/relu_0_split -> conv17_2_conv17_2/relu_0_split_0
I0623 22:58:49.378553 11349 net.cpp:408] conv17_2_conv17_2/relu_0_split -> conv17_2_conv17_2/relu_0_split_1
I0623 22:58:49.378594 11349 net.cpp:408] conv17_2_conv17_2/relu_0_split -> conv17_2_conv17_2/relu_0_split_2
I0623 22:58:49.378693 11349 net.cpp:150] Setting up conv17_2_conv17_2/relu_0_split
I0623 22:58:49.378720 11349 net.cpp:157] Top shape: 24 128 1 1 (3072)
I0623 22:58:49.378742 11349 net.cpp:157] Top shape: 24 128 1 1 (3072)
I0623 22:58:49.378769 11349 net.cpp:157] Top shape: 24 128 1 1 (3072)
I0623 22:58:49.378793 11349 net.cpp:165] Memory required for data: 3866001472
I0623 22:58:49.378810 11349 layer_factory.hpp:77] Creating layer conv11_mbox_loc
I0623 22:58:49.378837 11349 net.cpp:100] Creating Layer conv11_mbox_loc
I0623 22:58:49.378999 11349 net.cpp:434] conv11_mbox_loc <- conv11_conv11/relu_0_split_1
I0623 22:58:49.379030 11349 net.cpp:408] conv11_mbox_loc -> conv11_mbox_loc
I0623 22:58:49.379395 11349 net.cpp:150] Setting up conv11_mbox_loc
I0623 22:58:49.379422 11349 net.cpp:157] Top shape: 24 12 19 19 (103968)
I0623 22:58:49.379441 11349 net.cpp:165] Memory required for data: 3866417344
I0623 22:58:49.379467 11349 layer_factory.hpp:77] Creating layer conv11_mbox_loc_perm
I0623 22:58:49.379494 11349 net.cpp:100] Creating Layer conv11_mbox_loc_perm
I0623 22:58:49.379513 11349 net.cpp:434] conv11_mbox_loc_perm <- conv11_mbox_loc
I0623 22:58:49.379544 11349 net.cpp:408] conv11_mbox_loc_perm -> conv11_mbox_loc_perm
I0623 22:58:49.379680 11349 net.cpp:150] Setting up conv11_mbox_loc_perm
I0623 22:58:49.379725 11349 net.cpp:157] Top shape: 24 19 19 12 (103968)
I0623 22:58:49.379743 11349 net.cpp:165] Memory required for data: 3866833216
I0623 22:58:49.379779 11349 layer_factory.hpp:77] Creating layer conv11_mbox_loc_flat
I0623 22:58:49.379819 11349 net.cpp:100] Creating Layer conv11_mbox_loc_flat
I0623 22:58:49.379837 11349 net.cpp:434] conv11_mbox_loc_flat <- conv11_mbox_loc_perm
I0623 22:58:49.379860 11349 net.cpp:408] conv11_mbox_loc_flat -> conv11_mbox_loc_flat
I0623 22:58:49.379896 11349 net.cpp:150] Setting up conv11_mbox_loc_flat
I0623 22:58:49.379920 11349 net.cpp:157] Top shape: 24 4332 (103968)
I0623 22:58:49.379937 11349 net.cpp:165] Memory required for data: 3867249088
I0623 22:58:49.379956 11349 layer_factory.hpp:77] Creating layer conv11_mbox_conf_new
I0623 22:58:49.379992 11349 net.cpp:100] Creating Layer conv11_mbox_conf_new
I0623 22:58:49.380023 11349 net.cpp:434] conv11_mbox_conf_new <- conv11_conv11/relu_0_split_2
I0623 22:58:49.380054 11349 net.cpp:408] conv11_mbox_conf_new -> conv11_mbox_conf
I0623 22:58:49.380386 11349 net.cpp:150] Setting up conv11_mbox_conf_new
I0623 22:58:49.380409 11349 net.cpp:157] Top shape: 24 9 19 19 (77976)
I0623 22:58:49.380440 11349 net.cpp:165] Memory required for data: 3867560992
I0623 22:58:49.380472 11349 layer_factory.hpp:77] Creating layer conv11_mbox_conf_perm
I0623 22:58:49.380503 11349 net.cpp:100] Creating Layer conv11_mbox_conf_perm
I0623 22:58:49.380535 11349 net.cpp:434] conv11_mbox_conf_perm <- conv11_mbox_conf
I0623 22:58:49.380563 11349 net.cpp:408] conv11_mbox_conf_perm -> conv11_mbox_conf_perm
I0623 22:58:49.380683 11349 net.cpp:150] Setting up conv11_mbox_conf_perm
I0623 22:58:49.380719 11349 net.cpp:157] Top shape: 24 19 19 9 (77976)
I0623 22:58:49.380743 11349 net.cpp:165] Memory required for data: 3867872896
I0623 22:58:49.380774 11349 layer_factory.hpp:77] Creating layer conv11_mbox_conf_flat
I0623 22:58:49.380800 11349 net.cpp:100] Creating Layer conv11_mbox_conf_flat
I0623 22:58:49.380836 11349 net.cpp:434] conv11_mbox_conf_flat <- conv11_mbox_conf_perm
I0623 22:58:49.380868 11349 net.cpp:408] conv11_mbox_conf_flat -> conv11_mbox_conf_flat
I0623 22:58:49.380913 11349 net.cpp:150] Setting up conv11_mbox_conf_flat
I0623 22:58:49.380954 11349 net.cpp:157] Top shape: 24 3249 (77976)
I0623 22:58:49.380998 11349 net.cpp:165] Memory required for data: 3868184800
I0623 22:58:49.381034 11349 layer_factory.hpp:77] Creating layer conv11_mbox_priorbox
I0623 22:58:49.381057 11349 net.cpp:100] Creating Layer conv11_mbox_priorbox
I0623 22:58:49.381088 11349 net.cpp:434] conv11_mbox_priorbox <- conv11_conv11/relu_0_split_3
I0623 22:58:49.381115 11349 net.cpp:434] conv11_mbox_priorbox <- data_data_0_split_1
I0623 22:58:49.381137 11349 net.cpp:408] conv11_mbox_priorbox -> conv11_mbox_priorbox
I0623 22:58:49.381196 11349 net.cpp:150] Setting up conv11_mbox_priorbox
I0623 22:58:49.381242 11349 net.cpp:157] Top shape: 1 2 4332 (8664)
I0623 22:58:49.381263 11349 net.cpp:165] Memory required for data: 3868219456
I0623 22:58:49.381295 11349 layer_factory.hpp:77] Creating layer conv13_mbox_loc
I0623 22:58:49.381353 11349 net.cpp:100] Creating Layer conv13_mbox_loc
I0623 22:58:49.381389 11349 net.cpp:434] conv13_mbox_loc <- conv13_conv13/relu_0_split_1
I0623 22:58:49.381425 11349 net.cpp:408] conv13_mbox_loc -> conv13_mbox_loc
I0623 22:58:49.382066 11349 net.cpp:150] Setting up conv13_mbox_loc
I0623 22:58:49.382088 11349 net.cpp:157] Top shape: 24 24 10 10 (57600)
I0623 22:58:49.382107 11349 net.cpp:165] Memory required for data: 3868449856
I0623 22:58:49.382128 11349 layer_factory.hpp:77] Creating layer conv13_mbox_loc_perm
I0623 22:58:49.382151 11349 net.cpp:100] Creating Layer conv13_mbox_loc_perm
I0623 22:58:49.382169 11349 net.cpp:434] conv13_mbox_loc_perm <- conv13_mbox_loc
I0623 22:58:49.382191 11349 net.cpp:408] conv13_mbox_loc_perm -> conv13_mbox_loc_perm
I0623 22:58:49.382313 11349 net.cpp:150] Setting up conv13_mbox_loc_perm
I0623 22:58:49.382336 11349 net.cpp:157] Top shape: 24 10 10 24 (57600)
I0623 22:58:49.382354 11349 net.cpp:165] Memory required for data: 3868680256
I0623 22:58:49.382372 11349 layer_factory.hpp:77] Creating layer conv13_mbox_loc_flat
I0623 22:58:49.382395 11349 net.cpp:100] Creating Layer conv13_mbox_loc_flat
I0623 22:58:49.382412 11349 net.cpp:434] conv13_mbox_loc_flat <- conv13_mbox_loc_perm
I0623 22:58:49.382436 11349 net.cpp:408] conv13_mbox_loc_flat -> conv13_mbox_loc_flat
I0623 22:58:49.382470 11349 net.cpp:150] Setting up conv13_mbox_loc_flat
I0623 22:58:49.382493 11349 net.cpp:157] Top shape: 24 2400 (57600)
I0623 22:58:49.382511 11349 net.cpp:165] Memory required for data: 3868910656
I0623 22:58:49.382529 11349 layer_factory.hpp:77] Creating layer conv13_mbox_conf_new
I0623 22:58:49.382556 11349 net.cpp:100] Creating Layer conv13_mbox_conf_new
I0623 22:58:49.382575 11349 net.cpp:434] conv13_mbox_conf_new <- conv13_conv13/relu_0_split_2
I0623 22:58:49.382596 11349 net.cpp:408] conv13_mbox_conf_new -> conv13_mbox_conf
I0623 22:58:49.383318 11349 net.cpp:150] Setting up conv13_mbox_conf_new
I0623 22:58:49.383342 11349 net.cpp:157] Top shape: 24 18 10 10 (43200)
I0623 22:58:49.383374 11349 net.cpp:165] Memory required for data: 3869083456
I0623 22:58:49.383393 11349 layer_factory.hpp:77] Creating layer conv13_mbox_conf_perm
I0623 22:58:49.383415 11349 net.cpp:100] Creating Layer conv13_mbox_conf_perm
I0623 22:58:49.383433 11349 net.cpp:434] conv13_mbox_conf_perm <- conv13_mbox_conf
I0623 22:58:49.383455 11349 net.cpp:408] conv13_mbox_conf_perm -> conv13_mbox_conf_perm
I0623 22:58:49.383589 11349 net.cpp:150] Setting up conv13_mbox_conf_perm
I0623 22:58:49.383616 11349 net.cpp:157] Top shape: 24 10 10 18 (43200)
I0623 22:58:49.383651 11349 net.cpp:165] Memory required for data: 3869256256
I0623 22:58:49.383672 11349 layer_factory.hpp:77] Creating layer conv13_mbox_conf_flat
I0623 22:58:49.383695 11349 net.cpp:100] Creating Layer conv13_mbox_conf_flat
I0623 22:58:49.383713 11349 net.cpp:434] conv13_mbox_conf_flat <- conv13_mbox_conf_perm
I0623 22:58:49.383735 11349 net.cpp:408] conv13_mbox_conf_flat -> conv13_mbox_conf_flat
I0623 22:58:49.383771 11349 net.cpp:150] Setting up conv13_mbox_conf_flat
I0623 22:58:49.383798 11349 net.cpp:157] Top shape: 24 1800 (43200)
I0623 22:58:49.383839 11349 net.cpp:165] Memory required for data: 3869429056
I0623 22:58:49.383867 11349 layer_factory.hpp:77] Creating layer conv13_mbox_priorbox
I0623 22:58:49.383936 11349 net.cpp:100] Creating Layer conv13_mbox_priorbox
I0623 22:58:49.383976 11349 net.cpp:434] conv13_mbox_priorbox <- conv13_conv13/relu_0_split_3
I0623 22:58:49.384042 11349 net.cpp:434] conv13_mbox_priorbox <- data_data_0_split_2
I0623 22:58:49.384078 11349 net.cpp:408] conv13_mbox_priorbox -> conv13_mbox_priorbox
I0623 22:58:49.384124 11349 net.cpp:150] Setting up conv13_mbox_priorbox
I0623 22:58:49.384145 11349 net.cpp:157] Top shape: 1 2 2400 (4800)
I0623 22:58:49.384163 11349 net.cpp:165] Memory required for data: 3869448256
I0623 22:58:49.384196 11349 layer_factory.hpp:77] Creating layer conv14_2_mbox_loc
I0623 22:58:49.384240 11349 net.cpp:100] Creating Layer conv14_2_mbox_loc
I0623 22:58:49.384263 11349 net.cpp:434] conv14_2_mbox_loc <- conv14_2_conv14_2/relu_0_split_1
I0623 22:58:49.384304 11349 net.cpp:408] conv14_2_mbox_loc -> conv14_2_mbox_loc
I0623 22:58:49.384748 11349 net.cpp:150] Setting up conv14_2_mbox_loc
I0623 22:58:49.384775 11349 net.cpp:157] Top shape: 24 24 5 5 (14400)
I0623 22:58:49.384820 11349 net.cpp:165] Memory required for data: 3869505856
I0623 22:58:49.384863 11349 layer_factory.hpp:77] Creating layer conv14_2_mbox_loc_perm
I0623 22:58:49.384899 11349 net.cpp:100] Creating Layer conv14_2_mbox_loc_perm
I0623 22:58:49.384927 11349 net.cpp:434] conv14_2_mbox_loc_perm <- conv14_2_mbox_loc
I0623 22:58:49.384953 11349 net.cpp:408] conv14_2_mbox_loc_perm -> conv14_2_mbox_loc_perm
I0623 22:58:49.385066 11349 net.cpp:150] Setting up conv14_2_mbox_loc_perm
I0623 22:58:49.385102 11349 net.cpp:157] Top shape: 24 5 5 24 (14400)
I0623 22:58:49.385124 11349 net.cpp:165] Memory required for data: 3869563456
I0623 22:58:49.385146 11349 layer_factory.hpp:77] Creating layer conv14_2_mbox_loc_flat
I0623 22:58:49.385174 11349 net.cpp:100] Creating Layer conv14_2_mbox_loc_flat
I0623 22:58:49.385200 11349 net.cpp:434] conv14_2_mbox_loc_flat <- conv14_2_mbox_loc_perm
I0623 22:58:49.385227 11349 net.cpp:408] conv14_2_mbox_loc_flat -> conv14_2_mbox_loc_flat
I0623 22:58:49.385272 11349 net.cpp:150] Setting up conv14_2_mbox_loc_flat
I0623 22:58:49.385303 11349 net.cpp:157] Top shape: 24 600 (14400)
I0623 22:58:49.385331 11349 net.cpp:165] Memory required for data: 3869621056
I0623 22:58:49.385349 11349 layer_factory.hpp:77] Creating layer conv14_2_mbox_conf_new
I0623 22:58:49.385376 11349 net.cpp:100] Creating Layer conv14_2_mbox_conf_new
I0623 22:58:49.385403 11349 net.cpp:434] conv14_2_mbox_conf_new <- conv14_2_conv14_2/relu_0_split_2
I0623 22:58:49.385434 11349 net.cpp:408] conv14_2_mbox_conf_new -> conv14_2_mbox_conf
I0623 22:58:49.385876 11349 net.cpp:150] Setting up conv14_2_mbox_conf_new
I0623 22:58:49.385903 11349 net.cpp:157] Top shape: 24 18 5 5 (10800)
I0623 22:58:49.385931 11349 net.cpp:165] Memory required for data: 3869664256
I0623 22:58:49.386023 11349 layer_factory.hpp:77] Creating layer conv14_2_mbox_conf_perm
I0623 22:58:49.386063 11349 net.cpp:100] Creating Layer conv14_2_mbox_conf_perm
I0623 22:58:49.386104 11349 net.cpp:434] conv14_2_mbox_conf_perm <- conv14_2_mbox_conf
I0623 22:58:49.386132 11349 net.cpp:408] conv14_2_mbox_conf_perm -> conv14_2_mbox_conf_perm
I0623 22:58:49.386256 11349 net.cpp:150] Setting up conv14_2_mbox_conf_perm
I0623 22:58:49.386288 11349 net.cpp:157] Top shape: 24 5 5 18 (10800)
I0623 22:58:49.386310 11349 net.cpp:165] Memory required for data: 3869707456
I0623 22:58:49.386328 11349 layer_factory.hpp:77] Creating layer conv14_2_mbox_conf_flat
I0623 22:58:49.386351 11349 net.cpp:100] Creating Layer conv14_2_mbox_conf_flat
I0623 22:58:49.386387 11349 net.cpp:434] conv14_2_mbox_conf_flat <- conv14_2_mbox_conf_perm
I0623 22:58:49.386418 11349 net.cpp:408] conv14_2_mbox_conf_flat -> conv14_2_mbox_conf_flat
I0623 22:58:49.386477 11349 net.cpp:150] Setting up conv14_2_mbox_conf_flat
I0623 22:58:49.386504 11349 net.cpp:157] Top shape: 24 450 (10800)
I0623 22:58:49.386523 11349 net.cpp:165] Memory required for data: 3869750656
I0623 22:58:49.386544 11349 layer_factory.hpp:77] Creating layer conv14_2_mbox_priorbox
I0623 22:58:49.386596 11349 net.cpp:100] Creating Layer conv14_2_mbox_priorbox
I0623 22:58:49.386623 11349 net.cpp:434] conv14_2_mbox_priorbox <- conv14_2_conv14_2/relu_0_split_3
I0623 22:58:49.386646 11349 net.cpp:434] conv14_2_mbox_priorbox <- data_data_0_split_3
I0623 22:58:49.386672 11349 net.cpp:408] conv14_2_mbox_priorbox -> conv14_2_mbox_priorbox
I0623 22:58:49.386723 11349 net.cpp:150] Setting up conv14_2_mbox_priorbox
I0623 22:58:49.386749 11349 net.cpp:157] Top shape: 1 2 600 (1200)
I0623 22:58:49.386780 11349 net.cpp:165] Memory required for data: 3869755456
I0623 22:58:49.386812 11349 layer_factory.hpp:77] Creating layer conv15_2_mbox_loc
I0623 22:58:49.386843 11349 net.cpp:100] Creating Layer conv15_2_mbox_loc
I0623 22:58:49.387099 11349 net.cpp:434] conv15_2_mbox_loc <- conv15_2_conv15_2/relu_0_split_1
I0623 22:58:49.387135 11349 net.cpp:408] conv15_2_mbox_loc -> conv15_2_mbox_loc
I0623 22:58:49.387552 11349 net.cpp:150] Setting up conv15_2_mbox_loc
I0623 22:58:49.387584 11349 net.cpp:157] Top shape: 24 24 3 3 (5184)
I0623 22:58:49.387601 11349 net.cpp:165] Memory required for data: 3869776192
I0623 22:58:49.387637 11349 layer_factory.hpp:77] Creating layer conv15_2_mbox_loc_perm
I0623 22:58:49.387670 11349 net.cpp:100] Creating Layer conv15_2_mbox_loc_perm
I0623 22:58:49.387701 11349 net.cpp:434] conv15_2_mbox_loc_perm <- conv15_2_mbox_loc
I0623 22:58:49.387750 11349 net.cpp:408] conv15_2_mbox_loc_perm -> conv15_2_mbox_loc_perm
I0623 22:58:49.387893 11349 net.cpp:150] Setting up conv15_2_mbox_loc_perm
I0623 22:58:49.387924 11349 net.cpp:157] Top shape: 24 3 3 24 (5184)
I0623 22:58:49.387974 11349 net.cpp:165] Memory required for data: 3869796928
I0623 22:58:49.388015 11349 layer_factory.hpp:77] Creating layer conv15_2_mbox_loc_flat
I0623 22:58:49.388052 11349 net.cpp:100] Creating Layer conv15_2_mbox_loc_flat
I0623 22:58:49.388070 11349 net.cpp:434] conv15_2_mbox_loc_flat <- conv15_2_mbox_loc_perm
I0623 22:58:49.388093 11349 net.cpp:408] conv15_2_mbox_loc_flat -> conv15_2_mbox_loc_flat
I0623 22:58:49.388160 11349 net.cpp:150] Setting up conv15_2_mbox_loc_flat
I0623 22:58:49.388187 11349 net.cpp:157] Top shape: 24 216 (5184)
I0623 22:58:49.388211 11349 net.cpp:165] Memory required for data: 3869817664
I0623 22:58:49.388228 11349 layer_factory.hpp:77] Creating layer conv15_2_mbox_conf_new
I0623 22:58:49.388259 11349 net.cpp:100] Creating Layer conv15_2_mbox_conf_new
I0623 22:58:49.388300 11349 net.cpp:434] conv15_2_mbox_conf_new <- conv15_2_conv15_2/relu_0_split_2
I0623 22:58:49.388371 11349 net.cpp:408] conv15_2_mbox_conf_new -> conv15_2_mbox_conf
I0623 22:58:49.388721 11349 net.cpp:150] Setting up conv15_2_mbox_conf_new
I0623 22:58:49.388744 11349 net.cpp:157] Top shape: 24 18 3 3 (3888)
I0623 22:58:49.388778 11349 net.cpp:165] Memory required for data: 3869833216
I0623 22:58:49.388821 11349 layer_factory.hpp:77] Creating layer conv15_2_mbox_conf_perm
I0623 22:58:49.388849 11349 net.cpp:100] Creating Layer conv15_2_mbox_conf_perm
I0623 22:58:49.388875 11349 net.cpp:434] conv15_2_mbox_conf_perm <- conv15_2_mbox_conf
I0623 22:58:49.388898 11349 net.cpp:408] conv15_2_mbox_conf_perm -> conv15_2_mbox_conf_perm
I0623 22:58:49.389083 11349 net.cpp:150] Setting up conv15_2_mbox_conf_perm
I0623 22:58:49.389128 11349 net.cpp:157] Top shape: 24 3 3 18 (3888)
I0623 22:58:49.389155 11349 net.cpp:165] Memory required for data: 3869848768
I0623 22:58:49.389183 11349 layer_factory.hpp:77] Creating layer conv15_2_mbox_conf_flat
I0623 22:58:49.389209 11349 net.cpp:100] Creating Layer conv15_2_mbox_conf_flat
I0623 22:58:49.389281 11349 net.cpp:434] conv15_2_mbox_conf_flat <- conv15_2_mbox_conf_perm
I0623 22:58:49.389308 11349 net.cpp:408] conv15_2_mbox_conf_flat -> conv15_2_mbox_conf_flat
I0623 22:58:49.389379 11349 net.cpp:150] Setting up conv15_2_mbox_conf_flat
I0623 22:58:49.389410 11349 net.cpp:157] Top shape: 24 162 (3888)
I0623 22:58:49.389432 11349 net.cpp:165] Memory required for data: 3869864320
I0623 22:58:49.389454 11349 layer_factory.hpp:77] Creating layer conv15_2_mbox_priorbox
I0623 22:58:49.389477 11349 net.cpp:100] Creating Layer conv15_2_mbox_priorbox
I0623 22:58:49.389513 11349 net.cpp:434] conv15_2_mbox_priorbox <- conv15_2_conv15_2/relu_0_split_3
I0623 22:58:49.389531 11349 net.cpp:434] conv15_2_mbox_priorbox <- data_data_0_split_4
I0623 22:58:49.389559 11349 net.cpp:408] conv15_2_mbox_priorbox -> conv15_2_mbox_priorbox
I0623 22:58:49.389595 11349 net.cpp:150] Setting up conv15_2_mbox_priorbox
I0623 22:58:49.389617 11349 net.cpp:157] Top shape: 1 2 216 (432)
I0623 22:58:49.389636 11349 net.cpp:165] Memory required for data: 3869866048
I0623 22:58:49.389653 11349 layer_factory.hpp:77] Creating layer conv16_2_mbox_loc
I0623 22:58:49.389677 11349 net.cpp:100] Creating Layer conv16_2_mbox_loc
I0623 22:58:49.389694 11349 net.cpp:434] conv16_2_mbox_loc <- conv16_2_conv16_2/relu_0_split_1
I0623 22:58:49.389725 11349 net.cpp:408] conv16_2_mbox_loc -> conv16_2_mbox_loc
I0623 22:58:49.390064 11349 net.cpp:150] Setting up conv16_2_mbox_loc
I0623 22:58:49.390086 11349 net.cpp:157] Top shape: 24 24 2 2 (2304)
I0623 22:58:49.390105 11349 net.cpp:165] Memory required for data: 3869875264
I0623 22:58:49.390127 11349 layer_factory.hpp:77] Creating layer conv16_2_mbox_loc_perm
I0623 22:58:49.390149 11349 net.cpp:100] Creating Layer conv16_2_mbox_loc_perm
I0623 22:58:49.390167 11349 net.cpp:434] conv16_2_mbox_loc_perm <- conv16_2_mbox_loc
I0623 22:58:49.390189 11349 net.cpp:408] conv16_2_mbox_loc_perm -> conv16_2_mbox_loc_perm
I0623 22:58:49.390300 11349 net.cpp:150] Setting up conv16_2_mbox_loc_perm
I0623 22:58:49.390322 11349 net.cpp:157] Top shape: 24 2 2 24 (2304)
I0623 22:58:49.390341 11349 net.cpp:165] Memory required for data: 3869884480
I0623 22:58:49.390358 11349 layer_factory.hpp:77] Creating layer conv16_2_mbox_loc_flat
I0623 22:58:49.390381 11349 net.cpp:100] Creating Layer conv16_2_mbox_loc_flat
I0623 22:58:49.390399 11349 net.cpp:434] conv16_2_mbox_loc_flat <- conv16_2_mbox_loc_perm
I0623 22:58:49.390421 11349 net.cpp:408] conv16_2_mbox_loc_flat -> conv16_2_mbox_loc_flat
I0623 22:58:49.390457 11349 net.cpp:150] Setting up conv16_2_mbox_loc_flat
I0623 22:58:49.390475 11349 net.cpp:157] Top shape: 24 96 (2304)
I0623 22:58:49.390493 11349 net.cpp:165] Memory required for data: 3869893696
I0623 22:58:49.390511 11349 layer_factory.hpp:77] Creating layer conv16_2_mbox_conf_new
I0623 22:58:49.390534 11349 net.cpp:100] Creating Layer conv16_2_mbox_conf_new
I0623 22:58:49.390552 11349 net.cpp:434] conv16_2_mbox_conf_new <- conv16_2_conv16_2/relu_0_split_2
I0623 22:58:49.390574 11349 net.cpp:408] conv16_2_mbox_conf_new -> conv16_2_mbox_conf
I0623 22:58:49.391091 11349 net.cpp:150] Setting up conv16_2_mbox_conf_new
I0623 22:58:49.391145 11349 net.cpp:157] Top shape: 24 18 2 2 (1728)
I0623 22:58:49.391175 11349 net.cpp:165] Memory required for data: 3869900608
I0623 22:58:49.391196 11349 layer_factory.hpp:77] Creating layer conv16_2_mbox_conf_perm
I0623 22:58:49.391219 11349 net.cpp:100] Creating Layer conv16_2_mbox_conf_perm
I0623 22:58:49.391250 11349 net.cpp:434] conv16_2_mbox_conf_perm <- conv16_2_mbox_conf
I0623 22:58:49.391286 11349 net.cpp:408] conv16_2_mbox_conf_perm -> conv16_2_mbox_conf_perm
I0623 22:58:49.391403 11349 net.cpp:150] Setting up conv16_2_mbox_conf_perm
I0623 22:58:49.391427 11349 net.cpp:157] Top shape: 24 2 2 18 (1728)
I0623 22:58:49.391453 11349 net.cpp:165] Memory required for data: 3869907520
I0623 22:58:49.391475 11349 layer_factory.hpp:77] Creating layer conv16_2_mbox_conf_flat
I0623 22:58:49.391502 11349 net.cpp:100] Creating Layer conv16_2_mbox_conf_flat
I0623 22:58:49.391559 11349 net.cpp:434] conv16_2_mbox_conf_flat <- conv16_2_mbox_conf_perm
I0623 22:58:49.391595 11349 net.cpp:408] conv16_2_mbox_conf_flat -> conv16_2_mbox_conf_flat
I0623 22:58:49.391631 11349 net.cpp:150] Setting up conv16_2_mbox_conf_flat
I0623 22:58:49.391672 11349 net.cpp:157] Top shape: 24 72 (1728)
I0623 22:58:49.391695 11349 net.cpp:165] Memory required for data: 3869914432
I0623 22:58:49.391731 11349 layer_factory.hpp:77] Creating layer conv16_2_mbox_priorbox
I0623 22:58:49.391803 11349 net.cpp:100] Creating Layer conv16_2_mbox_priorbox
I0623 22:58:49.391834 11349 net.cpp:434] conv16_2_mbox_priorbox <- conv16_2_conv16_2/relu_0_split_3
I0623 22:58:49.391875 11349 net.cpp:434] conv16_2_mbox_priorbox <- data_data_0_split_5
I0623 22:58:49.391917 11349 net.cpp:408] conv16_2_mbox_priorbox -> conv16_2_mbox_priorbox
I0623 22:58:49.391963 11349 net.cpp:150] Setting up conv16_2_mbox_priorbox
I0623 22:58:49.391999 11349 net.cpp:157] Top shape: 1 2 96 (192)
I0623 22:58:49.392020 11349 net.cpp:165] Memory required for data: 3869915200
I0623 22:58:49.392043 11349 layer_factory.hpp:77] Creating layer conv17_2_mbox_loc
I0623 22:58:49.392092 11349 net.cpp:100] Creating Layer conv17_2_mbox_loc
I0623 22:58:49.392128 11349 net.cpp:434] conv17_2_mbox_loc <- conv17_2_conv17_2/relu_0_split_0
I0623 22:58:49.392179 11349 net.cpp:408] conv17_2_mbox_loc -> conv17_2_mbox_loc
I0623 22:58:49.392472 11349 net.cpp:150] Setting up conv17_2_mbox_loc
I0623 22:58:49.392499 11349 net.cpp:157] Top shape: 24 24 1 1 (576)
I0623 22:58:49.392521 11349 net.cpp:165] Memory required for data: 3869917504
I0623 22:58:49.392562 11349 layer_factory.hpp:77] Creating layer conv17_2_mbox_loc_perm
I0623 22:58:49.392598 11349 net.cpp:100] Creating Layer conv17_2_mbox_loc_perm
I0623 22:58:49.392643 11349 net.cpp:434] conv17_2_mbox_loc_perm <- conv17_2_mbox_loc
I0623 22:58:49.392679 11349 net.cpp:408] conv17_2_mbox_loc_perm -> conv17_2_mbox_loc_perm
I0623 22:58:49.392822 11349 net.cpp:150] Setting up conv17_2_mbox_loc_perm
I0623 22:58:49.392863 11349 net.cpp:157] Top shape: 24 1 1 24 (576)
I0623 22:58:49.392899 11349 net.cpp:165] Memory required for data: 3869919808
I0623 22:58:49.392925 11349 layer_factory.hpp:77] Creating layer conv17_2_mbox_loc_flat
I0623 22:58:49.392995 11349 net.cpp:100] Creating Layer conv17_2_mbox_loc_flat
I0623 22:58:49.393023 11349 net.cpp:434] conv17_2_mbox_loc_flat <- conv17_2_mbox_loc_perm
I0623 22:58:49.393054 11349 net.cpp:408] conv17_2_mbox_loc_flat -> conv17_2_mbox_loc_flat
I0623 22:58:49.393090 11349 net.cpp:150] Setting up conv17_2_mbox_loc_flat
I0623 22:58:49.393121 11349 net.cpp:157] Top shape: 24 24 (576)
I0623 22:58:49.393153 11349 net.cpp:165] Memory required for data: 3869922112
I0623 22:58:49.393198 11349 layer_factory.hpp:77] Creating layer conv17_2_mbox_conf_new
I0623 22:58:49.393229 11349 net.cpp:100] Creating Layer conv17_2_mbox_conf_new
I0623 22:58:49.393256 11349 net.cpp:434] conv17_2_mbox_conf_new <- conv17_2_conv17_2/relu_0_split_1
I0623 22:58:49.393297 11349 net.cpp:408] conv17_2_mbox_conf_new -> conv17_2_mbox_conf
I0623 22:58:49.393610 11349 net.cpp:150] Setting up conv17_2_mbox_conf_new
I0623 22:58:49.393641 11349 net.cpp:157] Top shape: 24 18 1 1 (432)
I0623 22:58:49.393689 11349 net.cpp:165] Memory required for data: 3869923840
I0623 22:58:49.393761 11349 layer_factory.hpp:77] Creating layer conv17_2_mbox_conf_perm
I0623 22:58:49.393797 11349 net.cpp:100] Creating Layer conv17_2_mbox_conf_perm
I0623 22:58:49.393842 11349 net.cpp:434] conv17_2_mbox_conf_perm <- conv17_2_mbox_conf
I0623 22:58:49.393914 11349 net.cpp:408] conv17_2_mbox_conf_perm -> conv17_2_mbox_conf_perm
I0623 22:58:49.394035 11349 net.cpp:150] Setting up conv17_2_mbox_conf_perm
I0623 22:58:49.394071 11349 net.cpp:157] Top shape: 24 1 1 18 (432)
I0623 22:58:49.394094 11349 net.cpp:165] Memory required for data: 3869925568
I0623 22:58:49.394134 11349 layer_factory.hpp:77] Creating layer conv17_2_mbox_conf_flat
I0623 22:58:49.394184 11349 net.cpp:100] Creating Layer conv17_2_mbox_conf_flat
I0623 22:58:49.394227 11349 net.cpp:434] conv17_2_mbox_conf_flat <- conv17_2_mbox_conf_perm
I0623 22:58:49.394289 11349 net.cpp:408] conv17_2_mbox_conf_flat -> conv17_2_mbox_conf_flat
I0623 22:58:49.394361 11349 net.cpp:150] Setting up conv17_2_mbox_conf_flat
I0623 22:58:49.394397 11349 net.cpp:157] Top shape: 24 18 (432)
I0623 22:58:49.394428 11349 net.cpp:165] Memory required for data: 3869927296
I0623 22:58:49.394455 11349 layer_factory.hpp:77] Creating layer conv17_2_mbox_priorbox
I0623 22:58:49.394486 11349 net.cpp:100] Creating Layer conv17_2_mbox_priorbox
I0623 22:58:49.394518 11349 net.cpp:434] conv17_2_mbox_priorbox <- conv17_2_conv17_2/relu_0_split_2
I0623 22:58:49.394562 11349 net.cpp:434] conv17_2_mbox_priorbox <- data_data_0_split_6
I0623 22:58:49.394623 11349 net.cpp:408] conv17_2_mbox_priorbox -> conv17_2_mbox_priorbox
I0623 22:58:49.394699 11349 net.cpp:150] Setting up conv17_2_mbox_priorbox
I0623 22:58:49.394731 11349 net.cpp:157] Top shape: 1 2 24 (48)
I0623 22:58:49.394749 11349 net.cpp:165] Memory required for data: 3869927488
I0623 22:58:49.394776 11349 layer_factory.hpp:77] Creating layer mbox_loc
I0623 22:58:49.394804 11349 net.cpp:100] Creating Layer mbox_loc
I0623 22:58:49.395087 11349 net.cpp:434] mbox_loc <- conv11_mbox_loc_flat
I0623 22:58:49.395128 11349 net.cpp:434] mbox_loc <- conv13_mbox_loc_flat
I0623 22:58:49.395172 11349 net.cpp:434] mbox_loc <- conv14_2_mbox_loc_flat
I0623 22:58:49.395220 11349 net.cpp:434] mbox_loc <- conv15_2_mbox_loc_flat
I0623 22:58:49.395246 11349 net.cpp:434] mbox_loc <- conv16_2_mbox_loc_flat
I0623 22:58:49.395282 11349 net.cpp:434] mbox_loc <- conv17_2_mbox_loc_flat
I0623 22:58:49.395305 11349 net.cpp:408] mbox_loc -> mbox_loc
I0623 22:58:49.395359 11349 net.cpp:150] Setting up mbox_loc
I0623 22:58:49.395386 11349 net.cpp:157] Top shape: 24 7668 (184032)
I0623 22:58:49.395408 11349 net.cpp:165] Memory required for data: 3870663616
I0623 22:58:49.395431 11349 layer_factory.hpp:77] Creating layer mbox_conf
I0623 22:58:49.395488 11349 net.cpp:100] Creating Layer mbox_conf
I0623 22:58:49.395505 11349 net.cpp:434] mbox_conf <- conv11_mbox_conf_flat
I0623 22:58:49.395529 11349 net.cpp:434] mbox_conf <- conv13_mbox_conf_flat
I0623 22:58:49.395565 11349 net.cpp:434] mbox_conf <- conv14_2_mbox_conf_flat
I0623 22:58:49.395604 11349 net.cpp:434] mbox_conf <- conv15_2_mbox_conf_flat
I0623 22:58:49.395627 11349 net.cpp:434] mbox_conf <- conv16_2_mbox_conf_flat
I0623 22:58:49.395658 11349 net.cpp:434] mbox_conf <- conv17_2_mbox_conf_flat
I0623 22:58:49.395699 11349 net.cpp:408] mbox_conf -> mbox_conf
I0623 22:58:49.395740 11349 net.cpp:150] Setting up mbox_conf
I0623 22:58:49.395789 11349 net.cpp:157] Top shape: 24 5751 (138024)
I0623 22:58:49.395834 11349 net.cpp:165] Memory required for data: 3871215712
I0623 22:58:49.395874 11349 layer_factory.hpp:77] Creating layer mbox_priorbox
I0623 22:58:49.395925 11349 net.cpp:100] Creating Layer mbox_priorbox
I0623 22:58:49.395951 11349 net.cpp:434] mbox_priorbox <- conv11_mbox_priorbox
I0623 22:58:49.395982 11349 net.cpp:434] mbox_priorbox <- conv13_mbox_priorbox
I0623 22:58:49.396009 11349 net.cpp:434] mbox_priorbox <- conv14_2_mbox_priorbox
I0623 22:58:49.396041 11349 net.cpp:434] mbox_priorbox <- conv15_2_mbox_priorbox
I0623 22:58:49.396090 11349 net.cpp:434] mbox_priorbox <- conv16_2_mbox_priorbox
I0623 22:58:49.396108 11349 net.cpp:434] mbox_priorbox <- conv17_2_mbox_priorbox
I0623 22:58:49.396184 11349 net.cpp:408] mbox_priorbox -> mbox_priorbox
I0623 22:58:49.396241 11349 net.cpp:150] Setting up mbox_priorbox
I0623 22:58:49.396272 11349 net.cpp:157] Top shape: 1 2 7668 (15336)
I0623 22:58:49.396299 11349 net.cpp:165] Memory required for data: 3871277056
I0623 22:58:49.396322 11349 layer_factory.hpp:77] Creating layer mbox_loss
I0623 22:58:49.396349 11349 net.cpp:100] Creating Layer mbox_loss
I0623 22:58:49.396368 11349 net.cpp:434] mbox_loss <- mbox_loc
I0623 22:58:49.396389 11349 net.cpp:434] mbox_loss <- mbox_conf
I0623 22:58:49.396407 11349 net.cpp:434] mbox_loss <- mbox_priorbox
…
name: "MobileNet-SSD"
state {
  phase: TEST
}
layer {
  name: "data"
  type: "AnnotatedData"
  top: "data"
  top: "label"
  include {
    phase: TEST
  }
  transform_param {
    scale: 0.007843
    mean_value: 127.5
    mean_value: 127.5
    mean_value: 127.5
    resize_param {
      prob: 1
      resize_mode: WARP
      height: 300
      width: 300
      interp_mode: LINEAR
    }
  }
  data_param {
    source: "test_lmdb"
    batch_size: 8
    backend: LMDB
  }
  annotated_data_param {
    batch_sampler {
    }
    label_map_file: "labelmap.prototxt"
  }
}
layer {
  name: "conv0"
  type: "Convolution"
  bottom: "data"
  top: "conv0"
  param {
    lr_mult: 1
    decay_mult: 1
  }
  convolution_param {
    num_output: 32
    bias_term: false
    pad: 1
    kernel_size: 3
    stride: 2
    weight_filler {
      type: "msra"
    }
  }
}
layer {
  name: "conv0/bn"
  type: "BatchNorm"
  bottom: "conv0"
  top: "conv0"
}
layer {
  name: "conv0/scale"
  type: "Scale"
  bottom: "conv0"
  top: "conv0"
  param {
    lr_mult: 1
    decay_mult: 0
  }
  param {
    lr_mult: 2
    decay_mult: 0
  }
  scale_param {
    filler {
      value: 1
    }
    bias_term: true
    bias_filler {
      value: 0
    }
  }
}
layer {
  name: "conv0/relu"
  type: "ReLU"
  bottom: "conv0"
  top: "conv0"
}
layer {
  name: "conv1/dw"
  type: "Convolution"
  bottom: "conv0"
  top: "conv1/dw"
  param {
    lr_mult: 1
    decay_mult: 1
  }
  convolution_param {
    num_output: 32
    bias_term: false
    pad: 1
    kernel_size: 3
    group: 32
    weight_filler {
      type: "msra"
    }
    engine: CAFFE
  }
}
layer {
  name: "conv1/dw/bn"
  type: "BatchNorm"
  bottom: "conv1/dw"
  top: "conv1/dw"
}
layer {
  name: "conv1/dw/scale"
  type: "Scale"
  bottom: "conv1/dw"
  top: "conv1/dw"
  param {
    lr_mult: 1
    decay_mult: 0
  }
  param {
    lr_mult: 2
    decay_mult: 0
  }
  scale_param {
    filler {
      value: 1
    }
    bias_term: true
    bias_filler {
      value: 0
    }
  }
}
layer {
  name: "conv1/dw/relu"
  type: "ReLU"
  bottom: "conv1/dw"
  top: "conv1/dw"
}
layer {
  name: "conv1"
  type: "Convolution"
  bottom: "conv1/dw"
  top: "conv1"
  param {
    lr_mult: 1
    decay_mult: 1
  }
  convolution_param {
    num_output: 64
    bias_term: false
    kernel_size: 1
    weight_filler {
      type: "msra"
    }
  }
}
layer {
  name: "conv1/bn"
  type: "BatchNorm"
  bottom: "conv1"
  top: "conv1"
}
layer {
  name: "conv1/scale"
  type: "Scale"
  bottom: "conv1"
  top: "conv1"
  param {
    lr_mult: 1
    decay_mult: 0
  }
  param {
    lr_mult: 2
    decay_mult: 0
  }
  scale_param {
    filler {
      value: 1
    }
    bias_term: true
    bias_filler {
      value: 0
    }
  }
}
layer {
  name: "conv1/relu"
  type: "ReLU"
  bottom: "conv1"
  top: "conv1"
}
layer {
  name: "conv2/dw"
  type: "Convolution"
  bottom: "conv1"
  top: "conv2/dw"
  param {
    lr_mult: 1
    decay_mult: 1
  }
  convolution_param {
    num_output: 64
    bias_term: false
    pad: 1
    kernel_size: 3
    group: 64
    stride: 2
    weight_filler {
      type: "msra"
    }
    engine: CAFFE
  }
}
layer {
  name: "conv2/dw/bn"
  type: "BatchNorm"
  bottom: "conv2/dw"
  top: "conv2/dw"
}
layer {
  name: "conv2/dw/scale"
  type: "Scale"
  bottom: "conv2/dw"
  top: "conv2/dw"
  param {
    lr_mult: 1
    decay_mult: 0
  }
  param {
    lr_mult: 2
    decay_mult: 0
  }
  scale_param {
    filler {
      value: 1
    }
    bias_term: true
    bias_filler {
      value: 0
    }
  }
}
layer {
  name: "conv2/dw/relu"
  type: "ReLU"
  bottom: "conv2/dw"
  top: "conv2/dw"
}
layer {
  name: "conv2"
  type: "Convolution"
  bottom: "conv2/dw"
  top: "conv2"
  param {
    lr_mult: 1
    decay_mult: 1
  }
  convolution_param {
    num_output: 128
    bias_term: false
    kernel_size: 1
    weight_filler {
      type: "msra"
    }
  }
}
layer {
  name: "conv2/bn"
  type: "BatchNorm"
  bottom: "conv2"
  top: "conv2"
}
layer {
  name: "conv2/scale"
  type: "Scale"
  bottom: "conv2"
  top: "conv2"
  param {
    lr_mult: 1
    decay_mult: 0
  }
  param {
    lr_mult: 2
    decay_mult: 0
  }
  scale_param {
    filler {
      value: 1
    }
    bias_term: true
    bias_filler {
      value: 0
    }
  }
}
layer {
  name: "conv2/relu"
  type: "ReLU"
  bottom: "conv2"
  top: "conv2"
}
layer {
  name: "conv3/dw"
  type: "Convolution"
  bottom: "conv2"
  top: "conv3/dw"
  param {
    lr_mult: 1
    decay_mult: 1
  }
  convolution_param {
    num_output: 128
    bias_term: false
    pad: 1
    kernel_size: 3
    group: 128
    weight_filler {
      type: "msra"
    }
    engine: CAFFE
  }
}
layer {
  name: "conv3/dw/bn"
  type: "BatchNorm"
  bottom: "conv3/dw"
  top: "conv3/dw"
}
layer {
  name: "conv3/dw/scale"
  type: "Scale"
  bottom: "conv3/dw"
  top: "conv3/dw"
  param {
    lr_mult: 1
    decay_mult: 0
  }
  param {
    lr_mult: 2
    decay_mult: 0
  }
  scale_param {
    filler {
      value: 1
    }
    bias_term: true
    bias_filler {
      value: 0
    }
  }
}
layer {
  name: "conv3/dw/relu"
  type: "ReLU"
  bottom: "conv3/dw"
  top: "conv3/dw"
}
layer {
  name: "conv3"
  type: "Convolution"
  bottom: "conv3/dw"
  top: "conv3"
  param {
    lr_mult: 1
    decay_mult: 1
  }
  convolution_param {
    num_output: 128
    bias_term: false
    kernel_size: 1
    weight_filler {
      type: "msra"
    }
  }
}
layer {
  name: "conv3/bn"
  type: "BatchNorm"
  bottom: "conv3"
  top: "conv3"
}
layer {
  name: "conv3/scale"
  type: "Scale"
  bottom: "conv3"
  top: "conv3"
  param {
    lr_mult: 1
    decay_mult: 0
  }
  param {
    lr_mult: 2
    decay_mult: 0
  }
  scale_param {
    filler {
      value: 1
    }
    bias_term: true
    bias_filler {
      value: 0
    }
  }
}
layer {
  name: "conv3/relu"
  type: "ReLU"
  bottom: "conv3"
  top: "conv3"
}
layer {
  name: "conv4/dw"
  type: "Convolution"
  bottom: "conv3"
  top: "conv4/dw"
  param {
    lr_mult: 1
    decay_mult: 1
  }
  convolution_param {
    num_output: 128
    bias_term: false
    pad: 1
    kernel_size: 3
    group: 128
    stride: 2
    weight_filler {
      type: "msra"
    }
    engine: CAFFE
  }
}
layer {
  name: "conv4/dw/bn"
  type: "BatchNorm"
  bottom: "conv4/dw"
  top: "conv4/dw"
}
layer {
  name: "conv4/dw/scale"
  type: "Scale"
  bottom: "conv4/dw"
  top: "conv4/dw"
  param {
    lr_mult: 1
    decay_mult: 0
  }
  param {
    lr_mult: 2
    decay_mult: 0
  }
  scale_param {
    filler {
      value: 1
    }
    bias_term: true
    bias_filler {
      value: 0
    }
  }
}
layer {
  name: "conv4/dw/relu"
  type: "ReLU"
  bottom: "conv4/dw"
  top: "conv4/dw"
}
layer {
  name: "conv4"
  type: "Convolution"
  bottom: "conv4/dw"
  top: "conv4"
  param {
    lr_mult: 1
    decay_mult: 1
  }
  convolution_param {
    num_output: 256
    bias_term: false
    kernel_size: 1
    weight_filler {
      type: "msra"
    }
  }
}
layer {
  name: "conv4/bn"
  type: "BatchNorm"
  bottom: "conv4"
  top: "conv4"
}
layer {
  name: "conv4/scale"
  type: "Scale"
  bottom: "conv4"
  top: "conv4"
  param {
    lr_mult: 1
    decay_mult: 0
  }
  param {
    lr_mult: 2
    decay_mult: 0
  }
  scale_param {
    filler {
      value: 1
    }
    bias_term: true
    bias_filler {
      value: 0
    }
  }
}
layer {
  name: "conv4/relu"
  type: "ReLU"
  bottom: "conv4"
  top: "conv4"
}
layer {
  name: "conv5/dw"
  type: "Convolution"
  bottom: "conv4"
  top: "conv5/dw"
  param {
    lr_mult: 1
    decay_mult: 1
  }
  convolution_param {
    num_output: 256
    bias_term: false
    pad: 1
    kernel_size: 3
    group: 256
    weight_filler {
      type: "msra"
    }
    engine: CAFFE
  }
}
layer {
  name: "conv5/dw/bn"
  type: "BatchNorm"
  bottom: "conv5/dw"
  top: "conv5/dw"
}
layer {
  name: "conv5/dw/scale"
  type: "Scale"
  bottom: "conv5/dw"
  top: "conv5/dw"
  param {
    lr_mult: 1
    decay_mult: 0
  }
  param {
    lr_mult: 2
    decay_mult: 0
  }
  scale_param {
    filler {
      value: 1
    }
    bias_term: true
    bias_filler {
      value: 0
    }
  }
}
layer {
  name: "conv5/dw/relu"
  type: "ReLU"
  bottom: "conv5/dw"
  top: "conv5/dw"
}
layer {
  name: "conv5"
  type: "Convolution"
  bottom: "conv5/dw"
  top: "conv5"
  param {
    lr_mult: 1
    decay_mult: 1
  }
  convolution_param {
    num_output: 256
    bias_term: false
    kernel_size: 1
    weight_filler {
      type: "msra"
    }
  }
}
layer {
  name: "conv5/bn"
  type: "BatchNorm"
  bottom: "conv5"
  top: "conv5"
}
layer {
  name: "conv5/scale"
  type: "Scale"
  bottom: "conv5"
  top: "conv5"
  param {
    lr_mult: 1
    decay_mult: 0
  }
  param {
    lr_mult: 2
    decay_mult: 0
  }
  scale_param {
    filler {
      value: 1
    }
    bias_term: true
    bias_filler {
      value: 0
    }
  }
}
layer {
  name: "conv5/relu"
  type: "ReLU"
  bottom: "conv5"
  top: "conv5"
}
layer {
  name: "conv6/dw"
  type: "Convolution"
  bottom: "conv5"
  top: "conv6/dw"
  param {
    lr_mult: 1
    decay_mult: 1
  }
  convolution_param {
    num_output: 256
    bias_term: false
    pad: 1
    kernel_size: 3
    group: 256
    stride: 2
    weight_filler {
      type: "msra"
    }
    engine: CAFFE
  }
}
layer {
  name: "conv6/dw/bn"
  type: "BatchNorm"
  bottom: "conv6/dw"
  top: "conv6/dw"
}
layer {
  name: "conv6/dw/scale"
  type: "Scale"
  bottom: "conv6/dw"
  top: "conv6/dw"
  param {
    lr_mult: 1
    decay_mult: 0
  }
  param {
    lr_mult: 2
    decay_mult: 0
  }
  scale_param {
    filler {
      value: 1
    }
    bias_term: true
    bias_filler {
      value: 0
    }
  }
}
layer {
  name: "conv6/dw/relu"
  type: "ReLU"
  bottom: "conv6/dw"
  top: "conv6/dw"
}
layer {
  name: "conv6"
  type: "Convolution"
  bottom: "conv6/dw"
  top: "conv6"
  param {
    lr_mult: 1
    decay_mult: 1
  }
  convolution_param {
    num_output: 512
    bias_term: false
    kernel_size: 1
    weight_filler {
      type: "msra"
    }
  }
}
layer {
  name: "conv6/bn"
  type: "BatchNorm"
  bottom: "conv6"
  top: "conv6"
}
layer {
  name: "conv6/scale"
  type: "Scale"
  bottom: "conv6"
  top: "conv6"
  param {
    lr_mult: 1
    decay_mult: 0
  }
  param {
    lr_mult: 2
    decay_mult: 0
  }
  scale_param {
    filler {
      value: 1
    }
    bias_term: true
    bias_filler {
      value: 0
    }
  }
}
layer {
  name: "conv6/relu"
  type: "ReLU"
  bottom: "conv6"
  top: "conv6"
}
layer {
  name: "conv7/dw"
  type: "Convolution"
  bottom: "conv6"
  top: "conv7/dw"
  param {
    lr_mult: 1
    decay_mult: 1
  }
  convolution_param {
    num_output: 512
    bias_term: false
    pad: 1
    kernel_size: 3
    group: 512
    weight_filler {
      type: "msra"
    }
    engine: CAFFE
  }
}
layer {
  name: "conv7/dw/bn"
  type: "BatchNorm"
  bottom: "conv7/dw"
  top: "conv7/dw"
}
layer {
  name: "conv7/dw/scale"
  type: "Scale"
  bottom: "conv7/dw"
  top: "conv7/dw"
  param {
    lr_mult: 1
    decay_mult: 0
  }
  param {
    lr_mult: 2
    decay_mult: 0
  }
  scale_param {
    filler {
      value: 1
    }
    bias_term: true
    bias_filler {
      value: 0
    }
  }
}
layer {
  name: "conv7/dw/relu"
  type: "ReLU"
  bottom: "conv7/dw"
  top: "conv7/dw"
}
layer {
  name: "conv7"
  type: "Convolution"
  bottom: "conv7/dw"
  top: "conv7"
  param {
    lr_mult: 1
    decay_mult: 1
  }
  convolution_param {
    num_output: 512
    bias_term: false
    kernel_size: 1
    weight_filler {
      type: "msra"
    }
  }
}
layer {
  name: "conv7/bn"
  type: "BatchNorm"
  bottom: "conv7"
  top: "conv7"
}
layer {
  name: "conv7/scale"
  type: "Scale"
  bottom: "conv7"
  top: "conv7"
  param {
    lr_mult: 1
    decay_mult: 0
  }
  param {
    lr_mult: 2
    decay_mult: 0
  }
  scale_param {
    filler {
      value: 1
    }
    bias_term: true
    bias_filler {
      value: 0
    }
  }
}
layer {
  name: "conv7/relu"
  type: "ReLU"
  bottom: "conv7"
  top: "conv7"
}
layer {
  name: "conv8/dw"
  type: "Convolution"
  bottom: "conv7"
  top: "conv8/dw"
  param {
    lr_mult: 1
    decay_mult: 1
  }
  convolution_param {
    num_output: 512
    bias_term: false
    pad: 1
    kernel_size: 3
    group: 512
    weight_filler {
      type: "msra"
    }
    engine: CAFFE
  }
}
layer {
  name: "conv8/dw/bn"
  type: "BatchNorm"
  bottom: "conv8/dw"
  top: "conv8/dw"
}
layer {
  name: "conv8/dw/scale"
  type: "Scale"
  bottom: "conv8/dw"
  top: "conv8/dw"
  param {
    lr_mult: 1
    decay_mult: 0
  }
  param {
    lr_mult: 2
    decay_mult: 0
  }
  scale_param {
    filler {
      value: 1
    }
    bias_term: true
    bias_filler {
      value: 0
    }
  }
}
layer {
  name: "conv8/dw/relu"
  type: "ReLU"
  bottom: "conv8/dw"
  top: "conv8/dw"
}
layer {
  name: "conv8"
  type: "Convolution"
  bottom: "conv8/dw"
  top: "conv8"
  param {
    lr_mult: 1
    decay_mult: 1
  }
  convolution_param {
    num_output: 512
    bias_term: false
    kernel_size: 1
    weight_filler {
      type: "msra"
    }
  }
}
layer {
  name: "conv8/bn"
  type: "BatchNorm"
  bottom: "conv8"
  top: "conv8"
}
layer {
  name: "conv8/scale"
  type: "Scale"
  bottom: "conv8"
  top: "conv8"
  param {
    lr_mult: 1
    decay_mult: 0
  }
  param {
    lr_mult: 2
    decay_mult: 0
  }
  scale_param {
    filler {
      value: 1
    }
    bias_term: true
    bias_filler {
      value: 0
    }
  }
}
layer {
  name: "conv8/relu"
  type: "ReLU"
  bottom: "conv8"
  top: "conv8"
}
layer {
  name: "conv9/dw"
  type: "Convolution"
  bottom: "conv8"
  top: "conv9/dw"
  param {
    lr_mult: 1
    decay_mult: 1
  }
  convolution_param {
    num_output: 512
    bias_term: false
    pad: 1
    kernel_size: 3
    group: 512
    weight_filler {
      type: "msra"
    }
    engine: CAFFE
  }
}
layer {
  name: "conv9/dw/bn"
  type: "BatchNorm"
  bottom: "conv9/dw"
  top: "conv9/dw"
}
layer {
  name: "conv9/dw/scale"
  type: "Scale"
  bottom: "conv9/dw"
  top: "conv9/dw"
  param {
    lr_mult: 1
    decay_mult: 0
  }
  param {
    lr_mult: 2
    decay_mult: 0
  }
  scale_param {
    filler {
      value: 1
    }
    bias_term: true
    bias_filler {
      value: 0
    }
  }
}
layer {
  name: "conv9/dw/relu"
  type: "ReLU"
  bottom: "conv9/dw"
…
I0623 22:58:49.494796 11349 layer_factory.hpp:77] Creating layer conv14_1/scale
I0623 22:58:49.494808 11349 net.cpp:100] Creating Layer conv14_1/scale
I0623 22:58:49.494818 11349 net.cpp:434] conv14_1/scale <- conv14_1
I0623 22:58:49.494830 11349 net.cpp:395] conv14_1/scale -> conv14_1 (in-place)
I0623 22:58:49.494977 11349 layer_factory.hpp:77] Creating layer conv14_1/scale
I0623 22:58:49.495090 11349 net.cpp:150] Setting up conv14_1/scale
I0623 22:58:49.495102 11349 net.cpp:157] Top shape: 8 256 10 10 (204800)
I0623 22:58:49.495112 11349 net.cpp:165] Memory required for data: 1283100736
I0623 22:58:49.495124 11349 layer_factory.hpp:77] Creating layer conv14_1/relu
I0623 22:58:49.495136 11349 net.cpp:100] Creating Layer conv14_1/relu
I0623 22:58:49.495146 11349 net.cpp:434] conv14_1/relu <- conv14_1
I0623 22:58:49.495157 11349 net.cpp:395] conv14_1/relu -> conv14_1 (in-place)
I0623 22:58:49.495168 11349 net.cpp:150] Setting up conv14_1/relu
I0623 22:58:49.495179 11349 net.cpp:157] Top shape: 8 256 10 10 (204800)
I0623 22:58:49.495189 11349 net.cpp:165] Memory required for data: 1283919936
I0623 22:58:49.495199 11349 layer_factory.hpp:77] Creating layer conv14_2
I0623 22:58:49.495213 11349 net.cpp:100] Creating Layer conv14_2
I0623 22:58:49.495223 11349 net.cpp:434] conv14_2 <- conv14_1
I0623 22:58:49.495234 11349 net.cpp:408] conv14_2 -> conv14_2
I0623 22:58:49.506593 11349 net.cpp:150] Setting up conv14_2
I0623 22:58:49.506628 11349 net.cpp:157] Top shape: 8 512 5 5 (102400)
I0623 22:58:49.506639 11349 net.cpp:165] Memory required for data: 1284329536
I0623 22:58:49.506654 11349 layer_factory.hpp:77] Creating layer conv14_2/bn
I0623 22:58:49.506667 11349 net.cpp:100] Creating Layer conv14_2/bn
I0623 22:58:49.506680 11349 net.cpp:434] conv14_2/bn <- conv14_2
I0623 22:58:49.506691 11349 net.cpp:395] conv14_2/bn -> conv14_2 (in-place)
I0623 22:58:49.506973 11349 net.cpp:150] Setting up conv14_2/bn
I0623 22:58:49.507022 11349 net.cpp:157] Top shape: 8 512 5 5 (102400)
I0623 22:58:49.507050 11349 net.cpp:165] Memory required for data: 1284739136
I0623 22:58:49.507088 11349 layer_factory.hpp:77] Creating layer conv14_2/scale
I0623 22:58:49.507107 11349 net.cpp:100] Creating Layer conv14_2/scale
I0623 22:58:49.507117 11349 net.cpp:434] conv14_2/scale <- conv14_2
I0623 22:58:49.507128 11349 net.cpp:395] conv14_2/scale -> conv14_2 (in-place)
I0623 22:58:49.507176 11349 layer_factory.hpp:77] Creating layer conv14_2/scale
I0623 22:58:49.507277 11349 net.cpp:150] Setting up conv14_2/scale
I0623 22:58:49.507297 11349 net.cpp:157] Top shape: 8 512 5 5 (102400)
I0623 22:58:49.507308 11349 net.cpp:165] Memory required for data: 1285148736
I0623 22:58:49.507319 11349 layer_factory.hpp:77] Creating layer conv14_2/relu
I0623 22:58:49.507331 11349 net.cpp:100] Creating Layer conv14_2/relu
I0623 22:58:49.507341 11349 net.cpp:434] conv14_2/relu <- conv14_2
I0623 22:58:49.507352 11349 net.cpp:395] conv14_2/relu -> conv14_2 (in-place)
I0623 22:58:49.507364 11349 net.cpp:150] Setting up conv14_2/relu
I0623 22:58:49.507375 11349 net.cpp:157] Top shape: 8 512 5 5 (102400)
I0623 22:58:49.507385 11349 net.cpp:165] Memory required for data: 1285558336
I0623 22:58:49.507395 11349 layer_factory.hpp:77] Creating layer conv14_2_conv14_2/relu_0_split
I0623 22:58:49.507406 11349 net.cpp:100] Creating Layer conv14_2_conv14_2/relu_0_split
I0623 22:58:49.507416 11349 net.cpp:434] conv14_2_conv14_2/relu_0_split <- conv14_2
I0623 22:58:49.507428 11349 net.cpp:408] conv14_2_conv14_2/relu_0_split -> conv14_2_conv14_2/relu_0_split_0
I0623 22:58:49.507441 11349 net.cpp:408] conv14_2_conv14_2/relu_0_split -> conv14_2_conv14_2/relu_0_split_1
I0623 22:58:49.507454 11349 net.cpp:408] conv14_2_conv14_2/relu_0_split -> conv14_2_conv14_2/relu_0_split_2
I0623 22:58:49.507467 11349 net.cpp:408] conv14_2_conv14_2/relu_0_split -> conv14_2_conv14_2/relu_0_split_3
I0623 22:58:49.507520 11349 net.cpp:150] Setting up conv14_2_conv14_2/relu_0_split
I0623 22:58:49.507532 11349 net.cpp:157] Top shape: 8 512 5 5 (102400)
I0623 22:58:49.507544 11349 net.cpp:157] Top shape: 8 512 5 5 (102400)
I0623 22:58:49.507553 11349 net.cpp:157] Top shape: 8 512 5 5 (102400)
I0623 22:58:49.507565 11349 net.cpp:157] Top shape: 8 512 5 5 (102400)
I0623 22:58:49.507573 11349 net.cpp:165] Memory required for data: 1287196736
I0623 22:58:49.507619 11349 layer_factory.hpp:77] Creating layer conv15_1
I0623 22:58:49.507642 11349 net.cpp:100] Creating Layer conv15_1
I0623 22:58:49.507659 11349 net.cpp:434] conv15_1 <- conv14_2_conv14_2/relu_0_split_0
I0623 22:58:49.507678 11349 net.cpp:408] conv15_1 -> conv15_1
I0623 22:58:49.508343 11349 net.cpp:150] Setting up conv15_1
I0623 22:58:49.508361 11349 net.cpp:157] Top shape: 8 128 5 5 (25600)
I0623 22:58:49.508379 11349 net.cpp:165] Memory required for data: 1287299136
I0623 22:58:49.508397 11349 layer_factory.hpp:77] Creating layer conv15_1/bn
I0623 22:58:49.508410 11349 net.cpp:100] Creating Layer conv15_1/bn
I0623 22:58:49.508420 11349 net.cpp:434] conv15_1/bn <- conv15_1
I0623 22:58:49.508432 11349 net.cpp:395] conv15_1/bn -> conv15_1 (in-place)
I0623 22:58:49.508586 11349 net.cpp:150] Setting up conv15_1/bn
I0623 22:58:49.508599 11349 net.cpp:157] Top shape: 8 128 5 5 (25600)
I0623 22:58:49.508608 11349 net.cpp:165] Memory required for data: 1287401536
I0623 22:58:49.508621 11349 layer_factory.hpp:77] Creating layer conv15_1/scale
I0623 22:58:49.508633 11349 net.cpp:100] Creating Layer conv15_1/scale
I0623 22:58:49.508643 11349 net.cpp:434] conv15_1/scale <- conv15_1
I0623 22:58:49.508654 11349 net.cpp:395] conv15_1/scale -> conv15_1 (in-place)
I0623 22:58:49.508693 11349 layer_factory.hpp:77] Creating layer conv15_1/scale
I0623 22:58:49.508782 11349 net.cpp:150] Setting up conv15_1/scale
I0623 22:58:49.508795 11349 net.cpp:157] Top shape: 8 128 5 5 (25600)
I0623 22:58:49.508805 11349 net.cpp:165] Memory required for data: 1287503936
I0623 22:58:49.508816 11349 layer_factory.hpp:77] Creating layer conv15_1/relu
I0623 22:58:49.508828 11349 net.cpp:100] Creating Layer conv15_1/relu
I0623 22:58:49.508838 11349 net.cpp:434] conv15_1/relu <- conv15_1
I0623 22:58:49.508849 11349 net.cpp:395] conv15_1/relu -> conv15_1 (in-place)
I0623 22:58:49.508862 11349 net.cpp:150] Setting up conv15_1/relu
I0623 22:58:49.508872 11349 net.cpp:157] Top shape: 8 128 5 5 (25600)
I0623 22:58:49.508882 11349 net.cpp:165] Memory required for data: 1287606336
I0623 22:58:49.508891 11349 layer_factory.hpp:77] Creating layer conv15_2
I0623 22:58:49.508908 11349 net.cpp:100] Creating Layer conv15_2
I0623 22:58:49.508919 11349 net.cpp:434] conv15_2 <- conv15_1
I0623 22:58:49.508935 11349 net.cpp:408] conv15_2 -> conv15_2
I0623 22:58:49.512152 11349 net.cpp:150] Setting up conv15_2
I0623 22:58:49.512181 11349 net.cpp:157] Top shape: 8 256 3 3 (18432)
I0623 22:58:49.512190 11349 net.cpp:165] Memory required for data: 1287680064
I0623 22:58:49.512203 11349 layer_factory.hpp:77] Creating layer conv15_2/bn
I0623 22:58:49.512217 11349 net.cpp:100] Creating Layer conv15_2/bn
I0623 22:58:49.512228 11349 net.cpp:434] conv15_2/bn <- conv15_2
I0623 22:58:49.512241 11349 net.cpp:395] conv15_2/bn -> conv15_2 (in-place)
I0623 22:58:49.512406 11349 net.cpp:150] Setting up conv15_2/bn
I0623 22:58:49.512419 11349 net.cpp:157] Top shape: 8 256 3 3 (18432)
I0623 22:58:49.512429 11349 net.cpp:165] Memory required for data: 1287753792
I0623 22:58:49.512442 11349 layer_factory.hpp:77] Creating layer conv15_2/scale
I0623 22:58:49.512455 11349 net.cpp:100] Creating Layer conv15_2/scale
I0623 22:58:49.512465 11349 net.cpp:434] conv15_2/scale <- conv15_2
I0623 22:58:49.512476 11349 net.cpp:395] conv15_2/scale -> conv15_2 (in-place)
I0623 22:58:49.512521 11349 layer_factory.hpp:77] Creating layer conv15_2/scale
I0623 22:58:49.512612 11349 net.cpp:150] Setting up conv15_2/scale
I0623 22:58:49.512624 11349 net.cpp:157] Top shape: 8 256 3 3 (18432)
I0623 22:58:49.512634 11349 net.cpp:165] Memory required for data: 1287827520
I0623 22:58:49.512646 11349 layer_factory.hpp:77] Creating layer conv15_2/relu
I0623 22:58:49.512666 11349 net.cpp:100] Creating Layer conv15_2/relu
I0623 22:58:49.512677 11349 net.cpp:434] conv15_2/relu <- conv15_2
I0623 22:58:49.512688 11349 net.cpp:395] conv15_2/relu -> conv15_2 (in-place)
I0623 22:58:49.512701 11349 net.cpp:150] Setting up conv15_2/relu
I0623 22:58:49.512712 11349 net.cpp:157] Top shape: 8 256 3 3 (18432)
I0623 22:58:49.512722 11349 net.cpp:165] Memory required for data: 1287901248
I0623 22:58:49.512732 11349 layer_factory.hpp:77] Creating layer conv15_2_conv15_2/relu_0_split
I0623 22:58:49.512742 11349 net.cpp:100] Creating Layer conv15_2_conv15_2/relu_0_split
I0623 22:58:49.512753 11349 net.cpp:434] conv15_2_conv15_2/relu_0_split <- conv15_2
I0623 22:58:49.512764 11349 net.cpp:408] conv15_2_conv15_2/relu_0_split -> conv15_2_conv15_2/relu_0_split_0
I0623 22:58:49.512778 11349 net.cpp:408] conv15_2_conv15_2/relu_0_split -> conv15_2_conv15_2/relu_0_split_1
I0623 22:58:49.512790 11349 net.cpp:408] conv15_2_conv15_2/relu_0_split -> conv15_2_conv15_2/relu_0_split_2
I0623 22:58:49.512804 11349 net.cpp:408] conv15_2_conv15_2/relu_0_split -> conv15_2_conv15_2/relu_0_split_3
I0623 22:58:49.512857 11349 net.cpp:150] Setting up conv15_2_conv15_2/relu_0_split
I0623 22:58:49.512869 11349 net.cpp:157] Top shape: 8 256 3 3 (18432)
I0623 22:58:49.512881 11349 net.cpp:157] Top shape: 8 256 3 3 (18432)
I0623 22:58:49.512890 11349 net.cpp:157] Top shape: 8 256 3 3 (18432)
I0623 22:58:49.512902 11349 net.cpp:157] Top shape: 8 256 3 3 (18432)
I0623 22:58:49.512914 11349 net.cpp:165] Memory required for data: 1288196160
I0623 22:58:49.512933 11349 layer_factory.hpp:77] Creating layer conv16_1
I0623 22:58:49.512948 11349 net.cpp:100] Creating Layer conv16_1
I0623 22:58:49.512967 11349 net.cpp:434] conv16_1 <- conv15_2_conv15_2/relu_0_split_0
I0623 22:58:49.512984 11349 net.cpp:408] conv16_1 -> conv16_1
I0623 22:58:49.513378 11349 net.cpp:150] Setting up conv16_1
I0623 22:58:49.513391 11349 net.cpp:157] Top shape: 8 128 3 3 (9216)
I0623 22:58:49.513401 11349 net.cpp:165] Memory required for data: 1288233024
I0623 22:58:49.513412 11349 layer_factory.hpp:77] Creating layer conv16_1/bn
I0623 22:58:49.513424 11349 net.cpp:100] Creating Layer conv16_1/bn
I0623 22:58:49.513434 11349 net.cpp:434] conv16_1/bn <- conv16_1
I0623 22:58:49.513445 11349 net.cpp:395] conv16_1/bn -> conv16_1 (in-place)
I0623 22:58:49.513593 11349 net.cpp:150] Setting up conv16_1/bn
I0623 22:58:49.513607 11349 net.cpp:157] Top shape: 8 128 3 3 (9216)
I0623 22:58:49.513620 11349 net.cpp:165] Memory required for data: 1288269888
I0623 22:58:49.513633 11349 layer_factory.hpp:77] Creating layer conv16_1/scale
I0623 22:58:49.513653 11349 net.cpp:100] Creating Layer conv16_1/scale
I0623 22:58:49.513664 11349 net.cpp:434] conv16_1/scale <- conv16_1
I0623 22:58:49.513675 11349 net.cpp:395] conv16_1/scale -> conv16_1 (in-place)
I0623 22:58:49.513715 11349 layer_factory.hpp:77] Creating layer conv16_1/scale
I0623 22:58:49.513803 11349 net.cpp:150] Setting up conv16_1/scale
I0623 22:58:49.513814 11349 net.cpp:157] Top shape: 8 128 3 3 (9216)
I0623 22:58:49.513824 11349 net.cpp:165] Memory required for data: 1288306752
I0623 22:58:49.513836 11349 layer_factory.hpp:77] Creating layer conv16_1/relu
I0623 22:58:49.513847 11349 net.cpp:100] Creating Layer conv16_1/relu
I0623 22:58:49.513857 11349 net.cpp:434] conv16_1/relu <- conv16_1
I0623 22:58:49.513869 11349 net.cpp:395] conv16_1/relu -> conv16_1 (in-place)
I0623 22:58:49.513880 11349 net.cpp:150] Setting up conv16_1/relu
I0623 22:58:49.513891 11349 net.cpp:157] Top shape: 8 128 3 3 (9216)
I0623 22:58:49.513900 11349 net.cpp:165] Memory required for data: 1288343616
I0623 22:58:49.513911 11349 layer_factory.hpp:77] Creating layer conv16_2
I0623 22:58:49.513923 11349 net.cpp:100] Creating Layer conv16_2
I0623 22:58:49.513933 11349 net.cpp:434] conv16_2 <- conv16_1
I0623 22:58:49.513945 11349 net.cpp:408] conv16_2 -> conv16_2
I0623 22:58:49.517122 11349 net.cpp:150] Setting up conv16_2
I0623 22:58:49.517169 11349 net.cpp:157] Top shape: 8 256 2 2 (8192)
I0623 22:58:49.517187 11349 net.cpp:165] Memory required for data: 1288376384
I0623 22:58:49.517205 11349 layer_factory.hpp:77] Creating layer conv16_2/bn
I0623 22:58:49.517223 11349 net.cpp:100] Creating Layer conv16_2/bn
I0623 22:58:49.517247 11349 net.cpp:434] conv16_2/bn <- conv16_2
I0623 22:58:49.517259 11349 net.cpp:395] conv16_2/bn -> conv16_2 (in-place)
I0623 22:58:49.517422 11349 net.cpp:150] Setting up conv16_2/bn
I0623 22:58:49.517434 11349 net.cpp:157] Top shape: 8 256 2 2 (8192)
I0623 22:58:49.517444 11349 net.cpp:165] Memory required for data: 1288409152
I0623 22:58:49.517457 11349 layer_factory.hpp:77] Creating layer conv16_2/scale
I0623 22:58:49.517469 11349 net.cpp:100] Creating Layer conv16_2/scale
I0623 22:58:49.517479 11349 net.cpp:434] conv16_2/scale <- conv16_2
I0623 22:58:49.517490 11349 net.cpp:395] conv16_2/scale -> conv16_2 (in-place)
I0623 22:58:49.517532 11349 layer_factory.hpp:77] Creating layer conv16_2/scale
I0623 22:58:49.517622 11349 net.cpp:150] Setting up conv16_2/scale
I0623 22:58:49.517635 11349 net.cpp:157] Top shape: 8 256 2 2 (8192)
I0623 22:58:49.517645 11349 net.cpp:165] Memory required for data: 1288441920
I0623 22:58:49.517657 11349 layer_factory.hpp:77] Creating layer conv16_2/relu
I0623 22:58:49.517668 11349 net.cpp:100] Creating Layer conv16_2/relu
I0623 22:58:49.517678 11349 net.cpp:434] conv16_2/relu <- conv16_2
I0623 22:58:49.517689 11349 net.cpp:395] conv16_2/relu -> conv16_2 (in-place)
I0623 22:58:49.517700 11349 net.cpp:150] Setting up conv16_2/relu
I0623 22:58:49.517711 11349 net.cpp:157] Top shape: 8 256 2 2 (8192)
I0623 22:58:49.517721 11349 net.cpp:165] Memory required for data: 1288474688
I0623 22:58:49.517730 11349 layer_factory.hpp:77] Creating layer conv16_2_conv16_2/relu_0_split
I0623 22:58:49.517742 11349 net.cpp:100] Creating Layer conv16_2_conv16_2/relu_0_split
I0623 22:58:49.517752 11349 net.cpp:434] conv16_2_conv16_2/relu_0_split <- conv16_2
I0623 22:58:49.517765 11349 net.cpp:408] conv16_2_conv16_2/relu_0_split -> conv16_2_conv16_2/relu_0_split_0
I0623 22:58:49.517777 11349 net.cpp:408] conv16_2_conv16_2/relu_0_split -> conv16_2_conv16_2/relu_0_split_1
I0623 22:58:49.517791 11349 net.cpp:408] conv16_2_conv16_2/relu_0_split -> conv16_2_conv16_2/relu_0_split_2
I0623 22:58:49.517802 11349 net.cpp:408] conv16_2_conv16_2/relu_0_split -> conv16_2_conv16_2/relu_0_split_3
I0623 22:58:49.517858 11349 net.cpp:150] Setting up conv16_2_conv16_2/relu_0_split
I0623 22:58:49.517869 11349 net.cpp:157] Top shape: 8 256 2 2 (8192)
I0623 22:58:49.517886 11349 net.cpp:157] Top shape: 8 256 2 2 (8192)
I0623 22:58:49.517897 11349 net.cpp:157] Top shape: 8 256 2 2 (8192)
I0623 22:58:49.517915 11349 net.cpp:157] Top shape: 8 256 2 2 (8192)
I0623 22:58:49.517925 11349 net.cpp:165] Memory required for data: 1288605760
I0623 22:58:49.517935 11349 layer_factory.hpp:77] Creating layer conv17_1
I0623 22:58:49.517949 11349 net.cpp:100] Creating Layer conv17_1
I0623 22:58:49.517959 11349 net.cpp:434] conv17_1 <- conv16_2_conv16_2/relu_0_split_0
I0623 22:58:49.517971 11349 net.cpp:408] conv17_1 -> conv17_1
I0623 22:58:49.518251 11349 net.cpp:150] Setting up conv17_1
I0623 22:58:49.518265 11349 net.cpp:157] Top shape: 8 64 2 2 (2048)
I0623 22:58:49.518275 11349 net.cpp:165] Memory required for data: 1288613952
I0623 22:58:49.518285 11349 layer_factory.hpp:77] Creating layer conv17_1/bn
I0623 22:58:49.518296 11349 net.cpp:100] Creating Layer conv17_1/bn
I0623 22:58:49.518306 11349 net.cpp:434] conv17_1/bn <- conv17_1
I0623 22:58:49.518317 11349 net.cpp:395] conv17_1/bn -> conv17_1 (in-place)
I0623 22:58:49.518481 11349 net.cpp:150] Setting up conv17_1/bn
I0623 22:58:49.518498 11349 net.cpp:157] Top shape: 8 64 2 2 (2048)
I0623 22:58:49.518517 11349 net.cpp:165] Memory required for data: 1288622144
I0623 22:58:49.518529 11349 layer_factory.hpp:77] Creating layer conv17_1/scale
I0623 22:58:49.518540 11349 net.cpp:100] Creating Layer conv17_1/scale
I0623 22:58:49.518555 11349 net.cpp:434] conv17_1/scale <- conv17_1
I0623 22:58:49.518595 11349 net.cpp:395] conv17_1/scale -> conv17_1 (in-place)
I0623 22:58:49.518643 11349 layer_factory.hpp:77] Creating layer conv17_1/scale
I0623 22:58:49.518748 11349 net.cpp:150] Setting up conv17_1/scale
I0623 22:58:49.518759 11349 net.cpp:157] Top shape: 8 64 2 2 (2048)
I0623 22:58:49.518769 11349 net.cpp:165] Memory required for data: 1288630336
I0623 22:58:49.518781 11349 layer_factory.hpp:77] Creating layer conv17_1/relu
I0623 22:58:49.518792 11349 net.cpp:100] Creating Layer conv17_1/relu
I0623 22:58:49.518802 11349 net.cpp:434] conv17_1/relu <- conv17_1
I0623 22:58:49.518813 11349 net.cpp:395] conv17_1/relu -> conv17_1 (in-place)
I0623 22:58:49.518826 11349 net.cpp:150] Setting up conv17_1/relu
I0623 22:58:49.518836 11349 net.cpp:157] Top shape: 8 64 2 2 (2048)
I0623 22:58:49.518846 11349 net.cpp:165] Memory required for data: 1288638528
I0623 22:58:49.518856 11349 layer_factory.hpp:77] Creating layer conv17_2
I0623 22:58:49.518968 11349 net.cpp:100] Creating Layer conv17_2
I0623 22:58:49.519035 11349 net.cpp:434] conv17_2 <- conv17_1
I0623 22:58:49.519058 11349 net.cpp:408] conv17_2 -> conv17_2
I0623 22:58:49.519788 11349 net.cpp:150] Setting up conv17_2
I0623 22:58:49.519810 11349 net.cpp:157] Top shape: 8 128 1 1 (1024)
I0623 22:58:49.519829 11349 net.cpp:165] Memory required for data: 1288642624
I0623 22:58:49.519846 11349 layer_factory.hpp:77] Creating layer conv17_2/bn
I0623 22:58:49.519870 11349 net.cpp:100] Creating Layer conv17_2/bn
I0623 22:58:49.519917 11349 net.cpp:434] conv17_2/bn <- conv17_2
I0623 22:58:49.519965 11349 net.cpp:395] conv17_2/bn -> conv17_2 (in-place)
I0623 22:58:49.520215 11349 net.cpp:150] Setting up conv17_2/bn
I0623 22:58:49.520232 11349 net.cpp:157] Top shape: 8 128 1 1 (1024)
I0623 22:58:49.520277 11349 net.cpp:165] Memory required for data: 1288646720
I0623 22:58:49.520304 11349 layer_factory.hpp:77] Creating layer conv17_2/scale
I0623 22:58:49.520331 11349 net.cpp:100] Creating Layer conv17_2/scale
I0623 22:58:49.520362 11349 net.cpp:434] conv17_2/scale <- conv17_2
I0623 22:58:49.520385 11349 net.cpp:395] conv17_2/scale -> conv17_2 (in-place)
I0623 22:58:49.520447 11349 layer_factory.hpp:77] Creating layer conv17_2/scale
I0623 22:58:49.520678 11349 net.cpp:150] Setting up conv17_2/scale
I0623 22:58:49.520701 11349 net.cpp:157] Top shape: 8 128 1 1 (1024)
I0623 22:58:49.520720 11349 net.cpp:165] Memory required for data: 1288650816
I0623 22:58:49.520786 11349 layer_factory.hpp:77] Creating layer conv17_2/relu
I0623 22:58:49.520817 11349 net.cpp:100] Creating Layer conv17_2/relu
I0623 22:58:49.520843 11349 net.cpp:434] conv17_2/relu <- conv17_2
I0623 22:58:49.520879 11349 net.cpp:395] conv17_2/relu -> conv17_2 (in-place)
I0623 22:58:49.520902 11349 net.cpp:150] Setting up conv17_2/relu
I0623 22:58:49.520933 11349 net.cpp:157] Top shape: 8 128 1 1 (1024)
I0623 22:58:49.520978 11349 net.cpp:165] Memory required for data: 1288654912
I0623 22:58:49.521010 11349 layer_factory.hpp:77] Creating layer conv17_2_conv17_2/relu_0_split
I0623 22:58:49.521055 11349 net.cpp:100] Creating Layer conv17_2_conv17_2/relu_0_split
I0623 22:58:49.521104 11349 net.cpp:434] conv17_2_conv17_2/relu_0_split <- conv17_2
I0623 22:58:49.521158 11349 net.cpp:408] conv17_2_conv17_2/relu_0_split -> conv17_2_conv17_2/relu_0_split_0
I0623 22:58:49.521226 11349 net.cpp:408] conv17_2_conv17_2/relu_0_split -> conv17_2_conv17_2/relu_0_split_1
I0623 22:58:49.521253 11349 net.cpp:408] conv17_2_conv17_2/relu_0_split -> conv17_2_conv17_2/relu_0_split_2
I0623 22:58:49.521374 11349 net.cpp:150] Setting up conv17_2_conv17_2/relu_0_split
I0623 22:58:49.521401 11349 net.cpp:157] Top shape: 8 128 1 1 (1024)
I0623 22:58:49.521425 11349 net.cpp:157] Top shape: 8 128 1 1 (1024)
I0623 22:58:49.521446 11349 net.cpp:157] Top shape: 8 128 1 1 (1024)
I0623 22:58:49.521533 11349 net.cpp:165] Memory required for data: 1288667200
I0623 22:58:49.521559 11349 layer_factory.hpp:77] Creating layer conv11_mbox_loc
I0623 22:58:49.521672 11349 net.cpp:100] Creating Layer conv11_mbox_loc
I0623 22:58:49.521708 11349 net.cpp:434] conv11_mbox_loc <- conv11_conv11/relu_0_split_1
I0623 22:58:49.521847 11349 net.cpp:408] conv11_mbox_loc -> conv11_mbox_loc
I0623 22:58:49.522351 11349 net.cpp:150] Setting up conv11_mbox_loc
I0623 22:58:49.522419 11349 net.cpp:157] Top shape: 8 12 19 19 (34656)
I0623 22:58:49.522446 11349 net.cpp:165] Memory required for data: 1288805824
I0623 22:58:49.522473 11349 layer_factory.hpp:77] Creating layer conv11_mbox_loc_perm
I0623 22:58:49.522495 11349 net.cpp:100] Creating Layer conv11_mbox_loc_perm
I0623 22:58:49.522531 11349 net.cpp:434] conv11_mbox_loc_perm <- conv11_mbox_loc
I0623 22:58:49.522570 11349 net.cpp:408] conv11_mbox_loc_perm -> conv11_mbox_loc_perm
I0623 22:58:49.522672 11349 net.cpp:150] Setting up conv11_mbox_loc_perm
I0623 22:58:49.522691 11349 net.cpp:157] Top shape: 8 19 19 12 (34656)
I0623 22:58:49.522708 11349 net.cpp:165] Memory required for data: 1288944448
I0623 22:58:49.522727 11349 layer_factory.hpp:77] Creating layer conv11_mbox_loc_flat
I0623 22:58:49.522744 11349 net.cpp:100] Creating Layer conv11_mbox_loc_flat
I0623 22:58:49.522763 11349 net.cpp:434] conv11_mbox_loc_flat <- conv11_mbox_loc_perm
I0623 22:58:49.522780 11349 net.cpp:408] conv11_mbox_loc_flat -> conv11_mbox_loc_flat
I0623 22:58:49.522812 11349 net.cpp:150] Setting up conv11_mbox_loc_flat
I0623 22:58:49.522830 11349 net.cpp:157] Top shape: 8 4332 (34656)
I0623 22:58:49.522848 11349 net.cpp:165] Memory required for data: 1289083072
I0623 22:58:49.523015 11349 layer_factory.hpp:77] Creating layer conv11_mbox_conf_new
I0623 22:58:49.523054 11349 net.cpp:100] Creating Layer conv11_mbox_conf_new
I0623 22:58:49.523082 11349 net.cpp:434] conv11_mbox_conf_new <- conv11_conv11/relu_0_split_2
I0623 22:58:49.523108 11349 net.cpp:408] conv11_mbox_conf_new -> conv11_mbox_conf
I0623 22:58:49.523375 11349 net.cpp:150] Setting up conv11_mbox_conf_new
I0623 22:58:49.523393 11349 net.cpp:157] Top shape: 8 9 19 19 (25992)
I0623 22:58:49.523411 11349 net.cpp:165] Memory required for data: 1289187040
I0623 22:58:49.523429 11349 layer_factory.hpp:77] Creating layer conv11_mbox_conf_perm
I0623 22:58:49.523447 11349 net.cpp:100] Creating Layer conv11_mbox_conf_perm
I0623 22:58:49.523465 11349 net.cpp:434] conv11_mbox_conf_perm <- conv11_mbox_conf
I0623 22:58:49.523488 11349 net.cpp:408] conv11_mbox_conf_perm -> conv11_mbox_conf_perm
I0623 22:58:49.523582 11349 net.cpp:150] Setting up conv11_mbox_conf_perm
I0623 22:58:49.523600 11349 net.cpp:157] Top shape: 8 19 19 9 (25992)
I0623 22:58:49.523618 11349 net.cpp:165] Memory required for data: 1289291008
I0623 22:58:49.523636 11349 layer_factory.hpp:77] Creating layer conv11_mbox_conf_flat
I0623 22:58:49.523658 11349 net.cpp:100] Creating Layer conv11_mbox_conf_flat
I0623 22:58:49.523676 11349 net.cpp:434] conv11_mbox_conf_flat <- conv11_mbox_conf_perm
I0623 22:58:49.523703 11349 net.cpp:408] conv11_mbox_conf_flat -> conv11_mbox_conf_flat
I0623 22:58:49.523736 11349 net.cpp:150] Setting up conv11_mbox_conf_flat
I0623 22:58:49.523753 11349 net.cpp:157] Top shape: 8 3249 (25992)
I0623 22:58:49.523772 11349 net.cpp:165] Memory required for data: 1289394976
I0623 22:58:49.523789 11349 layer_factory.hpp:77] Creating layer conv11_mbox_priorbox
I0623 22:58:49.523808 11349 net.cpp:100] Creating Layer conv11_mbox_priorbox
I0623 22:58:49.523825 11349 net.cpp:434] conv11_mbox_priorbox <- conv11_conv11/relu_0_split_3
I0623 22:58:49.523844 11349 net.cpp:434] conv11_mbox_priorbox <- data_data_0_split_1
I0623 22:58:49.523861 11349 net.cpp:408] conv11_mbox_priorbox -> conv11_mbox_priorbox
I0623 22:58:49.523898 11349 net.cpp:150] Setting up conv11_mbox_priorbox
I0623 22:58:49.523916 11349 net.cpp:157] Top shape: 1 2 4332 (8664)
I0623 22:58:49.523934 11349 net.cpp:165] Memory required for data: 1289429632
I0623 22:58:49.523952 11349 layer_factory.hpp:77] Creating layer conv13_mbox_loc
I0623 22:58:49.523975 11349 net.cpp:100] Creating Layer conv13_mbox_loc
I0623 22:58:49.523993 11349 net.cpp:434] conv13_mbox_loc <- conv13_conv13/relu_0_split_1
I0623 22:58:49.524015 11349 net.cpp:408] conv13_mbox_loc -> conv13_mbox_loc
I0623 22:58:49.524446 11349 net.cpp:150] Setting up conv13_mbox_loc
I0623 22:58:49.524463 11349 net.cpp:157] Top shape: 8 24 10 10 (19200)
I0623 22:58:49.524482 11349 net.cpp:165] Memory required for data: 1289506432
I0623 22:58:49.524499 11349 layer_factory.hpp:77] Creating layer conv13_mbox_loc_perm
I0623 22:58:49.524513 11349 net.cpp:100] Creating Layer conv13_mbox_loc_perm
I0623 22:58:49.524530 11349 net.cpp:434] conv13_mbox_loc_perm <- conv13_mbox_loc
I0623 22:58:49.524549 11349 net.cpp:408] conv13_mbox_loc_perm -> conv13_mbox_loc_perm
I0623 22:58:49.524650 11349 net.cpp:150] Setting up conv13_mbox_loc_perm
I0623 22:58:49.524668 11349 net.cpp:157] Top shape: 8 10 10 24 (19200)
I0623 22:58:49.524686 11349 net.cpp:165] Memory required for data: 1289583232
I0623 22:58:49.524704 11349 layer_factory.hpp:77] Creating layer conv13_mbox_loc_flat
I0623 22:58:49.524722 11349 net.cpp:100] Creating Layer conv13_mbox_loc_flat
I0623 22:58:49.524736 11349 net.cpp:434] conv13_mbox_loc_flat <- conv13_mbox_loc_perm
I0623 22:58:49.524780 11349 net.cpp:408] conv13_mbox_loc_flat -> conv13_mbox_loc_flat
I0623 22:58:49.524817 11349 net.cpp:150] Setting up conv13_mbox_loc_flat
I0623 22:58:49.524835 11349 net.cpp:157] Top shape: 8 2400 (19200)
I0623 22:58:49.524853 11349 net.cpp:165] Memory required for data: 1289660032
I0623 22:58:49.524871 11349 layer_factory.hpp:77] Creating layer conv13_mbox_conf_new
I0623 22:58:49.524894 11349 net.cpp:100] Creating Layer conv13_mbox_conf_new
I0623 22:58:49.524912 11349 net.cpp:434] conv13_mbox_conf_new <- conv13_conv13/relu_0_split_2
I0623 22:58:49.524935 11349 net.cpp:408] conv13_mbox_conf_new -> conv13_mbox_conf
I0623 22:58:49.525310 11349 net.cpp:150] Setting up conv13_mbox_conf_new
I0623 22:58:49.525332 11349 net.cpp:157] Top shape: 8 18 10 10 (14400)
I0623 22:58:49.525354 11349 net.cpp:165] Memory required for data: 1289717632
I0623 22:58:49.525372 11349 layer_factory.hpp:77] Creating layer conv13_mbox_conf_perm
I0623 22:58:49.525404 11349 net.cpp:100] Creating Layer conv13_mbox_conf_perm
I0623 22:58:49.525423 11349 net.cpp:434] conv13_mbox_conf_perm <- conv13_mbox_conf
I0623 22:58:49.525440 11349 net.cpp:408] conv13_mbox_conf_perm -> conv13_mbox_conf_perm
I0623 22:58:49.525542 11349 net.cpp:150] Setting up conv13_mbox_conf_perm
I0623 22:58:49.525560 11349 net.cpp:157] Top shape: 8 10 10 18 (14400)
I0623 22:58:49.525578 11349 net.cpp:165] Memory required for data: 1289775232
I0623 22:58:49.525596 11349 layer_factory.hpp:77] Creating layer conv13_mbox_conf_flat
I0623 22:58:49.525641 11349 net.cpp:100] Creating Layer conv13_mbox_conf_flat
I0623 22:58:49.525688 11349 net.cpp:434] conv13_mbox_conf_flat <- conv13_mbox_conf_perm
I0623 22:58:49.525720 11349 net.cpp:408] conv13_mbox_conf_flat -> conv13_mbox_conf_flat
I0623 22:58:49.525760 11349 net.cpp:150] Setting up conv13_mbox_conf_flat
I0623 22:58:49.525787 11349 net.cpp:157] Top shape: 8 1800 (14400)
I0623 22:58:49.525815 11349 net.cpp:165] Memory required for data: 1289832832
I0623 22:58:49.525859 11349 layer_factory.hpp:77] Creating layer conv13_mbox_priorbox
I0623 22:58:49.525887 11349 net.cpp:100] Creating Layer conv13_mbox_priorbox
I0623 22:58:49.525904 11349 net.cpp:434] conv13_mbox_priorbox <- conv13_conv13/relu_0_split_3
I0623 22:58:49.525926 11349 net.cpp:434] conv13_mbox_priorbox <- data_data_0_split_2
I0623 22:58:49.525962 11349 net.cpp:408] conv13_mbox_priorbox -> conv13_mbox_priorbox
I0623 22:58:49.526007 11349 net.cpp:150] Setting up conv13_mbox_priorbox
I0623 22:58:49.526043 11349 net.cpp:157] Top shape: 1 2 2400 (4800)
I0623 22:58:49.526062 11349 net.cpp:165] Memory required for data: 1289852032
I0623 22:58:49.526079 11349 layer_factory.hpp:77] Creating layer conv14_2_mbox_loc
I0623 22:58:49.526103 11349 net.cpp:100] Creating Layer conv14_2_mbox_loc
I0623 22:58:49.526120 11349 net.cpp:434] conv14_2_mbox_loc <- conv14_2_conv14_2/relu_0_split_1
I0623 22:58:49.526139 11349 net.cpp:408] conv14_2_mbox_loc -> conv14_2_mbox_loc
I0623 22:58:49.526434 11349 net.cpp:150] Setting up conv14_2_mbox_loc
I0623 22:58:49.526453 11349 net.cpp:157] Top shape: 8 24 5 5 (4800)
I0623 22:58:49.526470 11349 net.cpp:165] Memory required for data: 1289871232
I0623 22:58:49.526510 11349 layer_factory.hpp:77] Creating layer conv14_2_mbox_loc_perm
I0623 22:58:49.526533 11349 net.cpp:100] Creating Layer conv14_2_mbox_loc_perm
I0623 22:58:49.526561 11349 net.cpp:434] conv14_2_mbox_loc_perm <- conv14_2_mbox_loc
I0623 22:58:49.526582 11349 net.cpp:408] conv14_2_mbox_loc_perm -> conv14_2_mbox_loc_perm
I0623 22:58:49.526700 11349 net.cpp:150] Setting up conv14_2_mbox_loc_perm
I0623 22:58:49.526718 11349 net.cpp:157] Top shape: 8 5 5 24 (4800)
I0623 22:58:49.526736 11349 net.cpp:165] Memory required for data: 1289890432
I0623 22:58:49.526754 11349 layer_factory.hpp:77] Creating layer conv14_2_mbox_loc_flat
I0623 22:58:49.526772 11349 net.cpp:100] Creating Layer conv14_2_mbox_loc_flat
I0623 22:58:49.526790 11349 net.cpp:434] conv14_2_mbox_loc_flat <- conv14_2_mbox_loc_perm
I0623 22:58:49.526808 11349 net.cpp:408] conv14_2_mbox_loc_flat -> conv14_2_mbox_loc_flat
I0623 22:58:49.526845 11349 net.cpp:150] Setting up conv14_2_mbox_loc_flat
I0623 22:58:49.526938 11349 net.cpp:157] Top shape: 8 600 (4800)
I0623 22:58:49.526970 11349 net.cpp:165] Memory required for data: 1289909632
I0623 22:58:49.527001 11349 layer_factory.hpp:77] Creating layer conv14_2_mbox_conf_new
I0623 22:58:49.527032 11349 net.cpp:100] Creating Layer conv14_2_mbox_conf_new
I0623 22:58:49.527063 11349 net.cpp:434] conv14_2_mbox_conf_new <- conv14_2_conv14_2/relu_0_split_2
I0623 22:58:49.527081 11349 net.cpp:408] conv14_2_mbox_conf_new -> conv14_2_mbox_conf
I0623 22:58:49.527353 11349 net.cpp:150] Setting up conv14_2_mbox_conf_new
I0623 22:58:49.527370 11349 net.cpp:157] Top shape: 8 18 5 5 (3600)
I0623 22:58:49.527389 11349 net.cpp:165] Memory required for data: 1289924032
I0623 22:58:49.527406 11349 layer_factory.hpp:77] Creating layer conv14_2_mbox_conf_perm
I0623 22:58:49.527424 11349 net.cpp:100] Creating Layer conv14_2_mbox_conf_perm
I0623 22:58:49.527442 11349 net.cpp:434] conv14_2_mbox_conf_perm <- conv14_2_mbox_conf
I0623 22:58:49.527460 11349 net.cpp:408] conv14_2_mbox_conf_perm -> conv14_2_mbox_conf_perm
I0623 22:58:49.527559 11349 net.cpp:150] Setting up conv14_2_mbox_conf_perm
I0623 22:58:49.527576 11349 net.cpp:157] Top shape: 8 5 5 18 (3600)
I0623 22:58:49.527595 11349 net.cpp:165] Memory required for data: 1289938432
I0623 22:58:49.527612 11349 layer_factory.hpp:77] Creating layer conv14_2_mbox_conf_flat
I0623 22:58:49.527631 11349 net.cpp:100] Creating Layer conv14_2_mbox_conf_flat
I0623 22:58:49.527648 11349 net.cpp:434] conv14_2_mbox_conf_flat <- conv14_2_mbox_conf_perm
I0623 22:58:49.527670 11349 net.cpp:408] conv14_2_mbox_conf_flat -> conv14_2_mbox_conf_flat
I0623 22:58:49.527707 11349 net.cpp:150] Setting up conv14_2_mbox_conf_flat
I0623 22:58:49.527730 11349 net.cpp:157] Top shape: 8 450 (3600)
I0623 22:58:49.527748 11349 net.cpp:165] Memory required for data: 1289952832
I0623 22:58:49.527766 11349 layer_factory.hpp:77] Creating layer conv14_2_mbox_priorbox
I0623 22:58:49.527788 11349 net.cpp:100] Creating Layer conv14_2_mbox_priorbox
I0623 22:58:49.527806 11349 net.cpp:434] conv14_2_mbox_priorbox <- conv14_2_conv14_2/relu_0_split_3
I0623 22:58:49.527824 11349 net.cpp:434] conv14_2_mbox_priorbox <- data_data_0_split_3
I0623 22:58:49.527842 11349 net.cpp:408] conv14_2_mbox_priorbox -> conv14_2_mbox_priorbox
I0623 22:58:49.527879 11349 net.cpp:150] Setting up conv14_2_mbox_priorbox
I0623 22:58:49.527897 11349 net.cpp:157] Top shape: 1 2 600 (1200)
I0623 22:58:49.527915 11349 net.cpp:165] Memory required for data: 1289957632
I0623 22:58:49.527933 11349 layer_factory.hpp:77] Creating layer conv15_2_mbox_loc
I0623 22:58:49.527956 11349 net.cpp:100] Creating Layer conv15_2_mbox_loc
I0623 22:58:49.527974 11349 net.cpp:434] conv15_2_mbox_loc <- conv15_2_conv15_2/relu_0_split_1
I0623 22:58:49.527997 11349 net.cpp:408] conv15_2_mbox_loc -> conv15_2_mbox_loc
I0623 22:58:49.528244 11349 net.cpp:150] Setting up conv15_2_mbox_loc
I0623 22:58:49.528262 11349 net.cpp:157] Top shape: 8 24 3 3 (1728)
I0623 22:58:49.528280 11349 net.cpp:165] Memory required for data: 1289964544
I0623 22:58:49.528302 11349 layer_factory.hpp:77] Creating layer conv15_2_mbox_loc_perm
I0623 22:58:49.528321 11349 net.cpp:100] Creating Layer conv15_2_mbox_loc_perm
I0623 22:58:49.528338 11349 net.cpp:434] conv15_2_mbox_loc_perm <- conv15_2_mbox_loc
I0623 22:58:49.528357 11349 net.cpp:408] conv15_2_mbox_loc_perm -> conv15_2_mbox_loc_perm
I0623 22:58:49.528455 11349 net.cpp:150] Setting up conv15_2_mbox_loc_perm
I0623 22:58:49.528472 11349 net.cpp:157] Top shape: 8 3 3 24 (1728)
I0623 22:58:49.528491 11349 net.cpp:165] Memory required for data: 1289971456
I0623 22:58:49.528508 11349 layer_factory.hpp:77] Creating layer conv15_2_mbox_loc_flat
I0623 22:58:49.528527 11349 net.cpp:100] Creating Layer conv15_2_mbox_loc_flat
I0623 22:58:49.528544 11349 net.cpp:434] conv15_2_mbox_loc_flat <- conv15_2_mbox_loc_perm
I0623 22:58:49.528563 11349 net.cpp:408] conv15_2_mbox_loc_flat -> conv15_2_mbox_loc_flat
I0623 22:58:49.528599 11349 net.cpp:150] Setting up conv15_2_mbox_loc_flat
I0623 22:58:49.528616 11349 net.cpp:157] Top shape: 8 216 (1728)
I0623 22:58:49.528635 11349 net.cpp:165] Memory required for data: 1289978368
I0623 22:58:49.528652 11349 layer_factory.hpp:77] Creating layer conv15_2_mbox_conf_new
I0623 22:58:49.528676 11349 net.cpp:100] Creating Layer conv15_2_mbox_conf_new
I0623 22:58:49.528693 11349 net.cpp:434] conv15_2_mbox_conf_new <- conv15_2_conv15_2/relu_0_split_2
I0623 22:58:49.528717 11349 net.cpp:408] conv15_2_mbox_conf_new -> conv15_2_mbox_conf
I0623 22:58:49.528957 11349 net.cpp:150] Setting up conv15_2_mbox_conf_new
I0623 22:58:49.528975 11349 net.cpp:157] Top shape: 8 18 3 3 (1296)
I0623 22:58:49.528993 11349 net.cpp:165] Memory required for data: 1289983552
I0623 22:58:49.529011 11349 layer_factory.hpp:77] Creating layer conv15_2_mbox_conf_perm
I0623 22:58:49.529029 11349 net.cpp:100] Creating Layer conv15_2_mbox_conf_perm
I0623 22:58:49.529047 11349 net.cpp:434] conv15_2_mbox_conf_perm <- conv15_2_mbox_conf
I0623 22:58:49.529065 11349 net.cpp:408] conv15_2_mbox_conf_perm -> conv15_2_mbox_conf_perm
I0623 22:58:49.529165 11349 net.cpp:150] Setting up conv15_2_mbox_conf_perm
I0623 22:58:49.529182 11349 net.cpp:157] Top shape: 8 3 3 18 (1296)
I0623 22:58:49.529201 11349 net.cpp:165] Memory required for data: 1289988736
I0623 22:58:49.529218 11349 layer_factory.hpp:77] Creating layer conv15_2_mbox_conf_flat
I0623 22:58:49.529237 11349 net.cpp:100] Creating Layer conv15_2_mbox_conf_flat
I0623 22:58:49.529254 11349 net.cpp:434] conv15_2_mbox_conf_flat <- conv15_2_mbox_conf_perm
I0623 22:58:49.529276 11349 net.cpp:408] conv15_2_mbox_conf_flat -> conv15_2_mbox_conf_flat
I0623 22:58:49.529314 11349 net.cpp:150] Setting up conv15_2_mbox_conf_flat
I0623 22:58:49.529335 11349 net.cpp:157] Top shape: 8 162 (1296)
I0623 22:58:49.529353 11349 net.cpp:165] Memory required for data: 1289993920
I0623 22:58:49.529371 11349 layer_factory.hpp:77] Creating layer conv15_2_mbox_priorbox
I0623 22:58:49.529394 11349 net.cpp:100] Creating Layer conv15_2_mbox_priorbox
I0623 22:58:49.529412 11349 net.cpp:434] conv15_2_mbox_priorbox <- conv15_2_conv15_2/relu_0_split_3
I0623 22:58:49.529430 11349 net.cpp:434] conv15_2_mbox_priorbox <- data_data_0_split_4
I0623 22:58:49.529453 11349 net.cpp:408] conv15_2_mbox_priorbox -> conv15_2_mbox_priorbox
I0623 22:58:49.529484 11349 net.cpp:150] Setting up conv15_2_mbox_priorbox
I0623 22:58:49.529502 11349 net.cpp:157] Top shape: 1 2 216 (432)
I0623 22:58:49.529520 11349 net.cpp:165] Memory required for data: 1289995648
I0623 22:58:49.529538 11349 layer_factory.hpp:77] Creating layer conv16_2_mbox_loc
I0623 22:58:49.529561 11349 net.cpp:100] Creating Layer conv16_2_mbox_loc
I0623 22:58:49.529579 11349 net.cpp:434] conv16_2_mbox_loc <- conv16_2_conv16_2/relu_0_split_1
I0623 22:58:49.529598 11349 net.cpp:408] conv16_2_mbox_loc -> conv16_2_mbox_loc
I0623 22:58:49.529844 11349 net.cpp:150] Setting up conv16_2_mbox_loc
I0623 22:58:49.529862 11349 net.cpp:157] Top shape: 8 24 2 2 (768)
I0623 22:58:49.529881 11349 net.cpp:165] Memory required for data: 1289998720
I0623 22:58:49.529898 11349 layer_factory.hpp:77] Creating layer conv16_2_mbox_loc_perm
I0623 22:58:49.529917 11349 net.cpp:100] Creating Layer conv16_2_mbox_loc_perm
I0623 22:58:49.529934 11349 net.cpp:434] conv16_2_mbox_loc_perm <- conv16_2_mbox_loc
I0623 22:58:49.529953 11349 net.cpp:408] conv16_2_mbox_loc_perm -> conv16_2_mbox_loc_perm
I0623 22:58:49.530050 11349 net.cpp:150] Setting up conv16_2_mbox_loc_perm
I0623 22:58:49.530068 11349 net.cpp:157] Top shape: 8 2 2 24 (768)
I0623 22:58:49.530086 11349 net.cpp:165] Memory required for data: 1290001792
I0623 22:58:49.530104 11349 layer_factory.hpp:77] Creating layer conv16_2_mbox_loc_flat
I0623 22:58:49.530122 11349 net.cpp:100] Creating Layer conv16_2_mbox_loc_flat
I0623 22:58:49.530140 11349 net.cpp:434] conv16_2_mbox_loc_flat <- conv16_2_mbox_loc_perm
I0623 22:58:49.530158 11349 net.cpp:408] conv16_2_mbox_loc_flat -> conv16_2_mbox_loc_flat
I0623 22:58:49.530190 11349 net.cpp:150] Setting up conv16_2_mbox_loc_flat
I0623 22:58:49.530208 11349 net.cpp:157] Top shape: 8 96 (768)
I0623 22:58:49.530226 11349 net.cpp:165] Memory required for data: 1290004864
I0623 22:58:49.530244 11349 layer_factory.hpp:77] Creating layer conv16_2_mbox_conf_new
I0623 22:58:49.530267 11349 net.cpp:100] Creating Layer conv16_2_mbox_conf_new
I0623 22:58:49.530285 11349 net.cpp:434] conv16_2_mbox_conf_new <- conv16_2_conv16_2/relu_0_split_2
I0623 22:58:49.530308 11349 net.cpp:408] conv16_2_mbox_conf_new -> conv16_2_mbox_conf
I0623 22:58:49.530583 11349 net.cpp:150] Setting up conv16_2_mbox_conf_new
I0623 22:58:49.530601 11349 net.cpp:157] Top shape: 8 18 2 2 (576)
I0623 22:58:49.530619 11349 net.cpp:165] Memory required for data: 1290007168
I0623 22:58:49.530637 11349 layer_factory.hpp:77] Creating layer conv16_2_mbox_conf_perm
I0623 22:58:49.530655 11349 net.cpp:100] Creating Layer conv16_2_mbox_conf_perm
I0623 22:58:49.530673 11349 net.cpp:434] conv16_2_mbox_conf_perm <- conv16_2_mbox_conf
I0623 22:58:49.530691 11349 net.cpp:408] conv16_2_mbox_conf_perm -> conv16_2_mbox_conf_perm
I0623 22:58:49.530784 11349 net.cpp:150] Setting up conv16_2_mbox_conf_perm
I0623 22:58:49.530802 11349 net.cpp:157] Top shape: 8 2 2 18 (576)
I0623 22:58:49.530820 11349 net.cpp:165] Memory required for data: 1290009472
I0623 22:58:49.530838 11349 layer_factory.hpp:77] Creating layer conv16_2_mbox_conf_flat
I0623 22:58:49.530856 11349 net.cpp:100] Creating Layer conv16_2_mbox_conf_flat
I0623 22:58:49.531004 11349 net.cpp:434] conv16_2_mbox_conf_flat <- conv16_2_mbox_conf_perm
I0623 22:58:49.531026 11349 net.cpp:408] conv16_2_mbox_conf_flat -> conv16_2_mbox_conf_flat
I0623 22:58:49.531080 11349 net.cpp:150] Setting up conv16_2_mbox_conf_flat
I0623 22:58:49.531097 11349 net.cpp:157] Top shape: 8 72 (576)
I0623 22:58:49.531121 11349 net.cpp:165] Memory required for data: 1290011776
I0623 22:58:49.531138 11349 layer_factory.hpp:77] Creating layer conv16_2_mbox_priorbox
I0623 22:58:49.531157 11349 net.cpp:100] Creating Layer conv16_2_mbox_priorbox
I0623 22:58:49.531174 11349 net.cpp:434] conv16_2_mbox_priorbox <- conv16_2_conv16_2/relu_0_split_3
I0623 22:58:49.531193 11349 net.cpp:434] conv16_2_mbox_priorbox <- data_data_0_split_5
I0623 22:58:49.531210 11349 net.cpp:408] conv16_2_mbox_priorbox -> conv16_2_mbox_priorbox
I0623 22:58:49.531246 11349 net.cpp:150] Setting up conv16_2_mbox_priorbox
I0623 22:58:49.531265 11349 net.cpp:157] Top shape: 1 2 96 (192)
I0623 22:58:49.531282 11349 net.cpp:165] Memory required for data: 1290012544
I0623 22:58:49.531301 11349 layer_factory.hpp:77] Creating layer conv17_2_mbox_loc
I0623 22:58:49.531323 11349 net.cpp:100] Creating Layer conv17_2_mbox_loc
I0623 22:58:49.531342 11349 net.cpp:434] conv17_2_mbox_loc <- conv17_2_conv17_2/relu_0_split_0
I0623 22:58:49.531363 11349 net.cpp:408] conv17_2_mbox_loc -> conv17_2_mbox_loc
I0623 22:58:49.531596 11349 net.cpp:150] Setting up conv17_2_mbox_loc
I0623 22:58:49.531615 11349 net.cpp:157] Top shape: 8 24 1 1 (192)
I0623 22:58:49.531632 11349 net.cpp:165] Memory required for data: 1290013312
I0623 22:58:49.531651 11349 layer_factory.hpp:77] Creating layer conv17_2_mbox_loc_perm
I0623 22:58:49.531668 11349 net.cpp:100] Creating Layer conv17_2_mbox_loc_perm
I0623 22:58:49.531708 11349 net.cpp:434] conv17_2_mbox_loc_perm <- conv17_2_mbox_loc
I0623 22:58:49.531730 11349 net.cpp:408] conv17_2_mbox_loc_perm -> conv17_2_mbox_loc_perm
I0623 22:58:49.531843 11349 net.cpp:150] Setting up conv17_2_mbox_loc_perm
I0623 22:58:49.531870 11349 net.cpp:157] Top shape: 8 1 1 24 (192)
I0623 22:58:49.531904 11349 net.cpp:165] Memory required for data: 1290014080
I0623 22:58:49.531936 11349 layer_factory.hpp:77] Creating layer conv17_2_mbox_loc_flat
I0623 22:58:49.531955 11349 net.cpp:100] Creating Layer conv17_2_mbox_loc_flat
I0623 22:58:49.531972 11349 net.cpp:434] conv17_2_mbox_loc_flat <- conv17_2_mbox_loc_perm
I0623 22:58:49.531991 11349 net.cpp:408] conv17_2_mbox_loc_flat -> conv17_2_mbox_loc_flat
I0623 22:58:49.532022 11349 net.cpp:150] Setting up conv17_2_mbox_loc_flat
I0623 22:58:49.532040 11349 net.cpp:157] Top shape: 8 24 (192)
I0623 22:58:49.532058 11349 net.cpp:165] Memory required for data: 1290014848
I0623 22:58:49.532076 11349 layer_factory.hpp:77] Creating layer conv17_2_mbox_conf_new
I0623 22:58:49.532099 11349 net.cpp:100] Creating Layer conv17_2_mbox_conf_new
I0623 22:58:49.532117 11349 net.cpp:434] conv17_2_mbox_conf_new <- conv17_2_conv17_2/relu_0_split_1
I0623 22:58:49.532135 11349 net.cpp:408] conv17_2_mbox_conf_new -> conv17_2_mbox_conf
I0623 22:58:49.532354 11349 net.cpp:150] Setting up conv17_2_mbox_conf_new
I0623 22:58:49.532372 11349 net.cpp:157] Top shape: 8 18 1 1 (144)
I0623 22:58:49.532390 11349 net.cpp:165] Memory required for data: 1290015424
I0623 22:58:49.532408 11349 layer_factory.hpp:77] Creating layer conv17_2_mbox_conf_perm
I0623 22:58:49.532431 11349 net.cpp:100] Creating Layer conv17_2_mbox_conf_perm
I0623 22:58:49.532449 11349 net.cpp:434] conv17_2_mbox_conf_perm <- conv17_2_mbox_conf
I0623 22:58:49.532467 11349 net.cpp:408] conv17_2_mbox_conf_perm -> conv17_2_mbox_conf_perm
I0623 22:58:49.532559 11349 net.cpp:150] Setting up conv17_2_mbox_conf_perm
I0623 22:58:49.532577 11349 net.cpp:157] Top shape: 8 1 1 18 (144)
I0623 22:58:49.532595 11349 net.cpp:165] Memory required for data: 1290016000
I0623 22:58:49.532613 11349 layer_factory.hpp:77] Creating layer conv17_2_mbox_conf_flat
I0623 22:58:49.532631 11349 net.cpp:100] Creating Layer conv17_2_mbox_conf_flat
I0623 22:58:49.532649 11349 net.cpp:434] conv17_2_mbox_conf_flat <- conv17_2_mbox_conf_perm
I0623 22:58:49.532667 11349 net.cpp:408] conv17_2_mbox_conf_flat -> conv17_2_mbox_conf_flat
I0623 22:58:49.532701 11349 net.cpp:150] Setting up conv17_2_mbox_conf_flat
I0623 22:58:49.532728 11349 net.cpp:157] Top shape: 8 18 (144)
I0623 22:58:49.532747 11349 net.cpp:165] Memory required for data: 1290016576
I0623 22:58:49.532764 11349 layer_factory.hpp:77] Creating layer conv17_2_mbox_priorbox
I0623 22:58:49.532783 11349 net.cpp:100] Creating Layer conv17_2_mbox_priorbox
I0623 22:58:49.532800 11349 net.cpp:434] conv17_2_mbox_priorbox <- conv17_2_conv17_2/relu_0_split_2
I0623 22:58:49.532819 11349 net.cpp:434] conv17_2_mbox_priorbox <- data_data_0_split_6
I0623 22:58:49.532840 11349 net.cpp:408] conv17_2_mbox_priorbox -> conv17_2_mbox_priorbox
I0623 22:58:49.532877 11349 net.cpp:150] Setting up conv17_2_mbox_priorbox
I0623 22:58:49.532896 11349 net.cpp:157] Top shape: 1 2 24 (48)
I0623 22:58:49.532913 11349 net.cpp:165] Memory required for data: 1290016768
I0623 22:58:49.532932 11349 layer_factory.hpp:77] Creating layer mbox_loc
I0623 22:58:49.532949 11349 net.cpp:100] Creating Layer mbox_loc
I0623 22:58:49.532968 11349 net.cpp:434] mbox_loc <- conv11_mbox_loc_flat
I0623 22:58:49.532985 11349 net.cpp:434] mbox_loc <- conv13_mbox_loc_flat
I0623 22:58:49.533004 11349 net.cpp:434] mbox_loc <- conv14_2_mbox_loc_flat
I0623 22:58:49.533021 11349 net.cpp:434] mbox_loc <- conv15_2_mbox_loc_flat
I0623 22:58:49.533040 11349 net.cpp:434] mbox_loc <- conv16_2_mbox_loc_flat
I0623 22:58:49.533057 11349 net.cpp:434] mbox_loc <- conv17_2_mbox_loc_flat
I0623 22:58:49.533076 11349 net.cpp:408] mbox_loc -> mbox_loc
I0623 22:58:49.533113 11349 net.cpp:150] Setting up mbox_loc
I0623 22:58:49.533130 11349 net.cpp:157] Top shape: 8 7668 (61344)
I0623 22:58:49.533149 11349 net.cpp:165] Memory required for data: 1290262144
I0623 22:58:49.533166 11349 layer_factory.hpp:77] Creating layer mbox_conf
I0623 22:58:49.533185 11349 net.cpp:100] Creating Layer mbox_conf
I0623 22:58:49.533202 11349 net.cpp:434] mbox_conf <- conv11_mbox_conf_flat
I0623 22:58:49.533221 11349 net.cpp:434] mbox_conf <- conv13_mbox_conf_flat
I0623 22:58:49.533238 11349 net.cpp:434] mbox_conf <- conv14_2_mbox_conf_flat
I0623 22:58:49.533257 11349 net.cpp:434] mbox_conf <- conv15_2_mbox_conf_flat
I0623 22:58:49.533274 11349 net.cpp:434] mbox_conf <- conv16_2_mbox_conf_flat
I0623 22:58:49.533293 11349 net.cpp:434] mbox_conf <- conv17_2_mbox_conf_flat
I0623 22:58:49.533310 11349 net.cpp:408] mbox_conf -> mbox_conf
I0623 22:58:49.533346 11349 net.cpp:150] Setting up mbox_conf
I0623 22:58:49.533365 11349 net.cpp:157] Top shape: 8 5751 (46008)
I0623 22:58:49.533382 11349 net.cpp:165] Memory required for data: 1290446176
I0623 22:58:49.533401 11349 layer_factory.hpp:77] Creating layer mbox_priorbox
I0623 22:58:49.533418 11349 net.cpp:100] Creating Layer mbox_priorbox
I0623 22:58:49.533437 11349 net.cpp:434] mbox_priorbox <- conv11_mbox_priorbox
I0623 22:58:49.533454 11349 net.cpp:434] mbox_priorbox <- conv13_mbox_priorbox
I0623 22:58:49.533473 11349 net.cpp:434] mbox_priorbox <- conv14_2_mbox_priorbox
I0623 22:58:49.533490 11349 net.cpp:434] mbox_priorbox <- conv15_2_mbox_priorbox
I0623 22:58:49.533509 11349 net.cpp:434] mbox_priorbox <- conv16_2_mbox_priorbox
I0623 22:58:49.533526 11349 net.cpp:434] mbox_priorbox <- conv17_2_mbox_priorbox
I0623 22:58:49.533545 11349 net.cpp:408] mbox_priorbox -> mbox_priorbox
I0623 22:58:49.533581 11349 net.cpp:150] Setting up mbox_priorbox
I0623 22:58:49.533598 11349 net.cpp:157] Top shape: 1 2 7668 (15336)
I0623 22:58:49.533617 11349 net.cpp:165] Memory required for data: 1290507520
I0623 22:58:49.533634 11349 layer_factory.hpp:77] Creating layer mbox_conf_reshape
I0623 22:58:49.533653 11349 net.cpp:100] Creating Layer mbox_conf_reshape
I0623 22:58:49.533670 11349 net.cpp:434] mbox_conf_reshape <- mbox_conf
I0623 22:58:49.533689 11349 net.cpp:408] mbox_conf_reshape -> mbox_conf_reshape
I0623 22:58:49.533725 11349 net.cpp:150] Setting up mbox_conf_reshape
I0623 22:58:49.533743 11349 net.cpp:157] Top shape: 8 1917 3 (46008)
I0623 22:58:49.533761 11349 net.cpp:165] Memory required for data: 1290691552
I0623 22:58:49.533779 11349 layer_factory.hpp:77] Creating layer mbox_conf_softmax
I0623 22:58:49.533802 11349 net.cpp:100] Creating Layer mbox_conf_softmax
I0623 22:58:49.533820 11349 net.cpp:434] mbox_conf_softmax <- mbox_conf_reshape
I0623 22:58:49.533843 11349 net.cpp:408] mbox_conf_softmax -> mbox_conf_softmax
I0623 22:58:49.533908 11349 net.cpp:150] Setting up mbox_conf_softmax
I0623 22:58:49.533926 11349 net.cpp:157] Top shape: 8 1917 3 (46008)
I0623 22:58:49.533944 11349 net.cpp:165] Memory required for data: 1290875584
I0623 22:58:49.533962 11349 layer_factory.hpp:77] Creating layer mbox_conf_flatten
I0623 22:58:49.533980 11349 net.cpp:100] Creating Layer mbox_conf_flatten
I0623 22:58:49.533998 11349 net.cpp:434] mbox_conf_flatten <- mbox_conf_softmax
I0623 22:58:49.534016 11349 net.cpp:408] mbox_conf_flatten -> mbox_conf_flatten
I0623 22:58:49.534049 11349 net.cpp:150] Setting up mbox_conf_flatten
I0623 22:58:49.534066 11349 net.cpp:157] Top shape: 8 5751 (46008)
I0623 22:58:49.534085 11349 net.cpp:165] Memory required for data: 1291059616
I0623 22:58:49.534102 11349 layer_factory.hpp:77] Creating layer detection_out
I0623 22:58:49.534124 11349 net.cpp:100] Creating Layer detection_out
I0623 22:58:49.534142 11349 net.cpp:434] detection_out <- mbox_loc
I0623 22:58:49.534160 11349 net.cpp:434] detection_out <- mbox_conf_flatten
I0623 22:58:49.534178 11349 net.cpp:434] detection_out <- mbox_priorbox
I0623 22:58:49.534196 11349 net.cpp:408] detection_out -> detection_out
I0623 22:58:49.534257 11349 net.cpp:150] Setting up detection_out
I0623 22:58:49.534276 11349 net.cpp:157] Top shape: 1 1 1 7 (7)
I0623 22:58:49.534293 11349 net.cpp:165] Memory required for data: 1291059644
I0623 22:58:49.534312 11349 layer_factory.hpp:77] Creating layer detection_eval
I0623 22:58:49.534329 11349 net.cpp:100] Creating Layer detection_eval
I0623 22:58:49.534348 11349 net.cpp:434] detection_eval <- detection_out
I0623 22:58:49.534365 11349 net.cpp:434] detection_eval <- label
I0623 22:58:49.534384 11349 net.cpp:408] detection_eval -> detection_eval
I0623 22:58:49.534433 11349 net.cpp:150] Setting up detection_eval
I0623 22:58:49.534451 11349 net.cpp:157] Top shape: 1 1 3 5 (15)
I0623 22:58:49.534469 11349 net.cpp:165] Memory required for data: 1291059704
I0623 22:58:49.534487 11349 net.cpp:228] detection_eval does not need backward computation.
I0623 22:58:49.534505 11349 net.cpp:228] detection_out does not need backward computation.
I0623 22:58:49.534523 11349 net.cpp:228] mbox_conf_flatten does not need backward computation.
I0623 22:58:49.534541 11349 net.cpp:228] mbox_conf_softmax does not need backward computation.
…
